part_pc_vae_trashcan/5000_net_part_pc_encoder.pth (torch_old, 244256 bytes, 28 tensors)

conv1.weight f4 [64, 3, 1]
0.25943077 -0.09782147 -0.39086905 0.3827669 0.2621971 0.5309502 0.37245235 -0.3315322
0.5326098 0.17631835 -0.38946965 -0.5036024 0.2397728 0.049688525 -0.12003467 -0.43516257
-0.4866725 -0.30794483 -0.30426294 0.3598355 -0.4717897 0.14059597 -0.26310733 -0.4016261
-0.3077399 -0.43803146 0.3253548 0.019437952 0.14644146 0.56950384 -0.30195224 0.18608004
-0.25139174 -0.016125701 -0.5102505 -0.073629275 -0.57355016 0.3160482 0.041378282 -0.2222224
-0.3694454 -0.21886642 -0.52599883 -0.2681221 0.5134057 -0.096440054 0.3270717 0.54538196
-0.13471302 -0.48125345 -0.17526661 0.35535175 0.20792167 0.19140401 0.027636692 -0.3332011
0.040903237 0.2888644 -0.43927687 -0.11122559 -0.36306307 0.36284986 0.40178603 0.055165045
-0.46480146 0.4949478 -0.39307606 0.32033306 0.23839986 0.3374179 -0.3866417 -0.01603202
-0.35739645 -0.15387164 0.20389515 -0.40259027 -0.52962416 0.025297679 -0.37162846 -0.48114136
0.18794005 0.5105392 0.37895817 -0.2852336 -0.4075134 -0.4635766 0.49538162 -0.5140095
-0.58946073 -0.3602398 -0.3482416 0.5389676 0.36681256 -0.16361919 -0.3008697 0.074195
-0.048341427 0.21771336 -0.5718139 0.114804536 -0.5841364 -0.47170845 0.11729981 -0.27000538
-0.22382109 -0.46673927 0.14647938 0.5053747 0.15397575 0.47438034 -0.44889817 -0.21600439
0.30058768 -0.35296953 -0.18454103 0.32108226 -0.04582772 0.37541175 0.44012675 0.56136096
0.50869566 -0.19701192 0.30516133 0.24428615 0.4207633 0.2768935 0.15307069 0.044846527
-0.095893495 -0.44330385 -0.5788695 0.4791931 0.37194303 -0.5135565 0.23195313 -0.20498323
0.41489813 -0.52672124 0.20075803 -0.38742557 0.33737287 -0.13429865 0.46374816 -0.40733021
-0.37681112 0.37022394 0.17998219 -0.4223519 -0.27688435 0.3959093 -0.55355775 -0.2085645
-0.03144703 -0.48829773 -0.34168908 -0.13971788 -0.35642165 -0.25311935 -0.18155129 0.5766115
0.01887057 -0.121749364 -0.14285901 -0.3533422 -0.25425237 0.06898904 -0.49077958 0.16219412
0.48269972 -0.2548625 0.5519014 0.45163265 -0.243299 0.33971587 0.31638274 -0.32075888
-0.47375932 0.29262966 0.29667875 -0.51823795 -0.00012575771 0.50499964 -0.13866334 -0.39000762
0.3620819 0.232116 -0.4348561 0.3980197 0.23721065 0.02871655 0.43355444 0.50982624
00000000: 1cd4 843e 9f56 c8bd fd1f c8be 06fa c33e
00000010: b33e 863e 5aec 073f 13b2 be3e 97be a9be
00000020: 1e59 083f cc8c 343e 9168 c7be 16ec 00bf
00000030: 0087 753e 3286 4b3d bdd4 f5bd a1cd debe
00000040: 232d f9be f2aa 9dbe 5ac8 9bbe 5c3c b83e
00000050: 6b8e f1be 64f8 0f3e 01b6 86be f0a1 cdbe
00000060: 1690 9dbe a945 e0be e894 a63e 573c 9f3c
00000070: c0f4 153e 01cb 113f 7c99 9abe c48b 3e3e
00000080: 6bb6 80be 0c1a 84bc c79f 02bf f2ca 96bd
00000090: 2fd4 12bf 12d1 a13e 467c 293d 458e 63be
000000a0: f327 bdbe 851e 60be dca7 06bf 4d47 89be
000000b0: 8e6e 033f 5d82 c5bd f175 a73e 279e 0b3f
000000c0: 36f2 09be da66 f6be 1779 33be aaf0 b53e
000000d0: 6be9 543e 6aff 433e 5866 e23c 5699 aabe
000000e0: 278a 273d 09e6 933e e6e8 e0be 3eca e3bd
000000f0: 67e3 b9be 75c7 b93e e6b6 cd3e bef4 613d
00000100: 75fa edbe cc69 fd3e 4441 c9be b202 a43e
00000110: 181f 743e 0ac2 ac3e e7f5 c5be 9555 83bc
00000120: abfc b6be 8790 1dbe e4c9 503e 5020 cebe
00000130: 7395 07bf 143d cf3c 1646 bebe 2958 f6be
00000140: 5b73 403e b2b2 023f ce06 c23e 230a 92be
00000150: 99a5 d0be ea59 edbe a9a2 fd3e 2096 03bf
00000160: e6e6 16bf 5a71 b8be b94c b2be c8f9 093f
00000170: dbce bb3e ca8b 27be 980b 9abe 8cf3 973d
00000180: a901 46bd 40f0 5e3e 6562 12bf a41e eb3d
00000190: f789 15bf c583 f1be e23a f03d 253e 8abe
000001a0: 5b31 65be 73f8 eebe b1fe 153e 3d60 013f
000001b0: d2ab 1d3e fbe1 f23e fbd5 e5be 4130 5dbe
000001c0: a1e6 993e 6cb8 b4be 53f8 3cbe e564 a43e
000001d0: d9b5 3bbd f835 c03e 4b58 e13e 5ab5 0f3f
000001e0: e139 023f 7ebd 49be 1b3e 9c3e 2626 7a3e
000001f0: 4a6e d73e fcc4 8d3e 90be 1c3e feb0 373d
00000200: cf63 c4bd b9f8 e2be cb30 14bf cc58 f53e
00000210: 516f be3e 7078 03bf 1f85 6d3e 20e7 51be
00000220: 876d d43e 34d7 06bf 8393 4d3e a55c c6be
00000230: 23bc ac3e 9685 09be 6670 ed3e 968d d0be
00000240: 63ed c0be fe8d bd3e 404d 383e 823e d8be
00000250: c9c3 8dbe a0b4 ca3e f6b5 0dbf ef91 55be
00000260: 9ace 00bd 2902 fabe dff1 aebe 3412 0fbe
00000270: e67c b6be dc98 81be 95e8 39be d09c 133f
00000280: 7496 9a3c bb57 f9bd a249 12be 45e9 b4be
00000290: 5e2d 82be 204a 8d3d 7647 fbbe 3716 263e
000002a0: 6b24 f73e 567d 82be 6949 0d3f 653c e73e
000002b0: 6023 79be 3def ad3e ebfc a13e 823a a4be
000002c0: 9590 f2be 8ed3 953e 47e6 973e 3eab 04bf
000002d0: d4dd 03b9 a847 013f c3fd 0dbe 14af c7be
000002e0: cc62 b93e d1af 6d3e 75a5 debe 3dc9 cb3e
000002f0: 59e7 723e f83e eb3c d9fa dd3e f983 023f

conv1.bias f4 [64]
-0.00018344088 7.6432385e-05 0.00012446252 0.00012471568 1.1884e-40 0.0001745083 0.00025373744 -4.1758532e-05
-0.00062181527 -0.0001817561 0.00045647295 0.00012421152 -0.00035142858 0.00038461344 -0.00028794457 -0.00032697606
-6.0571547e-06 -0.0003089477 0.0006468917 -0.00037177606 -0.00011105303 6.756243e-05 0.00039834977 -0.0003623112
4.051923e-05 -0.0007426626 0.00010477764 -0.00066802866 7.56099e-06 -0.00012617701 0.00020051649 0.00067384855
0.00011272427 1.8383267e-06 -1.0178838e-05 0.0003711517 -0.0002247886 0.00012997146 0.00031547193 7.049857e-05
7.6483164e-05 -0.000713674 -0.00042671713 0.0002357511 0.00034659312 -0.00020200801 -5.4945765e-05 8.454492e-05
9.39665e-05 -0.00019814732 0.00026778103 0.0002011208 0.00024730826 -0.00022473343 -0.00087626104 0.00031140257
0.0001055171 0.0006458622 3.3774002e-05 0.00019281366 0.00031831226 3.0716907e-05 0.00047133953 -0.00045404813
00000000: 095a 40b9 534a a038 2782 0239 1cc6 0239
00000010: 474b 0100 37fc 3639 1008 8539 e225 2fb8
00000020: 5101 23ba c895 3eb9 c352 ef39 c73e 0239
00000030: f23f b8b9 f1a5 c939 44f7 96b9 fc6d abb9
00000040: 903e cbb6 42fa a1b9 2b94 293a f0ea c2b9
00000050: 24e5 e8b8 4eb0 8d38 9ad9 d039 96f4 bdb9
00000060: 31f3 2938 3eaf 42ba 11bc db38 a51e 2fba
00000070: 69b4 fd36 624e 04b9 bc41 5239 36a5 303a
00000080: 6266 ec38 6dbc f635 c7c5 2ab7 2397 c239
00000090: 3bb5 6bb9 f348 0839 ed65 a539 a2d8 9338
000000a0: 9665 a038 da15 3bba 01b9 dfb9 f433 7739
000000b0: f1b6 b539 1dd2 53b9 9175 66b8 b54d b138
000000c0: e10f c538 c4c5 4fb9 f664 8c39 f4e3 5239
000000d0: 27a9 8139 6ca6 6bb9 e2b4 65ba bf43 a339
000000e0: 1049 dd38 144f 293a 8fa8 0d38 062e 4a39
000000f0: 26e3 a639 07d6 0038 1f1e f739 4f0d eeb9

conv2.weight f4 [128, 64, 1]
-0.048578013 -0.048688523 0.055049784 0.06439323 0.011718717 0.056138933 -0.06985582 -0.008225881
-0.03938846 -0.060343612 -0.111904725 -0.06894971 -0.12803027 -0.018802734 0.0046024835 -0.008320952
0.027219616 -0.10959143 -0.043683175 -0.042472303 -0.035780553 0.12899701 -0.11295758 0.00763502
0.11352334 0.025473433 0.08272364 -0.09231607 0.1119999 -0.049458582 0.034135014 0.0130907
0.086071305 -0.052632015 -0.07899451 -0.11688483 -0.060739093 0.1029846 0.058384728 0.023109453
-0.036225874 0.12318277 0.04460979 0.10885 -0.06848972 -0.0075884396 0.1011737 -0.0873536
-0.024164544 0.0919171 -0.10780271 -0.034661885 0.0072763013 -0.0943492 -0.019502327 0.07589533
-0.034209892 0.079397894 -0.025536578 -0.015869332 0.088054694 0.024738846 0.053810645 0.08837622
-0.10797614 -0.0988978 0.12400435 0.08105802 0.010158197 0.075476654 -0.010215203 -0.018134639
-0.11422459 -0.08942143 0.025666364 -0.03637657 0.09899216 -0.12812182 -0.000710066 0.11811102
-0.10503425 -0.058678873 0.033454686 0.11970924 0.08605313 0.1489713 0.03252466 0.04590345
0.08766602 -0.11572066 -0.04482227 -0.09881292 -0.08063603 0.025217317 0.059057977 -0.010604538
-0.057393372 -0.09191272 0.012262735 -0.043657564 0.12406001 0.07191985 -0.00752417 0.040747393
0.11544075 -0.04267495 -0.115138344 -0.001401448 0.08002025 -0.026788637 0.12599638 0.018813184
0.05451726 0.058863223 0.050775513 0.10234718 -0.09021391 0.018675707 0.012719822 0.063685805
-0.022620266 0.00647249 0.07416236 0.06876738 -0.10542709 0.048425708 0.0059848856 0.032342143
-0.058715463 0.050224215 0.070127025 -0.050214864 0.024505286 0.115994595 -0.06394366 -0.11554562
0.0051193056 -0.039962985 0.075754635 -0.15012754 0.11432961 -0.03265291 -0.065904535 -0.05822023
0.035410494 -0.012286878 -0.17492977 0.060420193 0.07718561 -0.017955253 0.023914097 -0.10986527
-0.04753516 -0.06591486 -0.09526531 0.08371514 -0.10699986 -0.062078364 -0.11505903 0.07243876
0.008733428 0.009137308 0.07547242 0.027577467 0.01562404 -0.036150962 0.1222561 0.060846936
0.08024143 0.12051259 -0.12642236 -0.092188925 -0.07382747 -0.03986016 -0.027173044 0.01949791
0.026632966 0.03275167 0.12132828 0.053963 0.13627996 0.099138565 -0.014229882 -0.16337444
0.058313828 -0.011233949 -0.011415175 0.08994222 0.03157276 0.094363965 -0.034629397 -0.026321769
-0.050838463 -0.10168901 -0.0752251 -0.09442658 -0.014633494 0.046201874 -0.1149201 0.044893347
-0.02882522 0.07035849 0.09191757 -0.086676806 0.013543375 -0.024267286 0.049209744 0.05088738
0.0035157336 0.010353047 0.08071668 0.016614234 -0.06310313 -0.03448068 -0.042907786 -0.12887251
-0.03388776 0.04712625 -0.043950766 -0.06572186 -0.07156148 0.040479556 -0.077191524 0.109028354
-0.009597258 0.037772585 0.06294056 0.054841585 -0.06780089 0.095672935 -0.07349843 0.066437095
-0.108267814 0.09401319 0.09533047 0.07225873 -0.050019093 0.019390041 0.077721946 -0.034877945
-0.04465695 -0.11007594 -0.11045785 0.07719188 0.06207719 -0.12437133 -0.05244079 -0.05603463
-0.15491794 -0.11091986 -0.032626793 -0.119022556 0.023949264 0.01898008 0.07166039 -0.029715072
00000000: bdf9 46bd 9e6d 47bd e27b 613d 99e0 833d
00000010: ddff 3f3c f0f1 653d 9110 8fbd d8c5 06bc
00000020: cb55 21bd dd2a 77bd 4e2e e5bd 8135 8dbd
00000030: 5e1a 03be 3108 9abc 6ed0 963b 9a54 08bc
00000040: acfb de3c 7971 e0bd 21ed 32bd 70f7 2dbd
00000050: a18e 12bd cb17 043e 4e56 e7bd 312f fa3b
00000060: ed7e e83d a9ad d03c 036b a93d 3510 bdbd
00000070: 3460 e53d 1595 4abd 28d1 0b3d 607a 563c
00000080: 2746 b03d ab94 57bd e0c7 a1bd 5061 efbd
00000090: 8ec9 78bd 97e9 d23d d324 6f3d 0950 bd3c
000000a0: 9561 14bd 4047 fc3d c1b8 363d c0ec de3d
000000b0: 5744 8cbd 72a8 f8bb 2834 cf3d 72e6 b2bd
000000c0: b9f4 c5bc 083f bc3d abc7 dcbd 9ff9 0dbd
000000d0: 0a6e ee3b 273a c1bd 58c3 9fbc 036f 9b3d
000000e0: ac1f 0cbd 5d9b a23d 1632 d1bc 6700 82bc
000000f0: 0556 b43d 1fa9 ca3c 8d68 5c3d 97fe b43d
00000100: 9822 ddbd ee8a cabd fef5 fd3d bf01 a63d
00000110: 916e 263c 8193 9a3d ab5d 27bc 188f 94bc
00000120: 95ee e9bd 9522 b7bd 4442 d23c 99ff 14bd
00000130: 67bc ca3d 5e32 03be b923 3aba 31e4 f13d
00000140: 321c d7bd 4259 70bd c807 093d 1e2a f53d
00000150: a03c b03d ef8b 183e 9438 053d 4205 3c3d
00000160: 3e8a b33d f4fe ecbd 8e97 37bd 6e5e cabd
00000170: 8124 a5bd 8c94 ce3c c7e6 713d a8be 2dbc
00000180: 5015 6bbd bc3c bcbd a3e9 483c 46d2 32bd
00000190: 2d13 fe3d b74a 933d 508d f6bb bde6 263d
000001a0: 336c ec3d eecb 2ebd a7cd ebbd cbb0 b7ba
000001b0: a8e1 a33d d873 dbbc 3205 013e 1b1e 9a3c
000001c0: 7e4d 5f3d 901a 713d fcf9 4f3d 669b d13d
000001d0: 12c2 b8bd ccfd 983c cd66 503c b46d 823d
000001e0: 234e b9bc 2e17 d43b 6fe2 973d ead5 8c3d
000001f0: 28ea d7bd 095a 463d dc1c c43b 3279 043d
00000200: a07f 70bd e8b7 4d3d c29e 8f3d 1aae 4dbd
00000210: 4fbf c83c 938e ed3d e5f4 82bd 2fa3 ecbd
00000220: d9bf a73b 3ab0 23bd 3f25 9b3d 09bb 19be
00000230: a425 ea3d 0fbf 05bd f5f8 86bd 5678 6ebd
00000240: 980a 113d e74e 49bc ca20 33be 2a7b 773d
00000250: 7d13 9e3d e516 93bc 7fe7 c33c 0b01 e1bd
00000260: 3ab4 42bd 5ffe 86bd 751a c3bd d872 ab3d
00000270: be22 dbbd e245 7ebd 12a4 ebbd c65a 943d
00000280: a716 0f3c a6b4 153c 4991 9a3d 24ea e13c
00000290: f9fb 7f3c 0813 14bd 6861 fa3d a33a 793d
000002a0: 9e55 a43d 4ecf f63d dd74 01be 8ccd bcbd
000002b0: db32 97bd 6844 23bd 019a debc 15ba 9f3c
000002c0: 612d da3c 9d26 063d f67a f83d 4f08 5d3d
000002d0: f98c 0b3e 2909 cb3d 7324 69bc a14b 27be
000002e0: 7bda 6e3d 990e 38bc b706 3bbc a033 b83d
000002f0: 7052 013d e541 c13d 8ed7 0dbd c0a0 d7bc
00000300: fe3b 50bd 5442 d0bd 9e0f 9abd b962 c1bd
00000310: 53c1 6fbc 2d3e 3d3d 3b5b ebbd 16e2 373d
00000320: de22 ecbc 1d18 903d 473f bc3d 9c83 b1bd
00000330: 08e5 5d3c 30cc c6bc 2890 493d 496f 503d
00000340: 3968 663b d49f 293c c94e a53d 931a 883c
00000350: 373c 81bd 9d3b 0dbd 13c0 2fbd 28f7 03be
00000360: e4cd 0abd 7407 413d b805 34bd 2f99 86bd
00000370: d38e 92bd e4cd 253d 9716 9ebd 424a df3d
00000380: d13d 1dbc 6db7 1a3d fbe6 803d 92a1 603d
00000390: 31db 8abd 2cf0 c33d 5886 96bd 2c10 883d
000003a0: 84bb ddbd fd89 c03d 9f3c c33d 63fc 933d
000003b0: d2e0 4cbd ddd7 9e3c af2c 9f3d 2ddc 0ebd
000003c0: 35ea 36bd 7f6f e1bd ba37 e2bd c716 9e3d
000003d0: a744 7e3d 65b6 febd 27cc 56bd 9184 65bd
000003e0: cfa2 1ebe f429 e3bd aca3 05bd 19c2 f3bd
000003f0: 3f31 c43c 1d7c 9b3c afc2 923d 066d f3bc

conv2.bias f4 [128]
0.00015955947 -8.9829846e-05 0.00018893981 -3.9334707e-05 -0.000107156724 -6.6375546e-06 8.53908e-05 -0.00010997842
0.0001479135 8.8107554e-05 5.462647e-05 -0.00015714302 -8.4966356e-05 -3.7589332e-05 8.987411e-06 3.0661125e-05
0.00016501681 -6.0992672e-05 2.3486007e-05 6.688563e-05 5.9849488e-05 0.00029363582 -1.1567641e-05 -2.0720125e-05
-0.00021113937 2.6343787e-05 4.6030033e-05 1.4200721e-05 1.7399525e-05 -0.00014487885 -1.2898326e-07 -8.6271946e-05
4.407466e-05 -9.0806396e-05 0.0002443699 -5.2993484e-05 -2.3870398e-05 1.9583786e-05 -2.540824e-05 2.9589087e-09
-0.00015194154 -0.00018796413 -0.000568724 0.00037314763 -2.2152604e-05 0.00027259535 -0.0002616524 -4.988503e-05
0.00021589074 -7.536796e-05 0.0003083314 -0.00024554928 0.0001672645 9.407156e-05 0.00010114521 -0.00014281616
7.37221e-05 -9.114731e-05 0.00024322332 2.660178e-05 0.00013093805 1.1185399e-05 -0.0001100178 3.3704982e-05
-8.865186e-05 4.8976526e-05 -0.00035239334 -0.00010804999 -0.00015225331 -0.0002563716 -0.00021401768 4.8798287e-05
-0.00030403127 0.0003473336 9.13301e-05 6.733282e-05 0.00021428776 -3.6570773e-06 0.00012555189 -4.5045465e-05
-0.00021625681 5.94038e-40 0.000112617556 2.2728915e-05 5.6064587e-06 5.828404e-05 -0.00023125377 -0.00017817155
8.666632e-05 -7.481468e-05 0.0001277633 -8.155296e-05 0.00022393343 0.00018391579 -0.00011121282 6.319237e-06
-0.000112668364 8.19821e-05 7.4158575e-05 -0.00014886272 2.630087e-05 0.00022073253 -0.0001721222 -0.00022229993
3.8881786e-05 5.046574e-05 0.0002939845 -0.00017945546 0.00031514885 -0.00043112916 0.00014319185 0.00014806131
-0.00013997605 -7.817841e-05 -0.00037486918 -0.0003840823 -0.00013531567 0.000117140306 -0.00034854954 0.0002421409
-9.7429984e-05 -0.00024556182 -0.0001353883 -0.000338872 0.00022152846 -4.245527e-05 -5.6953548e-05 -1.3664862e-11
00000000: 6b4f 2739 0863 bcb8 251e 4639 52fb 24b8
00000010: 54b9 e0b8 29b8 deb6 d613 b338 37a4 e6b8
00000020: 3a19 1b39 62c6 b838 ba1e 6538 c2c6 24b9
00000030: f72f b2b8 3da9 1db8 a3c8 1637 229a 0038
00000040: 5d08 2d39 62d2 7fb8 d103 c537 f344 8c38
00000050: e606 7b38 22f3 9939 a412 42b7 21d0 adb7
00000060: 4b65 5db9 dafc dc37 5f10 4138 a23f 6e37
00000070: 32f5 9137 9fea 17b9 a67e 0ab4 e6ec b4b8
00000080: cedc 3838 506f beb8 c61e 8039 5245 5eb8
00000090: 4a3d c8b7 dc47 a437 c823 d5b7 ac55 4b31
000000a0: 7f52 1fb9 3d18 45b9 6c16 15ba 07a3 c339
000000b0: 5bd4 b9b7 21eb 8e39 642e 89b9 a53b 51b8
000000c0: bb60 6239 de0e 9eb8 8aa7 a139 11bd 80b9
000000d0: b963 2f39 4948 c538 ec1d d438 ecc0 15b9
000000e0: 409b 9a38 5726 bfb8 c309 7f39 e326 df37
000000f0: 6a4c 0939 eca8 3b37 5bb9 e6b8 735e 0d38
00000100: 9bea b9b8 256c 4d38 6fc1 b8b9 e698 e2b8
00000110: 30a6 1fb9 9d69 86b9 ef69 60b9 c3ac 4c38
00000120: 6366 9fb9 541a b639 7988 bf38 0835 8d38
00000130: 6fb2 6039 1c6c 75b6 94a6 0339 33ef 3cb8
00000140: ffc2 62b9 f077 0600 172d ec38 f9a9 be37
00000150: 1d1f bc36 0376 7438 b67c 72b9 90d3 3ab9
00000160: a0c0 b538 d3e5 9cb8 33f8 0539 6907 abb8
00000170: accf 6a39 85d9 4039 ee3a e9b8 d509 d436
00000180: 5e48 ecb8 ceed ab38 9585 9b38 0818 1cb9
00000190: b0a0 dc37 7074 6739 b47b 34b9 2f19 69b9
000001a0: 0015 2338 2dab 5338 ef21 9a39 352c 3cb9
000001b0: 903a a539 2d09 e2b9 c525 1639 e840 1b39
000001c0: 89c6 12b9 b7f3 a3b8 178a c4b9 a75e c9b9
000001d0: 86e3 0db9 39a9 f538 87bd b6b9 34e7 7d39
000001e0: 5353 ccb8 c0be 80b9 05f7 0db9 a1aa b1b9
000001f0: 184a 6839 0012 32b8 68e1 6eb8 1165 70ad

conv3.weight f4 [128, 128, 1]
0.026851233 -0.07141283 -0.022087872 0.02619003 -0.075115815 0.081381515 -0.03725082 0.024900606
0.085376926 -0.06615752 0.0065133106 -0.10569305 -0.04637897 0.05257128 -0.07768851 0.041855622
-0.10525753 -0.04233436 0.03081427 -0.064551555 -0.066955164 -0.03556721 -0.0038955524 -0.06882265
0.0045099664 -0.06466394 -0.027574787 0.10202871 -0.14030807 0.058565166 0.015465314 0.018565381
0.020648742 -0.100775905 -0.026356334 -0.09634003 -0.0037796418 -0.0783968 -0.035776585 0.00032905073
0.07302761 0.038722552 0.011129763 -0.024812961 -0.010264896 -0.036357727 -0.05994956 -0.09759267
-0.13714166 0.02563936 0.013000215 -0.0074950224 0.011694787 0.07127506 -0.03187725 -0.047015212
-0.007021076 -0.06123529 -0.0339155 -0.097777344 -0.037079122 0.0045157643 -0.06366681 -0.089906424
-0.07326525 0.076447286 -0.06828122 -0.034820877 -0.010967205 -0.027594654 -0.059291676 -0.028330605
0.0146940965 0.07156046 -0.0040944633 -0.08845092 0.03924463 0.099761225 -0.026004551 -0.00024233527
0.043079086 -2.6506e-40 -0.10686129 -0.0122844335 0.034528963 -0.008767694 0.05905324 0.06515749
-0.02586232 0.08402016 -0.110444024 -0.07358185 -0.04708794 0.05060137 -0.098981686 0.11570263
-0.013675503 -0.118073925 -0.04250368 -0.020181717 0.022048393 0.015242172 -0.073877 -0.0871797
-0.038718093 -0.043129113 0.04214565 0.05526115 -0.07414963 -0.11030449 0.09546942 0.03067129
-0.044589292 0.05836843 -0.01317109 -0.039566897 0.077644415 -0.067044504 -0.10150808 0.0257936
-0.11943294 0.007378418 -0.10728821 0.00041459876 -0.04684718 0.0434859 -0.0640745 -3.2673768e-07
-0.061123837 0.058931984 0.014175666 -0.059254702 -0.03361319 0.07164093 0.0009837153 0.027200833
0.046021596 0.07001621 -0.045693815 -0.08199029 -0.010040576 0.035242576 -0.11681888 -0.042142007
0.08129014 -0.10023783 -0.093099 -0.032567367 -0.11568946 -0.033497024 -0.020676265 -0.017680498
0.021823442 -0.0067517515 0.0070789168 -0.03737945 -0.014750234 -0.022899201 0.051742297 -0.011996801
0.060029186 -0.017008081 0.043363035 -0.02879741 -0.0058861445 -0.108580686 0.03620201 -0.016169036
0.04117758 -0.054183383 0.08513228 0.086783566 -0.00086812634 0.021430176 0.053410113 -0.033129495
0.11864014 0.03271841 0.026947921 0.040055458 0.069450624 0.030886691 -0.021342458 -0.032385025
-0.042593054 0.0053925416 0.04027357 -0.07872863 0.0645464 0.01844766 0.101358965 0.0018040811
0.06666947 0.0548902 -0.089115895 0.078735895 -0.1348935 0.016969258 0.090233505 -0.03751344
0.08963869 0.016753785 -0.001842671 0.07712779 0.038001038 -0.014479122 -0.090956785 -0.06093931
-0.059077423 3.36841e-40 -0.05823952 -0.027244285 0.045338877 -0.051366106 -0.052973047 -0.044233248
-0.008395254 0.0975149 -0.022100449 -0.036953907 -0.04978664 0.06253908 0.016458163 0.06433269
0.023894288 -0.0298655 -0.07000178 -0.034585338 -0.026376048 -0.034312475 -0.043853056 0.040736794
-0.039121114 -0.03942335 -0.01860523 0.007317622 -0.07873739 0.04120847 -0.014934516 -0.12261566
-0.0480442 0.05614489 0.036076784 -0.00616559 -0.0245904 0.03402185 0.074238725 0.044911355
-0.03973772 0.03387701 0.060775317 -0.042314094 -0.091286466 -0.005709315 0.045397896 0.0029686484
00000000: 1ef7 db3c e440 92bd a0f1 b4bc 798c d63c
00000010: 52d6 99bd 5aab a63d 5194 18bd 5bfc cb3c
00000020: 19da ae3d 987d 87bd 9c6d d53b 9975 d8bd
00000030: e0f7 3dbd fc54 573d 271b 9fbd cd70 2b3d
00000040: 4391 d7bd cb66 2dbd 356e fc3c 9b33 84bd
00000050: ca1f 89bd ecae 11bd 864c 7fbb e4f2 8cbd
00000060: 57c8 933b 876e 84bd 85e4 e1bc 6ef4 d03d
00000070: ebac 0fbe 07e2 6f3d 3a62 7d3c 6d16 983c
00000080: 8d27 a93c 9963 cebd 3de9 d7bc ec4d c5bd
00000090: deb3 77bb 808e a0bd 788a 12bd 7184 ac39
000000a0: 808f 953d 8a9b 1e3d 9c59 363c 8d44 cbbc
000000b0: 182e 28bc d7eb 14bd ab8d 75bd aade c7bd
000000c0: dd6e 0cbe a309 d23c dbfe 543c ce98 f5bb
000000d0: 7e9b 3f3c a9f8 913d b891 02bd 0693 40bd
000000e0: 0e11 e6bb dbd1 7abd fbea 0abd 7d3f c8bd
000000f0: 47e0 17bd faf8 933b bf63 82bd dc20 b8bd
00000100: 170c 96bd 6590 9c3d 06d7 8bbd 56a0 0ebd
00000110: cbaf 33bc 2f0e e2bc d4db 72bd 9615 e8bc
00000120: 82bf 703c 4a8e 923d d92a 86bb c225 b5bd
00000130: fabe 203d 9d4f cc3d 7f07 d5bc 611b 7eb9
00000140: b273 303d e1e2 0280 18da dabd a644 49bc
00000150: 3e6e 0d3d 60a6 0fbc cfe1 713d 4a71 853d
00000160: 37dd d3bc c312 ac3d 7a30 e2bd 15b2 96bd
00000170: 49df 40bd 6243 4f3d e9b6 cabd 80f5 ec3d
00000180: 380f 60bc bed0 f1bd 5718 2ebd 2154 a5bc
00000190: d59e b43c 4eba 793c d34c 97bd 458b b2bd
000001a0: dd96 1ebd 27a8 30bd eba0 2c3d 8459 623d
000001b0: c3db 97bd 52e7 e1bd 7985 c33d 5b42 fb3c
000001c0: 43a3 36bd bc13 6f3d 8ecb 57bc e610 22bd
000001d0: 0904 9f3d a14e 89bd 78e3 cfbd 1a4d d33c
000001e0: 4299 f4bd a8c6 f13b ecb9 dbbd 815e d939
000001f0: d4e2 3fbd 451e 323d 7e39 83bd 7c6a afb4
00000200: fd5c 7abd aa62 713d 0d41 683c 0fb5 72bd
00000210: fcad 09bd 7bb8 923d 02f0 803a 48d4 de3c
00000220: 2481 3c3d a964 8f3d 7029 3bbd 86ea a7bd
00000230: 3a81 24bc 855a 103d bd3e efbd 199d 2cbd
00000240: 727b a63d 7e49 cdbd b0aa bebd 5c65 05bd
00000250: 98ee ecbd 2d34 09bd 4561 a9bc b1d6 90bc
00000260: 13c7 b23c cc3d ddbb 42f6 e73b 321b 19bd
00000270: f7aa 71bc 1b97 bbbc bbef 533d 3b8e 44bc
00000280: 2ae1 753d 8854 8bbc 709d 313d 8ce8 ebbc
00000290: 8fe0 c0bb 8d5f debd 8f48 143d ed74 84bc
000002a0: d2a9 283d 65ef 5dbd d559 ae3d 95bb b13d
000002b0: f992 63ba 568e af3c 90c4 5a3d cbb2 07bd
000002c0: 9af9 f23d bd03 063d e3c1 dc3c 3111 243d
000002d0: 213c 8e3d 1606 fd3c 61d6 aebc 29a6 04bd
000002e0: 0e76 2ebd ebb3 b03b e6f5 243d 7a3c a1bd
000002f0: e730 843d 8c1f 973c 4a95 cf3d eb76 ec3a
00000300: 018a 883d 8cd4 603d 6582 b6bd 4940 a13d
00000310: 8621 0abe 1d03 8b3c 58cc b83d b1a7 19bd
00000320: 7d94 b73d 3c3f 893c c785 f1ba 2df5 9d3d
00000330: faa6 1b3d d739 6dbc 8d47 babd 7f9b 79bd
00000340: 2bfb 71bd faaa 0300 908c 6ebd 682f dfbc
00000350: 42b5 393d 4465 52bd 44fa 58bd ec2d 35bd
00000360: 3f8c 09bc e4b5 c73d 000c b5bc fb5c 17bd
00000370: 13ed 4bbd 7d14 803d 45d3 863c dbc0 833d
00000380: f4bd c33c 7ea8 f4bc 185d 8fbd 5ba9 0dbd
00000390: 9512 d8bc 3d8b 0cbd 439f 33bd a0db 263d
000003a0: 763d 20bd 617a 21bd ff69 98bc aac8 ef3b
000003b0: 1241 a1bd 36ca 283d e6af 74bc eb1d fbbd
000003c0: ffc9 44bd 2ff8 653d 40c5 133d b808 cabb
000003d0: ce71 c9bc 7f5a 0b3d 790a 983d f8f4 373d
000003e0: 05c4 22bd 9fc2 0a3d 8aef 783d 8b51 2dbd
000003f0: 66f4 babd 3515 bbbb 25f3 393d a88d 423b

conv3.bias f4 [128]
1.3490924e-05 4.4282813e-05 -3.2522516e-05 -8.719599e-05 -0.0002525411 2.5402187e-05 8.492709e-05 0.000114107395
-0.00013079778 2.902111e-05 -3.3812437e-05 0.00020413897 0.00014605717 9.0212845e-05 -1.1409194e-05 -0.00011172865
0.00018457718 -9.632341e-05 6.1265346e-05 3.310387e-05 -9.8697805e-05 -0.00017702159 -0.00012599409 0.0001671741
-5.6560117e-07 4.056148e-05 4.1866875e-05 2.131e-42 -9.133599e-05 -2.7280426e-05 -0.00011282546 -4.1635954e-05
5.959437e-05 -0.00015639364 -5.4387343e-05 -0.00031438813 -0.00025544668 -5.0399125e-05 -2.7682956e-05 0.0001201752
-7.937022e-05 -8.5980966e-05 -7.75006e-05 2.6342152e-05 0.00023715968 -5.030666e-06 -0.00013388274 1.4174028e-05
-0.00010434872 0.00026781936 -0.00026935307 3.8234407e-06 -8.311253e-05 -5.353054e-05 -0.000117330885 -0.000121297475
-0.0001537606 -0.00016282185 -0.00023174628 -7.388045e-06 0.00024548592 -0.00034855722 -0.00018239043 9.559416e-05
-0.00019048022 -0.00026492402 2.9869656e-05 0.00014988224 0.0002139114 -7.1359e-05 -8.850114e-05 5.648296e-05
0.00027526822 -4.5220645e-06 0.00017845744 0.00014802538 0.00011841773 6.0581642e-05 -9.406497e-06 6.0495524e-05
-0.00026108898 2.240272e-05 -6.779898e-05 2.759602e-06 0.00010612007 4.5448818e-05 -4.236663e-05 -2.6734913e-05
-3.333772e-06 4.3988985e-05 -6.647551e-05 8.132643e-06 7.598273e-05 -6.466108e-05 -7.245616e-05 2.5731852e-05
-4.8502927e-05 -0.00018634423 8.367495e-05 -0.00013475615 -3.8413757e-05 0.00025080677 0.0004895312 -1.0382486e-06
-9.939663e-06 -0.0002601459 -0.00023387183 -0.000104272534 0.00026661527 -3.1695326e-05 -0.00024382221 5.168054e-05
-0.00020717597 0.00023006457 4.3724875e-05 4.642937e-05 9.355271e-05 -0.00020612915 -0.00020805107 -1.1697491e-05
-0.00044584065 9.3483286e-05 0.00011979018 1.32196e-05 0.00020656986 -0.00027549957 -3.542155e-05 0.00028457178
00000000: 1457 6237 4fbc 3938 c968 08b8 fedc b6b8
00000010: 7e67 84b9 c816 d537 e21a b238 f14c ef38
00000020: c326 09b9 5c72 f337 d4d1 0db8 230e 5639
00000030: ec26 1939 a730 bd38 1d6a 3fb7 dd4f eab8
00000040: 0f8b 4139 3d01 cab8 957b 8038 02d9 0a38
00000050: fbfb ceb8 df9e 39b9 481d 04b9 754b 2f39
00000060: d1d3 17b5 8f20 2a38 379a 2f38 f105 0000
00000070: a38b bfb8 45d8 e4b7 b59c ecb8 44a2 2eb8
00000080: f8f4 7938 99fd 23b9 f71d 64b8 76d4 a4b9
00000090: 79ed 85b9 a663 53b8 b238 e8b7 9206 fc38
000000a0: 9073 a6b8 ae50 b4b8 d187 a2b8 57f9 dc37
000000b0: 11ae 7839 18cd a8b6 e062 0cb9 fdcc 6d37
000000c0: cbd5 dab8 1b6a 8c39 f537 8db9 1b4b 8036
000000d0: b34c aeb8 fb85 60b8 8a0f f6b8 1661 feb8
000000e0: cc3a 21b9 28bb 2ab9 eb00 73b9 d3e6 f7b6
000000f0: 90b4 8039 8fbe b6b9 0f40 3fb9 b979 c838
00000100: a5bb 47b9 80e5 8ab9 9990 fa37 b529 1d39
00000110: 674d 6039 92a6 95b8 b099 b9b8 1ee8 6c38
00000120: e051 9039 3dbc 97b6 4e20 3b39 4337 1b39
00000130: 0957 f838 0b19 7e38 99d0 1db7 93bc 7d38
00000140: c5e2 88b9 7aed bb37 4d2f 8eb8 9a31 3936
00000150: c78c de38 4ca0 3e38 d3b2 31b8 ca44 e0b7
00000160: c4b9 5fb6 d080 3838 c568 8bb8 7071 0837
00000170: eb58 9f38 a79a 87b8 9bf3 97b8 bbda d737
00000180: 9f6f 4bb8 6665 43b9 a67a af38 544d 0db9
00000190: 751e 21b8 b77e 8339 e253 003a f359 8bb5
000001a0: 87c2 26b7 3164 88b9 7e3b 75b9 e4ac dab8
000001b0: 7fc8 8b39 99f0 04b8 87aa 7fb9 8fc3 5838
000001c0: 603d 59b9 7d3d 7139 3a65 3738 28bd 4238
000001d0: bb31 c438 5f24 58b9 4928 5ab9 5740 44b7
000001e0: b8bf e9b9 750c c438 dd37 fb38 c0c9 5d37
000001f0: ad9a 5839 ed70 90b9 9a91 14b8 9432 9539

conv4.weight f4 [100, 128, 1]
0.03229112 -0.029192943 -0.04288773 -0.021186875 -0.009094649 -0.06968636 0.056731004 0.10946311
-0.025692489 -0.037519835 -0.0821567 -0.06325667 0.023635989 -0.126015 -0.017327534 0.07031877
0.050556753 -0.06521644 -0.16553524 -0.0037375162 -0.145761 0.025277238 -0.010869785 -0.00089726696
0.11752127 -0.0019473113 0.10605818 0.006252394 -0.09582482 0.041718956 0.04526686 0.01689683
0.0015925114 -0.04076924 0.014280426 0.007382653 0.027559813 -0.04981144 0.001241775 -0.048514362
-0.05959036 -0.040943503 -0.061721534 -0.004638271 -0.13607478 -0.02031709 0.04791344 0.0021946654
-0.09450677 -0.0073203407 -0.013473006 -0.06852023 0.06568533 0.006205424 -0.0043500685 -0.046191093
-0.020925278 0.0077182227 -0.09819128 0.09819503 0.03096557 0.10634431 0.0791287 0.012656434
-0.052949194 0.024815748 -0.034186497 -0.013449602 0.0041407957 0.03716238 0.027790347 -0.024956202
-0.0050060074 -0.022537192 0.0333269 -0.09390338 0.08263038 0.048262123 0.04391437 -0.03782288
-0.005401071 0.07130488 -0.05399053 -0.006787713 -0.04790308 -0.027110523 -0.09357615 0.0055473833
0.036498502 0.013853335 -0.049672943 -0.0044594132 0.023593547 -0.09585121 -0.040066045 -0.06743076
-0.026418883 -0.0074225594 -0.076903336 -0.047369353 0.099842355 -0.09534939 0.09949731 0.07285594
-0.10233364 0.11855191 -0.058301914 -0.13524787 -0.08763263 0.06987577 0.0072470238 -0.07716156
-0.0018383403 0.022750173 0.079405546 0.023272159 -0.025021171 -0.0120141925 -0.06382421 0.06909402
0.07930132 -0.06228225 0.010640883 -0.08093765 -0.05888644 0.021896003 -0.060378253 0.100098334
-0.016873248 0.059784625 0.031845503 -0.0010667308 -0.06709874 -0.031975117 0.06522575 -0.0360249
-0.05689784 -0.019030768 -0.00477883 0.02278689 -0.012701119 -0.010004221 -0.06253192 0.047172844
0.066161215 0.018166963 0.02451351 0.019518737 0.050741863 0.00912381 0.03385812 -0.0074700527
0.05289027 0.055256143 -0.06265177 -0.036287986 -0.055866495 -0.051421944 0.02802999 0.017766494
0.08492527 -0.071035646 -0.060843844 -0.05495194 -0.09381987 0.078852385 0.03662598 0.0131567065
-0.01654711 -0.08793069 -0.012014089 0.10423868 -0.035693638 0.036400434 0.064144075 0.03107966
0.06066472 0.051897667 0.098195985 0.0024938742 -0.07107179 -0.007596165 -0.040842947 -0.051234663
0.07287386 -0.04178602 -0.07119119 0.01202643 0.10777551 -0.034239247 0.038302366 -0.04094787
0.0062996587 0.0444766 0.008455676 -0.07172876 0.003688177 -0.06697192 0.00055023393 -0.0032765963
-0.01087182 -0.104786605 -0.009500845 0.09226797 0.10742289 0.027894696 0.045520715 0.08941506
0.035371035 -0.022848018 -0.039759587 -0.0898894 -0.07254359 -0.0022133067 0.077036574 0.061127756
-0.0540761 0.056593735 0.052825 -0.12716337 -0.0056747072 0.026580784 0.08881756 0.052620906
0.0034459825 -0.010848279 -0.083758 0.0038679207 0.06941157 0.056116644 -0.033559445 0.072210744
-0.055490557 -0.060209572 0.015791275 0.13776246 0.021904463 0.017228926 -0.001098022 0.060998026
-0.086537614 -0.06763917 0.10089874 -0.0056454097 -0.13265061 -0.07981067 0.040093254 0.03842165
-0.017913971 0.042525772 0.018641984 -0.0028771646 -0.09203248 0.058697 -0.048319504 0.03741125
00000000: b243 043d 0a26 efbc 0bab 2fbd 1990 adbc
00000010: b901 15bc b9b7 8ebd c55e 683d 322e e03d
00000020: 0e79 d2bc 66ae 19bd c641 a8bd b78c 81bd
00000030: 43a0 c13c 130a 01be 79f2 8dbc 4a03 903d
00000040: 9914 4f3d 3290 85bd 1282 29be 1ef1 74bb
00000050: 5f42 15be 3612 cf3c 2f17 32bc 9136 6bba
00000060: feae f03d ed3c ffba 0835 d93d e2e0 cc3b
00000070: ce3f c4bd 7fe1 2a3d be69 393d 396b 8a3c
00000080: d1bb d03a a6fd 26bd 73f8 693c 2fea f13b
00000090: 1ec5 e13c 1507 4cbd 0ec3 a23a ffb6 46bd
000000a0: 0515 74bd 60b4 27bd b8cf 7cbd a3fc 97bb
000000b0: 3057 0bbe 0770 a6bc e240 443d 60d4 0f3b
000000c0: c48c c1bd 78df efbb e2bd 5cbc 5654 8cbd
000000d0: 0886 863d df56 cb3b 058b 8ebb df32 3dbd
000000e0: 7d6b abbc 25e9 fc3b 8318 c9bd 7a1a c93d
000000f0: 82ab fd3c 0ccb d93d 3a0e a23d ef5c 4f3c
00000100: 41e1 58bd 654a cb3c 2407 0cbd b85b 5cbc
00000110: 83af 873b 9437 183d 95a8 e33c f370 ccbc
00000120: 6f09 a4bb eb9f b8bc ca81 083d 6a50 c0bd
00000130: 1e3a a93d 81ae 453d 8edf 333d 2aec 1abd
00000140: 78fb b0bb 4b08 923d 2d25 5dbd 776b debb
00000150: 0536 44bd e316 debc daa4 bfbd d3c6 b53b
00000160: 747f 153d 19f9 623c db75 4bbd 4520 92bb
00000170: 4147 c13c a44d c4bd 4b1c 24bd 2319 8abd
00000180: 6a6c d8bc f138 f3bb 7f7f 9dbd 5e06 42bd
00000190: 267a cc3d 8a46 c3bd 3fc5 cb3d 7f35 953d
000001a0: 4d94 d1bd 58cb f23d fdcd 6ebd 6b7e 0abe
000001b0: bc78 b3bd 071b 8f3d 7178 ed3b e106 9ebd
000001c0: 77f4 f0ba 925e ba3c 609f a23d 41a5 be3c
000001d0: 33f9 ccbc 2dd7 44bc 44b6 82bd 2a81 8d3d
000001e0: bb68 a23d ac1b 7fbd 1957 2e3c a3c2 a5bd
000001f0: e832 71bd 3f5f b33c 304f 77bd 5b00 cd3d
00000200: c439 8abc b9e0 743d 6e70 023d 8cd1 8bba
00000210: 106b 89bd 57f8 02bd 1495 853d d88e 13bd
00000220: b60d 69bd 6ae6 9bbc bb97 9cbb 92ab ba3c
00000230: 5b18 50bc bfe8 23bc bc10 80bd 5038 413d
00000240: 887f 873d e2d2 943c 8ed0 c83c c2e5 9f3c
00000250: b3d6 4f3d 087c 153c d0ae 0a3d 58c7 f4bb
00000260: 78a3 583d 4454 623d 924f 80bd b6a2 14bd
00000270: 44d4 64bd d19f 52bd 269f e53c 0a8b 913c
00000280: 4ded ad3d 237b 91bd 6537 79bd 4915 61bd
00000290: a224 c0bd 5c7d a13d 2005 163d 3a8f 573c
000002a0: ce8d 87bc 0115 b4bd bed6 44bc 177b d53d
000002b0: 7e33 12bd 9f18 153d f85d 833d c59a fe3c
000002c0: 927b 783d a692 543d fa1a c93d 4470 233b
000002d0: 168e 91bd 40e9 f8bb ef4a 27bd 70db 51bd
000002e0: e43e 953d d127 2bbd b0cc 91bd 810a 453c
000002f0: 68b9 dc3d 743e 0cbd f1e2 1c3d f4b8 27bd
00000300: 5e6d ce3b 182d 363d ad89 0a3c 87e6 92bd
00000310: 58b5 713b 9328 89bd 933d 103a 2abc 56bb
00000320: b81f 32bc 5c9a d6bd 6fa9 1bbc fdf6 bc3d
00000330: 8800 dc3d 6b83 e43c ee73 3a3d 3e1f b73d
00000340: 38e1 103d c42b bbbc f3da 22bd ef17 b8bd
00000350: bc91 94bd 200d 11bb 5ac5 9d3d 1961 7a3d
00000360: e77e 5dbd d5ce 673d 075f 583d 1d37 02be
00000370: e5f2 b9bb f2bf d93c fbe5 b53d 0589 573d
00000380: fed5 613b fbbc 31bc 5089 abbd f17c 7d3b
00000390: a727 8e3d 91da 653d a175 09bd 3ae3 933d
000003a0: 114a 63bd 509e 76bd b45c 813c 9a11 0d3e
000003b0: fd70 b33c ad23 8d3c 81eb 8fba 11d9 793d
000003c0: a23a b1bd 6886 8abd 00a4 ce3d 21fd b8bb
000003d0: 90d5 07be c773 a3bd d338 243d 0560 1d3d
000003e0: 52c0 92bc 812f 2e3d 13b7 983c d08e 3cbb
000003f0: 867b bcbd 446c 703d acea 45bd 8a3c 193d

conv4.bias f4 [100]
0.00011237938 0.00020346789 -0.00012848561 8.2737344e-05 -1.2778349e-05 -0.0001670393 0.00026842483 -0.00052215037
1.021415e-05 -3.06502e-40 0.00011833409 -9.8409146e-05 9.229768e-05 -2.5861396e-05 -0.00019021342 -3.903243e-05
-2.1353853e-05 -0.00011835642 0.0001629543 4.640937e-05 3.907605e-05 0.00022449177 3.0879426e-05 8.93255e-05
0.00023702232 0.00016577033 0.00021854162 -1.2500691e-06 -5.8911857e-05 -0.00012193062 -0.00011097559 -8.1873695e-05
2.1347441e-05 -0.00024131598 0.00014385328 -0.000106830434 6.0392096e-05 -5.5761368e-05 -4.899379e-05 -0.00010990348
0.00016852708 0.00025997785 0.00040264855 3.3882614e-05 0.00014061599 -0.00029000128 0.00011826725 0.00014737571
0.00010785871 5.804928e-05 0.00032935943 4.6709643e-05 4.6634295e-06 -0.00047868866 -9.339368e-05 2.9185849e-05
7.0168026e-05 -0.0004001663 -0.00043916889 0.0001549447 -0.00020371587 -0.0002522306 0.0002876732 -0.00014432351
-0.00024007818 -0.00024593982 3.4768284e-05 3.839161e-06 -0.00017721487 0.00010591878 -2.67229e-40 8.628955e-05
5.3113963e-05 -9.4934214e-05 -0.000101239275 -3.957333e-05 5.4314536e-05 -0.0004453654 0.00034370937 -0.00013605625
-0.00010085363 0.00014775681 1.3556109e-05 0.0002775727 1.6901364e-05 1.6792073e-05 -6.019803e-05 -8.951846e-06
-4.8270253e-05 8.2972365e-05 0.00013555643 7.3912615e-06 -0.00010371973 1.9423996e-05 0.000104939274 -0.000122672
0.00014203912 -2.61384e-05 -4.9934428e-05 0.00013159274
00000000: 38ad eb38 ff59 5539 18ba 06b9 4683 ad38
00000010: 9762 56b7 4527 2fb9 5fbb 8c39 ebe0 08ba
00000020: 715d 2b37 6756 0380 212a f838 0261 ceb8
00000030: f18f c138 edf0 d8b7 0774 47b9 c1b6 23b8
00000040: 0d21 b3b7 1f36 f8b8 b6de 2a39 aea7 4238
00000050: 97e5 2338 8d65 6b39 8884 0138 4354 bb38
00000060: 3289 7839 a2d2 2d39 5228 6539 0cc8 a7b5
00000070: 2018 77b8 01b5 ffb8 91bb e8b8 9bb3 abb8
00000080: 4813 b337 c409 7db9 52d7 1639 270a e0b8
00000090: 854d 7d38 50e1 69b8 ae7e 4db8 fb7b e6b8
000000a0: a5b6 3039 a34d 8839 931a d339 2e1d 0e38
000000b0: 5172 1339 500b 98b9 3f06 f838 de88 1a39
000000c0: 3432 e238 f179 7338 e0ad ac39 19ea 4338
000000d0: 8e7a 9c36 81f8 fab9 5adc c3b8 22d4 f437
000000e0: 2c27 9338 69cd d1b9 4040 e6b9 a778 2239
000000f0: 909c 55b9 d13d 84b9 d8d2 9639 8c55 17b9
00000100: 7fbd 7bb9 7cf1 80b9 29d4 1138 24d2 8036
00000110: c1d2 39b9 b620 de38 ede8 0280 59f6 b438
00000120: afc6 5e38 6b17 c7b8 6c50 d4b8 8afb 25b8
00000130: cacf 6338 ef7f e9b9 e433 b439 52aa 0eb9
00000140: 6181 d3b8 2bef 1a39 0b6f 6337 2d87 9139
00000150: 67c7 8d37 b4dc 8c37 247d 7cb8 e32f 16b7
00000160: ca75 4ab8 7301 ae38 2724 0e39 7402 f836
00000170: 1b84 d9b8 b7f0 a237 d812 dc38 84a1 00b9
00000180: 56f0 1439 c943 dbb7 af70 51b8 28fc 0939

bn1.weight f4 [64]
0.22974904 0.18237981 0.6367444 0.3730027 0.0041140765 0.7494072 0.3214039 0.10081024
0.9226529 0.4092082 0.56875545 0.63960415 0.70930713 0.32381278 0.9328784 0.3157132
0.014611768 0.439577 0.8613334 0.85296184 0.3923099 0.301786 0.96099955 0.69050616
0.24967554 0.9571352 0.8579033 0.66786486 0.052139968 0.17278677 0.28996608 0.9533397
0.59348965 0.0701582 0.2709324 0.7682066 0.64858496 0.75637436 0.46751422 0.5644379
0.75320417 0.9509727 0.57681096 0.36222696 0.5498798 0.97877264 0.32608873 0.022308398
0.22088644 0.7689484 0.63981485 0.22135682 0.6860638 1.0065202 0.6471614 0.68304265
0.4098766 0.9737463 0.8037561 0.37258315 0.90087414 0.90544456 0.57761997 0.81640315
00000000: 5543 6b3e c6c1 3a3e ae01 233f 36fa be3e
00000010: 60cf 863b 26d9 3f3f 0d8f a43e 9975 ce3d
00000020: fb32 6c3f bd83 d13e f599 113f 19bd 233f
00000030: 2795 353f caca a53e 1ed1 6e3f 29a5 a13e
00000040: 3266 6f3c 3d10 e13e 5880 5c3f b55b 5a3f
00000050: d8dc c83e b283 9a3e 1104 763f 03c5 303f
00000060: f2aa 7f3e d006 753f 8d9f 5b3f 31f9 2a3f
00000070: b890 553d 04ef 303e 6f76 943e 120e 743f
00000080: f0ee 173f 1aaf 8f3d a7b7 8a3e 30a9 443f
00000090: aa09 263f c0a1 413f 065e ef3e 017f 103f
000000a0: fdd1 403f f272 733f e2a9 133f d075 b93e
000000b0: ecc4 0c3f d890 7a3f 1af5 a63e 1ac0 b63c
000000c0: 0e30 623e cdd9 443f e8ca 233f 5dab 623e
000000d0: e1a1 2f3f a7d5 803f 5fac 253f e2db 2e3f
000000e0: 59db d13e 7047 793f f6c2 4d3f 38c3 be3e
000000f0: b09f 663f 37cb 673f e7de 133f ccff 503f

bn1.bias f4 [64]
0.006020422 0.00084281736 -0.035958204 0.031233218 -0.01221653 -0.042636663 -0.03701008 -0.0177979
-0.04811774 -0.026924875 -0.020347351 0.032803386 -0.039740156 -0.058920596 -0.027459951 -0.0017395508
0.007281325 -0.026715737 0.023630068 0.016272446 -0.06385456 0.00054839737 -0.007126971 -0.0062526753
-0.007320295 -0.038840823 -0.045703284 -0.0057826117 -0.046088763 -0.010262414 0.0067847706 0.024923898
-0.045444176 -0.045487016 -0.05161228 -0.0023011966 -0.0011099323 -0.047808483 -0.05695822 0.014179476
-0.025533238 0.008746228 -0.036251996 -0.0028935375 -0.03394217 -0.027760368 0.022109667 0.011599362
-0.050998367 0.036952313 -0.009259065 -0.0175855 -5.4486965e-05 -0.015142141 -0.001001727 -0.010525231
0.039184213 -0.020601414 -0.016520122 0.011067005 0.029204268 0.017365998 0.0112963235 0.0027471576
00000000: f646 c53b 84f0 5c3a e948 13bd cedc ff3c
00000010: d727 48bc c8a3 2ebd e297 17bd e7cc 91bc
00000020: 1b17 45bd 8e91 dcbc 7daf a6bc d85c 063d
00000030: 93c6 22bd b956 71bd b1f3 e0bc a401 e4ba
00000040: 2e98 ee3b f6da dabc d893 c13c cb4d 853c
00000050: 2ec6 82bd 53c2 0f3a 5e89 e9bb 3ee3 ccbb
00000060: 16df efbb 8e17 1fbd 5e33 3bbd 107c bdbb
00000070: 92c7 3cbd af23 28bc c852 de3b 342d cc3c
00000080: ac23 3abd 9850 3abd 6667 53bd accf 16bb
00000090: 267b 91ba d4d2 43bd 064d 69bd 0851 683c
000000a0: 152b d1bc 574c 0f3c f97c 14bd 81a1 3dbb
000000b0: f206 0bbd b669 e3bc 551f b53c 400b 3e3c
000000c0: aae3 50bd 4f5b 173d 55b3 17bc 770f 90bc
000000d0: ef88 64b8 be16 78bc 614c 83ba 0572 2cbc
000000e0: a07f 203d 4cc4 a8bc 3555 87bc 6252 353c
000000f0: ca3d ef3c 2343 8e3c 3714 393c a809 343b

bn1.running_mean f4 [64]
-0.0002362616 5.66902e-05 0.00013422442 5.8939066e-05 -3.17905e-08 0.00013288065 0.00022021105 3.3453794e-05
-0.0005179987 -0.00015551274 0.00051309087 8.8734945e-05 -0.0003235436 0.00031110866 -0.0002417929 -0.00030260868
8.280684e-06 -0.0003637993 0.0006288217 -0.0003754997 -0.00012422082 6.339438e-05 0.00038000252 -0.00034274187
1.2477817e-05 -0.0007407528 7.838306e-05 -0.0006300146 3.4990976e-06 -0.00013539608 0.00018320777 0.00073096453
5.734476e-05 1.0820072e-05 -3.7888676e-05 0.00038776905 -0.00024381466 0.0001899715 0.0003132034 1.06193465e-05
0.00015762019 -0.0006921739 -0.00036555738 0.00023430862 0.00035036352 -0.00018266059 -3.439113e-05 7.8388926e-05
0.000112122 -0.00016740765 0.00022749323 0.00019803885 0.00020970091 -0.0002556976 -0.0009702892 0.00039484832
0.000102761725 0.00063645386 3.013373e-05 0.00017000805 0.00032717784 6.706771e-05 0.0004060455 -0.00041528078
00000000: febc 77b9 a4c6 6d38 98be 0c39 5735 7738
00000010: 068a 08b3 e155 0b39 74e8 6639 bd50 0c38
00000020: 4eca 07ba 2211 23b9 f280 063a 3617 ba38
00000030: 49a1 a9b9 4c1c a339 ca89 7db9 73a7 9eb9
00000040: 44ed 0a37 51bc beb9 83d7 243a b7de c4b9
00000050: 4641 02b9 99f2 8438 133b c739 09b2 b3b9
00000060: d157 5137 142f 42ba 9661 a438 9027 25ba
00000070: 0ad2 6a36 1cf9 0db9 761b 4039 339e 3f3a
00000080: 7885 7038 db87 3537 a8ea 1eb8 7b4d cb39
00000090: 80a8 7fb9 1633 4739 7335 a439 bf29 3237
000000a0: d946 2539 0173 35ba 48a8 bfb9 beb0 7539
000000b0: ffb0 b739 9488 3fb9 323f 10b8 bc64 a438
000000c0: 0a23 eb38 268a 2fb9 408b 6e39 a6a8 4f39
000000d0: 29e3 5b39 270f 86b9 025b 7eba a503 cf39
000000e0: c881 d738 b2d7 263a b1c7 fc37 3044 3239
000000f0: 1189 ab39 b4a6 8c38 81e2 d439 0bba d9b9

bn1.running_var f4 [64]
0.040317982 0.08618977 0.090388946 0.06978251 0.01371693 0.084252365 0.0735512 0.040758535
0.06171665 0.05906407 0.033000164 0.035610836 0.0760655 0.035950996 0.107381 0.06735129
0.039632633 0.0362655 0.015196372 0.043578118 0.070221364 0.07172213 0.052671254 0.041532304
0.034541816 0.06831198 0.06311542 0.0825872 0.102340244 0.11937207 0.0846935 0.018080316
0.06336184 0.0862613 0.020922368 0.08805295 0.06919291 0.042556345 0.020545905 0.107527204
0.0707511 0.048320755 0.006294438 0.12139029 0.07078588 0.07903893 0.047409073 0.060804352
0.050682403 0.0709984 0.06433399 0.064464964 0.038545005 0.06576566 0.031752717 0.037488546
0.10609095 0.06688064 0.07125499 0.07422437 0.037241526 0.055492923 0.06654406 0.07015035
00000000: 7824 253d 4384 b03d d71d b93d 22ea 8e3d
00000010: f9bc 603c 818c ac3d 03a2 963d 6cf2 263d
00000020: 99ca 7c3d 2bed 713d 2e2b 073d abdc 113d
00000030: 3bc8 9b3d 5a41 133d 92ea db3d 79ef 893d
00000040: d455 223d 228b 143d 34fa 783c f87e 323d
00000050: 38d0 8f3d 0de3 923d d0bd 573d c71d 2a3d
00000060: b87b 0d3d 27e7 8b3d a842 813d 7a23 a93d
00000070: c397 d13d 5879 f43d c973 ad3d 2c1d 943c
00000080: dac3 813d c4a9 b03d 6365 ab3c 1b55 b43d
00000090: 03b5 8d3d 904f 2e3d e34f a83c 3937 dc3d
000000a0: f4e5 903d fceb 453d 9341 ce3b 799b f83d
000000b0: 30f8 903d 2adf a13d 0430 423d fc0d 793d
000000c0: 5a98 4f3d 9c67 913d 8ac1 833d 3506 843d
000000d0: 5ee1 1d3d 25b0 863d 230f 023d 978d 193d
000000e0: 3646 d93d b8f8 883d 23ee 913d f202 983d
000000f0: 928a 183d 8c4c 633d 4148 883d fdaa 8f3d

bn2.weight f4 [128]
0.51576 0.8076586 0.56965804 0.06598972 0.803256 0.35026526 0.2789565 0.4827214
0.9328092 0.602923 0.43117622 0.7287098 0.71737355 0.656547 0.11696519 0.08961789
0.55138326 0.52353716 0.08294629 0.9227951 0.71890473 0.713389 0.20054059 0.3962726
0.69880724 0.43086007 0.23260354 0.9267476 0.5128031 0.7538593 0.011235295 0.32790172
0.11554984 0.3566466 0.8848473 0.5951372 0.64302075 0.42546982 0.24241579 0.004059819
0.6814558 0.4310342 0.758372 0.9854383 0.6233982 0.38108298 0.9551942 0.2700797
0.75520194 0.45919785 0.78634566 0.857635 0.8090548 0.8716968 0.17908435 0.26848963
0.4949156 0.15237744 0.47198394 0.15890226 0.8016492 0.034814667 0.8400358 0.4159265
0.2063798 0.8265704 0.4199181 0.39103717 0.5039812 0.5734082 0.232125 0.40676734
0.47251984 0.54825133 0.70222867 0.9424807 0.4642455 0.11079942 0.4639839 0.45419186
0.75250494 0.0006674518 0.43410334 0.18650095 0.082515664 0.5253783 0.5826065 0.8228004
0.20949471 0.8364447 0.11395537 0.9540317 0.95439255 0.783741 0.48688236 0.035804387
0.7134447 0.5535107 0.25832394 0.8069996 0.056073762 0.526789 0.92142886 0.8618037
0.21467097 0.20740338 0.62476766 0.6635649 0.35030466 0.62704855 0.34909695 0.9640548
0.31114718 0.9663636 0.33204433 0.95269644 0.50024796 0.6814202 0.32969794 0.37495318
0.26298067 0.9006031 0.75016314 0.64249593 0.23705706 0.6486466 0.7044936 0.0025888376
00000000: d908 043f b7c2 4e3f 1cd5 113f 9e25 873d
00000010: 2fa2 4d3f f855 b33e 63d3 8e3e 4227 f73e
00000020: 95cc 6e3f 2959 1a3f 21c3 dc3e ba8c 3a3f
00000030: cba5 373f 7713 283f 728b ef3d 9689 b73d
00000040: 7427 0d3f 8806 063f bfdf a93d 4d3c 6c3f
00000050: 240a 383f a9a0 363f 835a 4d3e 3ee4 ca3e
00000060: 08e5 323f b199 dc3e 9f2f 6e3e 553f 6d3f
00000070: 1047 033f ecfc 403f 3e14 383c bce2 a73e
00000080: 65a5 ec3d 629a b63e 5a85 623f e95a 183f
00000090: 029d 243f 2ed7 d93e d83b 783e 3b08 853b
000000a0: e373 2e3f 84b0 dc3e ab24 423f af45 7c3f
000000b0: 0697 1f3f 4f1d c33e 9b87 743f e347 8a3e
000000c0: ea54 413f fb1b eb3e f34d 493f f88d 5b3f
000000d0: 371e 4f3f 8627 5f3f e361 373e 7977 893e
000000e0: 9465 fd3e d508 1c3e e1a7 f13e 46b7 223e
000000f0: e238 4d3f d399 0e3d 960c 573f 51f4 d43e
00000100: 3a55 533e 1e9a 533f 81ff d63e 0636 c83e
00000110: e904 013f e1ca 123f 2db2 6d3e cf43 d03e
00000120: 1fee f13e 335a 0c3f 42c5 333f 6a46 713f
00000130: 96b1 ed3e ceea e23d 4c8f ed3e d68b e83e
00000140: 2aa4 403f eff7 2e3a cb42 de3e 1bfa 3e3e
00000150: f9fd a83d 317f 063f b325 153f 0ca3 523f
00000160: c885 563e 3d21 563f 6f61 e93d 6c3b 743f
00000170: 1253 743f 40a3 483f a548 f93e 9fa7 123d
00000180: 50a4 363f e1b2 0d3f 0943 843e 8797 4e3f
00000190: 9aad 653d a5db 063f c3e2 6b3f 2b9f 5c3f
000001a0: b5d2 5b3e 8d61 543e c6f0 1f3f 64df 293f
000001b0: 225b b33e 4186 203f d6bc b23e 4ccc 763f
000001c0: af4e 9f3e 9b63 773f b701 aa3e eae3 733f
000001d0: 4010 003f 8e71 2e3f 2bce a83e ddf9 bf3e
000001e0: 67a5 863e ed8d 663f b10a 403f 9d7a 243f
000001f0: 16bf 723e b40d 263f b159 343f 7da9 293b

bn2.bias f4 [128]
-0.011515943 0.01551519 0.008423295 0.023444422 -0.0066635855 -0.02522945 -0.031762533 0.0071584163
-0.01754583 -0.048831012 0.01084854 0.016740538 -0.053891685 -0.059464302 -0.0249141 -0.046960484
-0.026419071 -0.04916333 -0.034569856 -0.040738195 -0.023354644 -0.0391224 -0.004990675 0.024097422
-0.03193157 -0.04362411 -0.020803107 0.009359822 -0.061327673 0.01388934 -0.031868916 -0.014985409
-0.01115145 -0.021528304 -0.0035298888 -0.04737789 -0.07149394 0.006525816 -0.052119628 -0.015421644
-0.024645261 -0.004991626 -0.09220879 -0.0046244333 0.022247 -0.027875384 0.00089270057 -0.030576143
0.0030960161 -0.019552285 -0.02350832 -0.0017009411 0.03468421 -0.012854278 -0.06530238 0.0048974017
-0.05872758 -0.0034588065 -0.08895088 -0.02056819 0.012189277 -0.04087383 -0.015044243 -0.03820575
0.01572583 -0.0058245575 -0.04253307 -0.02040828 -0.027105093 -0.007076844 -0.023352217 -0.021248838
-0.037587874 -0.03395233 -0.06439157 0.00067745725 0.01667207 -0.016955862 -0.03491809 -0.032995015
-0.021617914 -0.005165195 -0.014115246 -0.026773037 -0.037454426 -0.042407833 -0.09987139 -0.067452535
-0.012771055 0.0058235233 0.008319724 -0.046942916 -0.06045635 -0.01771912 -0.04214481 0.003934457
0.024953352 0.0027073692 -0.03624029 -0.043066993 -0.02555608 -0.07853369 -0.0060635824 -0.017291067
-0.0062684943 0.010196534 -0.05212917 -0.042806346 0.015983712 -0.012524694 -0.04263244 -0.015468332
-0.00022276875 0.0043492555 -0.0025781598 -0.04309302 -0.048324727 -0.0063975 -0.04112861 -0.053412154
-0.0067290924 -0.007518329 -0.02471982 -0.0031602518 -0.017737068 -0.029679865 0.005478569 -0.0085886
00000000: 5ead 3cbc 6c33 7e3c dc01 0a3c 840e c03c
00000010: 355a dabb fead cebc 6e19 02bd 2691 ea3b
00000020: 46bc 8fbc 0703 48bd 13be 313c 7423 893c
00000030: 87bd 5cbd d790 73bd a818 ccbc a359 40bd
00000040: cf6c d8bc 7d5f 49bd 1f99 0dbd 18dd 26bd
00000050: 3d52 bfbc cf3e 20bd d188 a3bb f567 c53c
00000060: aeca 02bd 32af 32bd 476b aabc f059 193c
00000070: ba32 7bbd 1d90 633c fb88 02bd 5c85 75bc
00000080: 92b4 36bc 205c b0bc b555 67bb 520f 42bd
00000090: 6a6b 92bd 83d6 d53b 647b 55bd 10ab 7cbc
000000a0: dce4 c9bc cb90 a3bb f6d7 bcbd 8f88 97bb
000000b0: 573f b63c eb5a e4bc 1f04 6a3a d27a fabc
000000c0: 88e6 4a3b 1d2c a0bc 8594 c0bc 1df2 deba
000000d0: 0811 0e3d c09a 52bc 41bd 85bd 627a a03b
000000e0: 558c 70bd 25ad 62bb e12b b6bd 9f7e a8bc
000000f0: 89b5 473c 516b 27bd 217c 76bc a27d 1cbd
00000100: 75d3 803c eedb bebb 2837 2ebd 442f a7bc
00000110: 800b debc dfe4 e7bb 264d bfbc 0b12 aebc
00000120: bef5 19bd 9911 0bbd badf 83bd 6397 313a
00000130: dd93 883c 05e7 8abc 4506 0fbd c825 07bd
00000140: 0d18 b1bc cc40 a9bb a243 67bc 2153 dbbc
00000150: d069 19bd d6b3 2dbd 5f89 ccbd 8e24 8abd
00000160: b03d 51bc 41d3 be3b 744f 083c 3747 40bd
00000170: 14a1 77bd b027 91bc 09a0 2cbd 9eec 803b
00000180: f96a cc3c 1e6e 313b b370 14bd 0467 30bd
00000190: fc5a d1bc 45d6 a0bd 04b1 c6bb ffa5 8dbc
000001a0: f167 cdbb 5d0f 273c 6685 55bd b555 2fbd
000001b0: 46f0 823c 6034 4dbc 5a9f 2ebd e36e 7dbc
000001c0: 0897 69b9 3384 8e3b 58f6 28bb 4e82 30bd
000001d0: 26f0 45bd 1fa2 d1bb 7976 28bd b4c6 5abd
000001e0: b87f dcbb 515c f6bb 3881 cabc 3a1c 4fbb
000001f0: 544d 91bc 3023 f3bc 9185 b33b 33b7 0cbc
