part_pc_vae_chair/194_net_part_pc_encoder.pth (torch_old, 243872 bytes, 28 tensors)

conv1.weight f4 [64, 3, 1]
000000 cb 69 74 3e 9a 01 16 be ca d5 c4 be 97 df be 3e
       0.23868482 -0.14649048 -0.38444358 0.3727996
000010 4f 78 41 3e 37 95 13 3f 4a 16 c0 3e 43 b7 b2 be
       0.1889355 0.5764956 0.37517005 -0.34905443
000020 a4 94 08 3f 80 02 5f 3e e9 4b b5 be 3c ed 01 bf
       0.5335181 0.21778297 -0.35409477 -0.50752616
000030 75 5c 54 3e 40 8a b7 3d 16 34 0b be cd f5 dd be
       0.20738395 0.08961916 -0.13594088 -0.43351594
000040 8b 2d f3 be d7 29 a0 be aa 62 9a be 8a 7a d6 3e
       -0.47495684 -0.3128192 -0.301534 0.41890365
000050 dd 37 ce be 73 7f 16 3e 59 1f 88 be 20 23 c8 be
       -0.40276995 0.14697056 -0.26586416 -0.39089298
000060 86 1c 87 be 1a 3a da be 12 36 c2 3e cf 33 12 3c
       -0.2638895 -0.42622453 0.37931877 0.008923485
000070 23 58 c2 3d a0 5e 1e 3f 88 59 9d be 79 28 1f 3e
       0.09489467 0.61863136 -0.3073237 0.15542783
000080 1f 89 89 be 76 5e 98 bb e2 41 0a bf b7 e6 27 bd
       -0.26862428 -0.0046499325 -0.5400678 -0.04099151
000090 33 b8 08 bf ac 77 b8 3e 5d 99 30 3c d7 71 87 be
       -0.53406066 0.36028802 0.010778752 -0.2645404
0000a0 a6 5a ba be ee 04 3a be 9a 98 05 bf df 9f 89 be
       -0.36397284 -0.18165943 -0.52185977 -0.26879784
0000b0 c6 fe 04 3f 9a 0f 02 bd 5f fc c9 3e c7 f2 fa 3e
       0.51951253 -0.03175316 0.39450356 0.4901335
0000c0 e2 a3 01 be c4 5b 04 bf a3 13 0f be 28 f2 bd 3e
       -0.12660173 -0.51702523 -0.13972335 0.37098813
0000d0 63 44 3c 3e 69 0a 4b 3e 0c 11 5d 3d 92 68 a2 be
       0.18385462 0.1982819 0.053971335 -0.31720406
0000e0 34 67 e9 3c b2 33 88 3e 14 2b df be 03 8d 28 be
       0.028491594 0.2660194 -0.43587554 -0.16460042
0000f0 7f ac ae be 65 5b d0 3e b7 43 bf 3e 9d 90 b1 3d
       -0.3411598 0.40694728 0.3735635 0.08670161
000100 ff 30 d8 be 96 e5 07 3f 2b 78 de be fa 58 9b 3e
       -0.4222488 0.53084695 -0.43451056 0.3034132
000110 e5 51 53 3e ba 6e 9d 3e 28 2d d3 be 2b 38 6b bd
       0.20636709 0.3074854 -0.4124539 -0.057426613
000120 30 c6 bb be 99 d6 09 be 61 07 54 3e 0e 08 bb be
       -0.36674643 -0.13460769 0.2070594 -0.36529583
000130 51 57 0f bf 06 2c 4f 3d 51 5e bc be 9d 1f f5 be
       -0.5599261 0.050579093 -0.36790708 -0.47875682
000140 98 22 47 3e f5 e4 f6 3e 43 27 b6 3e d9 89 ad be
       0.1944679 0.48221555 0.3557683 -0.33894232
000150 e2 fe be be 65 69 03 bf ac 2a fb 3e c9 cb 01 bf
       -0.37303835 -0.51332694 0.49055994 -0.50701576
000160 2f c3 1a bf 68 e3 bb be 71 bc 9f be 17 81 04 3f
       -0.60454077 -0.36696935 -0.31198457 0.51759475
000170 80 d3 da 3e 18 e2 00 be 22 6e aa be 06 1e 9e 3d
       0.42739487 -0.12586248 -0.3328715 0.0772057
000180 6e f9 e3 bc f9 54 2a 3e 05 ba 1e bf b0 dd 24 3d
       -0.027828898 0.16633977 -0.62002593 0.04025048
000190 24 81 18 bf 83 8f f0 be a2 1d 1b 3e e2 29 66 be
       -0.5957205 -0.4698449 0.15148023 -0.22476915
0001a0 7e db 73 be 14 45 e5 be bb 76 e5 3d cc e5 08 3f
       -0.23814198 -0.44779265 0.11204287 0.5347564
0001b0 de 89 2a 3e 5b b2 e1 3e 9b 18 f4 be 88 cc 5c be
       0.16654155 0.44081387 -0.47675022 -0.21562397
0001c0 e0 44 86 3e dd e9 c9 be 0c a0 47 be 78 fb 9a 3e
       0.26224422 -0.39436236 -0.19494647 0.3026998
0001d0 1b 25 9d bd a3 25 b2 3e ca ed ef 3e a1 fa 0e 3f
       -0.07673093 0.3479434 0.46861106 0.5585118
0001e0 56 48 ee 3e af 4f 82 be 29 5e a2 3e d1 4a 6e 3e
       0.46539563 -0.2545142 0.31712463 0.23270728
0001f0 19 17 d6 3e c7 49 93 3e b0 fc 32 3e dc e5 81 3a
       0.41814497 0.28767225 0.17479205 0.0009910422
000200 7b be a6 bd a4 fe ee be b9 5b 09 bf f4 66 01 3f
       -0.081418 -0.4667865 -0.5365558 0.5054772
000210 2b 9e b3 3e 18 3c 02 bf a0 40 86 3e 56 8a 15 be
       0.3508161 -0.50872946 0.2622118 -0.14603552
000220 01 78 d2 3e a0 65 10 bf a0 79 70 3e 2e 36 d4 be
       0.4110718 -0.5640507 0.23483896 -0.41447586
000230 4a fc 8a 3e ab 67 ac bd 30 5a f4 3e a7 ed d3 be
       0.27145606 -0.084182106 0.47725058 -0.41392252
000240 e9 f1 bd be 2a 70 ae 3e 7d e8 69 3e 2f 3b d2 be
       -0.37098625 0.3406995 0.22842593 -0.41060778
000250 bf e5 82 be 10 9b d3 3e c5 57 1a bf f1 61 1d be
       -0.25565907 0.4132924 -0.60290176 -0.15369393
000260 91 f7 1c bd 03 5b 05 bf 11 05 9c be 06 5d 1c be
       -0.038322035 -0.52092 -0.30472615 -0.1526986
000270 5a 42 cb be a4 e6 65 be 26 ef 26 be 14 a4 14 3f
       -0.3969906 -0.22451264 -0.16302165 0.58062863
000280 0d bf 0e 3d 30 0e e7 bd 44 de 27 be 50 65 af be
       0.03485017 -0.11282003 -0.16393381 -0.34256983
000290 c5 a2 85 be 6c b1 2e 3d 13 09 09 bf 42 cb 01 3e
       -0.26100746 0.04264967 -0.5352947 0.12675193
0002a0 9b 87 ff 3e 20 f6 87 be 28 54 09 3f f4 64 ea 3e
       0.49908146 -0.26554966 0.5364404 0.45780146
0002b0 3b 57 4e be 36 3f bc 3e 34 48 96 3e 9c 4f 97 be
       -0.20150463 0.36766976 0.29351962 -0.29552925
0002c0 fb dd 05 bf 68 b8 8e 3e 22 10 92 3e 7d 6c 08 bf
       -0.5229184 0.27875066 0.28527933 -0.5329054
0002d0 63 f3 a6 3d c2 fd e0 3e 21 12 40 be 0b 29 cb be
       0.08151891 0.43943602 -0.18756916 -0.3967975
0002e0 c4 1e a4 3e fa bf 93 3e 21 77 d2 be ae 21 e1 3e
       0.32054722 0.28857404 -0.41106513 0.43971008
0002f0 83 56 53 3e 2a 61 4a bc d7 06 e1 3e f7 15 01 3f
       0.2063847 -0.012352267 0.4395053 0.5042414

conv1.bias f4 [64]
000000 5c 62 9c 38 5a 94 ef b7 e8 28 28 39 45 a9 4c 36
       7.4569805e-05 -2.8560102e-05 0.00016036967 3.0496897e-06
000010 74 13 31 a6 12 f0 c7 39 92 ef 6a 38 5c fa 80 38
       -6.1435575e-16 0.00038135104 5.6013065e-05 6.150149e-05
000020 75 a1 80 39 d2 74 c3 38 c0 e3 9f b9 97 c7 5d b9
       0.00024534357 9.320084e-05 -0.0003049653 -0.00021150555
000030 82 bc f0 b8 a9 32 ff 38 53 79 69 39 af 2d 31 b9
       -0.00011479204 0.00012168784 0.00022265808 -0.00016897054
000040 3d ea 89 b7 0c 25 4d b8 b4 ab 07 ba 2a 27 7e b8
       -1.6440748e-05 -4.891031e-05 -0.0005175427 -6.0594793e-05
000050 d2 5c 52 38 94 ea 8f 38 b1 00 5d b9 00 4f a5 b8
       5.0154347e-05 6.862465e-05 -0.0002107646 -7.882528e-05
000060 53 ea c9 b8 69 69 08 3a 0c e8 52 38 26 65 2b b9
       -9.628073e-05 0.00052036956 5.0284012e-05 -0.00016345512
000070 b4 86 85 36 39 4b cd b7 34 f5 46 39 95 52 b7 b9
       3.9793904e-06 -2.4472933e-05 0.00018974097 -0.00034966008
000080 56 8c b7 38 8b ff 1c 38 cc 69 b5 b9 ed ef f8 b8
       8.7522596e-05 3.743129e-05 -0.00034601835 -0.00011870251
000090 93 fd cc 39 8c c4 42 38 57 5d 43 3a ec 38 a1 b9
       0.0003909884 4.6436253e-05 0.00074525684 -0.00030750723
0000a0 e1 7f 46 b8 ad 63 8c 37 9c 03 0c ba 66 56 d2 b8
       -4.7325975e-05 1.6735716e-05 -0.0005341114 -0.00010029673
0000b0 c7 b4 fc b8 65 e5 41 b9 7b 66 12 39 43 8c f6 37
       -0.00012049969 -0.0001849137 0.00013961822 2.93908e-05
0000c0 bb a6 0b b9 2e 37 8a 38 e7 39 9f b8 99 8d 36 38
       -0.00013318185 6.590631e-05 -7.592496e-05 4.3524054e-05
0000d0 a4 09 ef b5 2f c8 8e 39 30 d5 55 b9 bd 38 03 ba
       -1.7809693e-06 0.000272335 -0.00020392681 -0.0005005708
0000e0 82 02 53 b9 7a 93 2a 38 98 bf 8f b9 92 68 8d b9
       -0.00020123462 4.0668507e-05 -0.00027417834 -0.00026971527
0000f0 32 9d 9b b9 b7 9e 78 39 0f 97 b3 b9 13 e9 e6 38
       -0.00029681023 0.00023710249 -0.00034254088 0.00011010668

conv2.weight f4 [128, 64, 1]
000000 9c 4a 2e 3d 51 b2 7b bd cc 56 8f 3d 1a ce b4 3d
       0.04255162 -0.061449353 0.06998977 0.08828373
000010 b6 9e 0c 3d 59 8e a0 3d 0a 2b 74 bd 66 49 88 3c
       0.034331046 0.07839651 -0.059611358 0.016636562
000020 0b 0e 4a bb 66 55 c5 bd 6d 3b cc bd b9 44 a4 bd
       -0.0030831124 -0.09635429 -0.09972272 -0.0802092
000030 00 f5 df bd 11 8c 8c bb 14 25 94 3c 53 bf 1e bd
       -0.10935402 -0.004289158 0.018084086 -0.03875668
000040 ae 50 cc 3c 56 db cf bd 59 68 74 bd 60 d6 21 bd
       0.024940815 -0.10149257 -0.059669826 -0.039511085
000050 85 2f 17 bd 2c f5 0d 3e 0c cf cb bd d1 26 98 3c
       -0.036910553 0.13863057 -0.099516004 0.018573197
000060 1c b7 0e 3e 35 eb 5b 3d 03 aa ee 3d 25 a8 ac bd
       0.13937038 0.053691108 0.11653521 -0.084305085
000070 c8 cf 14 3e ba 81 bf bc 9f 03 04 3d ae 6a 0f 3d
       0.14532387 -0.023377288 0.032230016 0.035013847
000080 07 4e d9 3d 59 6f 8e bd 97 72 91 bd a7 ea be bd
       0.10610586 -0.06954832 -0.071019344 -0.093221
000090 3f 97 6d bd 19 ae eb 3d 08 f8 8e 3d 63 f8 8d 3c
       -0.058005568 0.11507816 0.06980902 0.017330354
0000a0 c7 8f 93 bc 92 2f ee 3d c1 89 99 3d ff ab 10 3e
       -0.018012894 0.11630167 0.074969776 0.14128111
0000b0 c2 ae 6f bd 81 5a 15 3a 68 b7 d4 3d ee 10 99 bd
       -0.05851627 0.0005697385 0.103865445 -0.07473932
0000c0 1e 51 de 3a e0 e7 db 3d f9 90 97 bd 91 29 8d bc
       0.0016961431 0.10737586 -0.07400698 -0.017231734
0000d0 d7 a1 eb 3c 1e 41 28 bd 0c fc 1b bb 9c 6f 88 3d
       0.028763695 -0.041077726 -0.0023801355 0.06661913
0000e0 6e c9 ac bc b0 8a bb 3d 4b 22 2a 3c 7a d2 ff 3b
       -0.021092143 0.09157312 0.010384153 0.007807073
0000f0 c1 80 8c 3d 8d dc 23 3d 0b 25 9b 3d 2d 91 6a 3d
       0.06860495 0.040005255 0.07575425 0.057267357
000100 7f 1b d1 bd 5d 62 d2 bd 1e bb fe 3d ea 44 b9 3d
       -0.102103226 -0.102726676 0.124380335 0.090463474
000110 c7 70 86 b9 12 24 ad 3d 16 0b 39 bd b0 8f 13 bc
       -0.00025642497 0.084541455 -0.045176588 -0.009006426
000120 18 87 eb bd 88 3c f1 bd b9 55 3d 3b e1 fc eb bc
       -0.115003765 -0.117791235 0.0028890206 -0.028807105
000130 8e ca 95 3d a7 05 01 be 3b af 97 bb e2 61 f3 3d
       0.07314025 -0.12599812 -0.0046290434 0.11883904
000140 b8 ed df bd ea 77 9e bd f6 39 78 3c e7 39 d6 3d
       -0.10934013 -0.077377155 0.015150538 0.10460263
000150 1c b3 bf 3d d7 1f 01 3e 80 02 fa 3c c1 2d c0 3c
       0.09360334 0.12609802 0.03051877 0.023459317
000160 7e 8a a7 3d 70 0a f9 bd 69 d5 2a bd 77 fe d6 bd
       0.08180712 -0.12160194 -0.04170743 -0.10497754
000170 fd d8 b2 bd 95 f8 f8 3c 2d 14 96 3d f6 3e 93 bc
       -0.087327935 0.03039197 0.07328067 -0.017974358
000180 50 1b 8e bd 8f 1a d3 bd f6 d4 ee 3c 82 95 5e bd
       -0.06938803 -0.103078 0.029154282 -0.0543418
000190 88 0a d8 3d bc d5 83 3d ae f8 f1 bc d9 06 87 3d
       0.10548884 0.06437251 -0.029537525 0.06593103
0001a0 c3 70 e0 3d 51 94 78 bc 49 c5 0a be 75 97 41 bb
       0.109590076 -0.01517208 -0.13551821 -0.0029539738
0001b0 fe 23 34 3d 8f de 0f bd 3b 85 cf 3d 57 52 c0 bc
       0.043979637 -0.035124358 0.101328336 -0.023476763
0001c0 66 e7 33 3d d4 b7 6d 3d db e4 1c 3c 0c f6 b0 3d
       0.04392185 0.05803664 0.009576048 0.0864068
0001d0 36 b3 e4 bd ff 19 ca bc 1b 2e ba 3c 4d fd 05 3d
       -0.11166994 -0.024670599 0.022727063 0.03271227
0001e0 24 6e 93 bc dd 78 af ba f2 d9 9f 3d da 9f a6 3d
       -0.017996855 -0.001338746 0.07805242 0.08135958
0001f0 27 43 e6 bd 4e 1a 3d 3d 2d 63 16 b9 89 d1 21 3d
       -0.11243277 0.046167664 -0.0001434206 0.03950647
000200 4b 13 2f bd 45 07 17 3b 23 eb de 3c 8b 4a 9f bd
       -0.04274301 0.0023045104 0.027211731 -0.0777789
000210 aa bc 8d 3c 05 ca 49 3d cb 1d 7c bd 47 1f 01 be
       0.017301876 0.049264926 -0.06155185 -0.12609588
000220 da 51 ee 3c 8c b3 48 bd a4 da 4f 3d 83 82 15 be
       0.029091764 -0.048999354 0.05074562 -0.14600568
000230 38 90 f8 3d 85 60 bd bd 93 6b 4b bd e0 3f 8e bd
       0.121368825 -0.09246925 -0.049663138 -0.06945777
000240 91 6d c5 bc 8d c4 b0 bd 1a 60 21 be af bf 64 3d
       -0.024100097 -0.08631239 -0.15759316 0.055846866
000250 78 d4 b3 3d 85 5c 35 bd e9 d8 62 3d 76 4c fc bd
       0.087807596 -0.044277687 0.055382643 -0.12319271
000260 08 b0 1e bd 49 33 c9 bd 42 f2 c3 bd 9d c9 c8 3d
       -0.038742095 -0.09824235 -0.095676914 0.0980408
000270 40 d7 b7 bd 2e b3 06 be 0d 59 ed bd 63 97 97 3d
       -0.089766026 -0.13154289 -0.11589251 0.074019216
000280 5d 24 36 bc 12 78 2b bd 27 dc 26 3d f3 9b 65 3d
       -0.011117068 -0.041862555 0.040737297 0.056056928
000290 3a 81 0a 3d a5 9a 1a bd 1f 0b 0a 3e 53 d4 c3 3c
       0.033814646 -0.037745137 0.13480805 0.023904955
0002a0 0d 77 ac 3c b8 90 af 3d 69 cf ed bd 84 3a 95 bd
       0.021052862 0.08572525 -0.11611826 -0.072865516
0002b0 17 35 ce bd c7 fd 4f bd 4f 86 35 bd 2d d7 1c 3d
       -0.1006872 -0.05077913 -0.04431754 0.038291145
0002c0 97 c9 70 3d 2f ad 4f 3d 4d ab a1 3d df 37 01 bc
       0.058786 0.05070227 0.07894001 -0.007886856
0002d0 31 11 74 3d cf 43 b8 3d b2 68 7b bd 2d 29 09 be
       0.059586708 0.089973085 -0.061379142 -0.13394614
0002e0 08 59 45 3b 9c c2 8b bd 94 94 85 bc 00 18 d5 3d
       0.0030112881 -0.06824228 -0.0163062 0.10404968
0002f0 60 38 a5 3d 2f 57 fd 3d df fe 88 bb 7c 84 16 bd
       0.08067393 0.123701446 -0.0041807736 -0.03674744
000300 b0 f0 8b bd c3 08 d5 bd b8 f1 97 bd 37 b9 db bd
       -0.06833017 -0.10402062 -0.07419151 -0.10728686
000310 e3 2e c7 bc 05 9d 02 3d e1 ba 4d bd 94 99 18 3d
       -0.02431435 0.031888027 -0.05022705 0.03725584
000320 c5 dd 2d bd 6f 73 65 3d f5 84 1b 3e e2 af d4 bd
       -0.042447824 0.05601829 0.15187438 -0.103851095
000330 b9 9a 85 3d ca e3 4b bd 85 ee 28 3d d5 d0 11 3d
       0.06523652 -0.049777783 0.041243095 0.03559955
000340 7f 89 a8 bc 4a 97 9e bc 14 46 9e 3d d8 c9 a3 3c
       -0.020573376 -0.01935925 0.0772821 0.019993708
000350 11 aa 89 bd 0b 2e 37 bd d7 19 17 bd 52 98 dd bd
       -0.06721891 -0.044721644 -0.036889877 -0.108200684
000360 e7 51 b3 bc 23 e6 0a 3d d3 cc 82 bd d9 94 18 bd
       -0.02188964 0.03391088 -0.06386723 -0.037251327
000370 8c 88 c4 bd 34 e9 af 3c 0a 33 ad bd 72 d7 b8 3d
       -0.09596357 0.021473505 -0.084570006 0.09025468
000380 1f 0b 73 3c 3b 72 05 3d d0 2d 32 3d 43 8c 23 3d
       0.014834194 0.03257964 0.04350072 0.039928686
000390 a8 bd 1b bd 1b 3e 17 3e 0d 06 a8 bb 2c 28 32 3d
       -0.038022667 0.14769785 -0.0051276744 0.043495342
0003a0 4c 71 83 bd 7f ff 5c 3d 18 95 b3 3d a1 36 59 3d
       -0.06418094 0.053954598 0.08768672 0.053030614
0003b0 98 c9 d7 bc e4 cc 81 3d 48 d3 cf 3d ea 83 a5 3c
       -0.026341245 0.06337908 0.101477206 0.020204503
0003c0 8d 74 05 bd e1 89 ec bd 68 49 ca bd 21 56 85 3d
       -0.032581855 -0.11549736 -0.098772824 0.065105684
0003d0 68 3c 41 3d 4b d3 d6 bd 14 4d 8c bd 8d 27 77 bd
       0.04717675 -0.1048952 -0.06850639 -0.060340453
0003e0 c4 81 1b be 4b a9 b2 bd 16 70 3e bd b4 02 d5 bd
       -0.1518622 -0.08723696 -0.046493612 -0.10400906
0003f0 36 6e 34 3d ee bf aa 3c cb 1d a9 3d 33 8e 3f bd
       0.044050418 0.020843472 0.08257636 -0.04676647

conv2.bias f4 [128]
000000 7b 27 b9 b8 05 0e 5a b9 f6 31 0f b7 d8 b8 4f 37
       -8.828841e-05 -0.00020795323 -8.535097e-06 1.2381199e-05
000010 c8 34 1d b9 9f 54 e8 b7 ea 5f bf 38 90 4a a2 b7
       -0.0001499235 -2.769596e-05 9.125455e-05 -1.9346626e-05
000020 2e 9c a2 b8 47 45 21 39 47 c3 b2 37 29 23 90 39
       -7.753853e-05 0.00015379964 2.1310187e-05 0.00027492017
000030 ec 8c 1a 39 4f 82 03 39 8d ff bf 34 2f 5e 55 b7
       0.00014739082 0.00012541677 3.576246e-07 -1.2717718e-05
000040 eb 57 6f 39 80 43 21 b8 9c de ff 36 62 8b ab b8
       0.00022825568 -3.8448256e-05 7.6255074e-06 -8.1798775e-05
000050 f5 5c 3f b9 80 3d 9a b9 e8 58 86 b8 26 d6 0b 39
       -0.00018249809 -0.0002941899 -6.406178e-05 0.0001333585
000060 8c b3 c0 39 7b 9d 39 38 ef cc a0 38 24 9e 0b 38
       0.00036754867 4.4254102e-05 7.6675664e-05 3.3287462e-05
000070 3f b5 1a b9 3d 4e 00 ba 5e f5 7e b7 fd 9f c4 38
       -0.00014754104 -0.0004894471 -1.5196709e-05 9.3758084e-05
000080 0e 38 27 b8 f9 a5 dd b7 02 5c f2 39 14 19 2e 39
       -3.9868108e-05 -2.642254e-05 0.00046226388 0.00016603275
000090 97 d7 f7 b8 40 f8 9c 38 9a b9 2c 39 8b b4 80 37
       -0.000118180345 7.4849e-05 0.0001647234 1.5342861e-05
0000a0 a2 98 05 ba b8 39 34 39 28 39 84 b8 65 54 2e 3a
       -0.00050962914 0.0001718764 -6.304897e-05 0.0006650149
0000b0 31 af 07 b9 e0 96 e6 b8 8a 26 8e b7 b8 f7 21 38
       -0.00012939867 -0.00010995357 -1.6945665e-05 3.8616097e-05
0000c0 de d4 10 b9 f7 30 5d b9 97 f0 de b8 68 7d ca b9
       -0.0001381221 -0.00021094443 -0.00010630598 -0.00038621877
0000d0 88 dc e1 38 5c 49 46 39 98 e0 a0 b7 cc b0 39 b8
       0.00010769913 0.0001891008 -1.9178071e-05 -4.4272092e-05
0000e0 0a f2 dd 38 b9 b0 92 38 69 72 9d 37 2e 4c ee b8
       0.000105831845 6.99474e-05 1.8769135e-05 -0.00011362914
0000f0 9d 7a a9 39 19 5b 9f b6 e2 7c 1c b9 dc 1e 8d b9
       0.00032325546 -4.7491744e-06 -0.00014923842 -0.00026916608
000100 41 30 cf b8 5d f2 7f 39 96 9b 83 b9 c9 6f 96 b8
       -9.879517e-05 0.00024408982 -0.00025102188 -7.173379e-05
000110 70 35 7f b6 3c 39 05 b8 0d c2 bc b8 bf df 9f b8
       -3.8029066e-06 -3.1762975e-05 -9.000683e-05 -7.623387e-05
000120 6a 1c f9 39 33 15 63 b9 26 18 03 37 7b 05 8c b9
       0.0004751415 -0.00021656304 7.813831e-06 -0.00026706964
000130 ae 20 8f 38 6e 96 25 36 77 72 20 b9 0f 46 54 b8
       6.8248584e-05 2.4674478e-06 -0.0001530143 -5.0609986e-05
000140 77 81 2d 39 e1 c0 b6 34 b2 6e 02 39 c0 6c 54 b7
       0.00016546795 3.404048e-07 0.00012439003 -1.2661505e-05
000150 c9 c5 fe b6 e3 08 b4 b7 82 61 da b8 5c 63 1b b9
       -7.592815e-06 -2.146181e-05 -0.00010413212 -0.00014818966
000160 7e af c9 b8 01 b5 f7 37 47 d0 6b 37 f9 02 30 39
       -9.617115e-05 2.9528981e-05 1.4055585e-05 0.00016785775
000170 0a f8 25 39 b6 bf 8f ba 57 fe a1 37 45 3e e7 b8
       0.00015828028 -0.0010967168 1.9311132e-05 -0.00011026537
000180 66 39 23 b9 e1 ae b1 b8 8b e6 73 36 68 17 e9 b9
       -0.00015566274 -8.4725914e-05 3.6344015e-06 -0.00044458662
000190 25 48 18 34 b3 05 e7 b8 ca 32 2b b9 a9 c3 09 b9
       1.4182349e-07 -0.00011016 -0.00016326751 -0.00013138227
0001a0 eb 6e ea b7 17 99 c8 b7 15 9e c2 b9 2b 60 0f 39
       -2.7946624e-05 -2.3913146e-05 -0.00037120344 0.00013673368
0001b0 2d 58 6a 39 d6 2f 2b b9 84 7c 9a b9 f8 fb 24 39
       0.00022348827 -0.00016325651 -0.0002946594 0.00015734124
0001c0 4f 9d 44 38 5c 19 8e 39 fe 4c 67 b9 1c b8 fd b8
       4.6876547e-05 0.00027103245 -0.00022058559 -0.00012098273
0001d0 7a 1d 72 b9 a6 c4 4b 39 21 78 ac 38 f7 16 ba 38
       -0.000230899 0.00019432846 8.223975e-05 8.873449e-05
0001e0 4e 75 a6 b8 ed a9 15 b9 8a eb f6 36 bf 5b 92 b8
       -7.9373465e-05 -0.0001427305 7.3587917e-06 -6.9789116e-05
0001f0 b2 16 91 36 44 9d 25 b9 d1 fc 16 39 ed 01 00 00
       4.323979e-06 -0.00015794212 0.00014399296 6.91e-43

conv3.weight f4 [128, 128, 1]
000000 b0 6b 42 bd c1 2e 90 bc 1c 7a e3 bc c3 df 9e 3c
       -0.04746598 -0.017600419 -0.027768187 0.019393807
000010 09 3d f5 bd c6 51 10 3d 73 d0 7d 3c e2 49 10 3d
       -0.11974532 0.035234235 0.015491593 0.03522671
000020 a5 83 a2 3d 93 3e b7 bd e6 f8 c6 bb fd 61 a3 bd
       0.079352655 -0.08947482 -0.0060721515 -0.07977674
000030 0a 8f 48 bd 52 f4 1a 3d d6 81 0e bc 90 52 24 3c
       -0.048964538 0.03783066 -0.0086979475 0.01002945
000040 a6 58 a0 bd e7 10 e0 bc 27 e7 cf 3c 45 86 c8 bd
       -0.07829408 -0.02735181 0.025378777 -0.09791235
000050 95 57 ad bd 8f 78 78 bc ec 50 51 3d b8 e2 2b bd
       -0.084639706 -0.015165462 0.051102564 -0.041964263
000060 ec ae 62 3d 30 2e b6 bd 0d a6 16 bd c5 b7 58 3d
       0.0553426 -0.08895528 -0.036779452 0.05290963
000070 73 46 3a bd 4c 74 1b 3d 46 7d d1 3d 85 f8 f3 3c
       -0.04547734 0.037952706 0.10228972 0.02978159
000080 1f ed 1c bd c1 6b f2 bd 86 9f 8e bd 45 37 0c be
       -0.038312074 -0.11836959 -0.069640204 -0.13692959
000090 40 24 07 bd 21 66 f3 bc 90 18 cc bc 5d 3c 1f 3c
       -0.032993555 -0.029711785 -0.024914056 0.009718982
0000a0 14 82 7c 3d c1 72 8e bc 58 19 bc ba a7 4e 2b bd
       0.06164749 -0.017388703 -0.0014350815 -0.041823056
0000b0 f4 fb 9c bd ce b0 34 3b 41 e1 ee bd e8 6a a5 bd
       -0.07665244 0.0027571204 -0.116640575 -0.080770314
0000c0 8f 0f 09 be c0 26 17 3d 4e 56 49 bc de e8 00 3d
       -0.13384841 0.03690219 -0.012288643 0.03147208
0000d0 c9 e4 d9 bc 0f 5c c5 3d bb af a2 bb 0f d6 45 bd
       -0.026598351 0.096366994 -0.0049647964 -0.048299845
0000e0 30 72 56 bb 18 ed de bc 21 ac 8c bd 2b 63 b5 bd
       -0.003272187 -0.027212664 -0.068687685 -0.088568054
0000f0 c6 b8 a0 bd a1 40 1a 3d 70 04 88 3b e4 1f cb bd
       -0.07847743 0.03765929 0.0041509196 -0.09918192
000100 3c 5a 81 bc 84 1f 04 3d 0b ce 5b bd 79 d6 7a 3c
       -0.015790097 0.03225662 -0.053663295 0.015309923
000110 88 55 8c bb f7 29 20 3d c5 f4 4c bd 3c 44 73 bd
       -0.004282657 0.03910252 -0.050038118 -0.059391245
000120 5f ee 45 bd e5 b5 b4 3d d8 38 45 3d ac 86 68 bd
       -0.04832303 0.08823756 0.048149914 -0.056769058
000130 e9 8d 86 3d 5b d8 59 bd 33 5a 91 bd d5 1e 2d 3c
       0.06570036 -0.05318485 -0.07097282 0.010566433
000140 b8 64 9a 3c 81 41 e2 bc 9f 58 c4 bd 29 c5 46 bc
       0.018846855 -0.027619125 -0.09587216 -0.012131968
000150 70 b9 f0 ba f2 10 11 3d ef f5 6a 3d 72 6d 91 3d
       -0.0018365812 0.03541655 0.057363447 0.07100953
000160 55 51 47 bc b9 92 3d 3d dc f1 8a bc 8b 64 83 bd
       -0.012165387 0.046282504 -0.01696103 -0.064156614
000170 f8 2f 3b bd 80 2f 76 3d 01 41 0a be a4 4c ce 3d
       -0.045700043 0.060103893 -0.1350136 0.10073212
000180 0f 5c 0f bd 4d d1 11 be 37 f2 ab bd 5d eb dd ba
       -0.034999903 -0.14239998 -0.08395808 -0.0016931106
000190 83 fe 27 3c 1d 5c 63 bb 91 b3 46 bc 9c 67 82 bd
       0.010253551 -0.0034692355 -0.012127773 -0.06367418
0001a0 b3 00 85 bc e4 ed 44 bc d3 e3 e0 3d b7 07 bc 3c
       -0.016235685 -0.012019608 0.10980954 0.022952897
0001b0 0d 19 a7 bd 2b 43 67 bd 62 ed c0 3d 2d 91 1c 3c
       -0.08159075 -0.05646054 0.09420277 0.009556097
0001c0 1f 86 e9 3c 09 dd 3a 3d f6 ba 49 3d 04 68 8a bd
       0.028506337 0.04562095 0.049250565 -0.06758121
0001d0 47 6c 14 3d 0b 85 07 be bc ed 3d bd 88 b8 96 3d
       0.036236074 -0.13234346 -0.0463693 0.07359415
0001e0 fa 13 df bd 15 40 82 3c 54 8a b0 bb 0b a8 34 3c
       -0.10892482 0.015899697 -0.0053875837 0.011026393
0001f0 62 2c 40 bd cd 4e 7a 3c d3 18 a1 bd 81 b8 db a0
       -0.046917327 0.015277577 -0.07866063 -3.7222138e-19
000200 54 b1 5e bd d2 ed 30 3d 45 79 84 bc 42 89 a3 bd
       -0.054368332 0.043195553 -0.016171107 -0.07985164
000210 16 3a fd bb 3e 32 72 3d 55 de 6b 3b 88 b2 50 bd
       -0.0077278716 0.059129946 0.0035990675 -0.05095151
000220 bc 22 33 3d ff 8e 35 3d bb 0e 2c bd e8 1b 9a bd
       0.043734297 0.044325825 -0.042006236 -0.07524854
000230 76 28 b1 bc ab 24 e9 3c 24 71 18 3c df aa 81 bd
       -0.021625739 0.028459867 0.009304319 -0.06331419
000240 45 0a d6 3d 9b e0 9c bd cf e6 65 bd f3 5f 2f bd
       0.104511775 -0.076600276 -0.05612832 -0.042816114
000250 0f 7c e4 bd f6 86 0f bd fa 7f d1 bc 5e 1c bf 3c
       -0.11156475 -0.03504082 -0.02557372 0.023328956
000260 37 a4 2d 3c 11 1a 2c bc e5 73 2d bd dc 56 98 bc
       0.010598234 -0.010504262 -0.042346854 -0.018596105
000270 7d 5b ad ba 3d 14 d0 bd c7 91 95 3d e6 1d 8d 3d
       -0.0013226118 -0.1016011 0.073031954 0.06890468
000280 64 98 55 3d 82 ef e4 ba 8d 6e d3 bc 33 29 18 bd
       0.052147284 -0.0017466398 -0.02580955 -0.037148666
000290 12 48 74 bd 2a 30 73 bd eb 27 a4 bb 39 6c c6 bc
       -0.059639044 -0.059372105 -0.0050096414 -0.024221526
0002a0 7e 8e 0f 3c d2 06 82 bd 1c 2a 95 3d 24 fb ae 3d
       0.008762 -0.06348957 0.07283422 0.08543995
0002b0 f1 09 5c bb 9d 4b 25 3d f3 eb 0c 3d e9 6d d8 3c
       -0.0033575261 0.040355314 0.034404706 0.026419597
0002c0 ee 0a 1a 3d ab 5e a9 bc 26 f0 10 3d 85 80 8e 3d
       0.03760808 -0.020675024 0.035385273 0.06958107
0002d0 e8 32 42 3d ad fa 93 3c 37 4b 4e bb 0a 4e 0c bd
       0.04741183 0.018063867 -0.0031477937 -0.03425411
0002e0 4f 92 ab bd f6 54 2e 3d b5 d6 e6 3c b8 00 be bd
       -0.083775155 0.042561494 0.028178552 -0.09277481
0002f0 b8 6a 28 3d 99 ca be bc d0 54 98 3d c8 09 b8 bd
       0.0411174 -0.023289965 0.07438052 -0.089862406
000300 3c 66 82 3d 04 5c 60 3b 33 f2 d1 bd 75 4b ab 3d
       0.06367156 0.0034234533 -0.10251274 0.08364002
000310 9e 37 a2 bd 68 46 af bb 71 ba 9d bc 6a a2 84 bd
       -0.079207644 -0.0053489693 -0.019253941 -0.064762905
000320 49 5b 03 3e c3 f8 ec bb 71 3d 00 3c 3d 75 46 3d
       0.12827791 -0.007231803 0.007827149 0.04845165
000330 a8 f1 87 3d f0 fe 3f bc 4e c7 9d bd 34 8c 95 bd
       0.06637889 -0.011718497 -0.0770403 -0.07302132
000340 79 6a cd bc 5e 7e 8d bd 9b 61 79 bd 97 72 52 bd
       -0.025075184 -0.06908868 -0.0608841 -0.051378813
000350 ed 50 a7 3d 7e 86 84 bd 7d 8a 35 bd e1 dc 5e bd
       0.08169732 -0.06470965 -0.044321526 -0.054409865
000360 94 03 b1 bc b0 dd 00 3a 45 fe 87 3c f9 56 c8 bd
       -0.021608151 0.00049158465 0.016600737 -0.09782214
000370 7c f0 d5 bc 3a 2f e4 3d cc 50 8c 3c 6b c4 38 3d
       -0.026115648 0.1114182 0.01712837 0.045109194
000380 d9 a6 8d 3d 85 7c 03 bd dc 85 31 bc 56 2a 5c bd
       0.06916589 -0.032101173 -0.010835137 -0.053751312
000390 fe 17 3a bc 97 bc c4 bd a8 82 8c bd 47 57 29 3d
       -0.011358259 -0.09606283 -0.06860858 0.041343
0003a0 61 05 2f bd 40 fe b0 bd 84 85 11 3c 54 42 a0 bb
       -0.04272974 -0.08642244 0.00888193 -0.0048907194
0003b0 f5 f1 58 bd 3c da 55 3c 58 6a 21 bc 05 a1 29 be
       -0.052965123 0.013052519 -0.0098520145 -0.1656533
0003c0 2e 4b b3 bd e5 30 45 3d f2 51 5f 3a 40 2e 3a bd
       -0.08754574 0.048142333 0.00085189857 -0.045454264
0003d0 ff 86 98 bd f2 aa 4a 3d 16 87 93 3d ab c7 27 3d
       -0.074476235 0.049479432 0.072035 0.040961903
0003e0 14 e3 18 bd 2f 4a 82 3b 79 f1 98 3d 9e 88 9e bd
       -0.037325934 0.0039761285 0.07467932 -0.077409014
0003f0 54 4a 1e bd 71 14 6d bc d9 40 73 3d 68 5f f4 3a
       -0.038645104 -0.014470206 0.059388015 0.0018644156

conv3.bias f4 [128]
000000 a5 36 10 38 88 50 c6 38 d9 3c 9c 39 9c 6c d4 38
       3.4383167e-05 9.456376e-05 0.00029799974 0.00010129178
000010 ed e4 4e b9 83 90 5e 38 8b 08 4d b8 ee 45 d2 37
       -0.00019730972 5.306351e-05 -4.8883765e-05 2.5066514e-05
000020 d8 b3 af b8 ff 04 b8 35 cf 4c 5c 39 72 e1 97 39
       -8.378149e-05 1.3710522e-06 0.00021009448 0.00028968934
000030 55 6d 13 39 31 29 16 b8 aa a5 09 39 8a 18 e5 38
       0.00014059742 -3.580115e-05 0.00013127053 0.00010924142
000040 ff 94 8b b8 62 4a 9d 37 c7 bb 29 39 f8 65 fc 37
       -6.655789e-05 1.8750496e-05 0.00016187048 3.0088224e-05
000050 6b c8 ab b8 34 74 3d 39 2d ec bf b8 27 14 36 b9
       -8.191246e-05 0.00018067734 -9.151581e-05 -0.0001736438
000060 a5 75 70 b8 d2 c6 14 39 c8 f3 a6 b8 8a 02 c1 38
       -5.7330024e-05 0.00014188446 -7.9609046e-05 9.20343e-05
000070 ec d4 65 38 e3 fc 67 b9 2a 74 d2 b7 4c 01 c2 39
       5.4796154e-05 -0.00022124084 -2.5088044e-05 0.0003700353
000080 8c 05 8a b6 ae 87 e5 38 87 98 fa 38 ab 22 91 38
       -4.1133662e-06 0.00010944843 0.000119493394 6.920596e-05
000090 ec 11 10 b9 6e 63 cc 35 5a 37 8a b8 90 f9 53 b8
       -0.00013739587 1.5228122e-06 -6.590663e-05 -5.0538743e-05
0000a0 e3 68 79 37 7c 68 50 39 22 b9 56 39 72 7c 97 37
       1.4865977e-05 0.00019875349 0.00020477598 1.8058552e-05
0000b0 97 86 5e 38 44 59 a0 37 2f 06 4e b9 21 05 61 b8
       5.305427e-05 1.9115054e-05 -0.00019647994 -5.3648957e-05
0000c0 07 ad e0 b7 39 1a d4 38 70 97 9c b9 d1 9d c9 37
       -2.6783453e-05 0.00010113832 -0.00029867468 2.4034556e-05
0000d0 60 59 8c b8 62 b7 13 b9 b2 b9 95 39 38 09 be 37
       -6.6923676e-05 -0.00014087328 0.00028557848 2.2654058e-05
0000e0 8c 87 91 38 a0 fd 5c b8 45 8a 11 ba 3c 31 e0 b7
       6.9393864e-05 -5.2688294e-05 -0.0005551915 -2.6725807e-05
0000f0 47 c8 59 b7 40 93 13 b9 33 32 47 b8 64 3e c5 39
       -1.2980839e-05 -0.00014073867 -4.749205e-05 0.00037621253
000100 31 40 1a 39 08 ac be 38 a0 c3 91 b8 3d 6c d4 b8
       0.00014710498 9.091949e-05 -6.950577e-05 -0.00010129109
000110 af cd 4d 39 48 84 cb 38 12 2f b2 38 4f 8d e7 b7
       0.00019626947 9.7044336e-05 8.496469e-05 -2.7603148e-05
000120 74 92 18 b9 69 51 27 39 98 49 bf 37 97 9c 47 38
       -0.00014550408 0.00015956689 2.2803244e-05 4.7591133e-05
000130 8f ac bd b8 c7 c3 7c 37 91 a7 8d b9 0e c3 4a b9
       -9.044364e-05 1.5065953e-05 -0.00027018462 -0.00019336885
000140 ee 0b 6c b7 c2 2d 83 b9 3f 50 c3 37 a5 96 07 b7
       -1.4069474e-05 -0.0002502036 2.3283179e-05 -8.081702e-06
000150 31 a5 5a 39 79 f4 33 b8 13 99 01 00 3c 29 bb b8
       0.00020851639 -4.290461e-05 1.46748e-40 -8.924535e-05
000160 25 ed 2c b9 a4 3c ba 37 09 01 09 b8 68 a5 f1 37
       -0.00016491541 2.2201166e-05 -3.266431e-05 2.8806462e-05
000170 aa 41 bb 38 6d 64 0e b8 9c cc c5 38 86 f3 8d 35
       8.929086e-05 -3.3948967e-05 9.4318035e-05 1.0576193e-06
000180 c8 9f b6 b8 9d 34 fb 37 d2 c0 aa 37 f3 25 20 b9
       -8.708198e-05 2.9946032e-05 2.0355368e-05 -0.00015272926
000190 26 53 2c 39 36 a8 ae 39 6b f8 a1 b9 df 57 0b b7
       0.00016434173 0.00033313193 -0.000308934 -8.305505e-06
0001a0 eb 69 32 b9 fa 19 0d b9 fa 16 1f b8 4f d4 46 b8
       -0.0001701486 -0.00013456485 -3.7929953e-05 -4.7404606e-05
0001b0 37 1e b0 38 6c dd f0 b8 45 6b 4a 39 2e 8b e6 b8
       8.397962e-05 -0.00011485335 0.00019304182 -0.00010993179
0001c0 eb 9c c3 b7 18 48 89 b8 ed 8b 3d b8 58 de aa 39
       -2.3318882e-05 -6.5460976e-05 -4.5191427e-05 0.00032590586
0001d0 ff 45 d1 38 b7 16 0e b7 7f 31 00 39 f1 bc d0 b8
       9.9789344e-05 -8.469148e-06 0.0001222547 -9.953406e-05
0001e0 ab 64 5b 39 e2 ca a2 b8 ae f7 c8 38 61 5b 56 39
       0.00020922969 -7.762552e-05 9.582877e-05 0.00020442672
0001f0 af 26 39 37 3e 8d 46 b8 f6 c1 fd 37 3c 7f 9d b8
       1.1035866e-05 -4.733842e-05 3.025027e-05 -7.5100426e-05

conv4.weight f4 [100, 128, 1]
000000 5c 19 5f bb d5 de 51 bc 98 60 d0 bd 90 59 84 bd
       -0.0034042215 -0.012809475 -0.10174674 -0.06462395
000010 11 6d 73 bb 67 1c cd bd 18 96 86 3d 1d bd 23 3d
       -0.0037143866 -0.10015183 0.06571597 0.039975274
000020 41 30 43 3d 5c b8 fd bd 13 6a 05 be 34 69 81 bd
       0.04765344 -0.123886794 -0.13028745 -0.06318894
000030 89 54 f6 3c 52 cd ee bd b2 49 7d bd 2b 5a 66 bd
       0.030069606 -0.116602555 -0.06183786 -0.056238335
000040 28 44 19 3d a5 d3 11 bd 81 87 3d be 0e 91 b7 bd
       0.037418514 -0.03560223 -0.18508722 -0.08963214
000050 fa 85 ba bd ca ca 5e 3d ad 9c 35 bc 11 34 da 3c
       -0.09107585 0.054392613 -0.011084718 0.026636155
000060 f5 81 06 3e a7 b6 92 ba 4d 75 27 3d 5f 2c 3a bd
       0.13135512 -0.0011193351 0.04088335 -0.04545247
000070 88 c7 3d bc 99 ec 7c 3c e2 2c 50 3d cf 0e bf 3c
       -0.0115832165 0.015437269 0.050824054 0.023322491
000080 92 0b 1d bd a9 38 7e 3b df fb 29 3c 33 79 19 ba
       -0.038341112 0.0038791096 0.010374992 -0.0005854547
000090 e0 88 17 3d 41 44 6e bd 19 43 12 bd cc de 9d bd
       0.03699577 -0.05817056 -0.03570852 -0.07708511
0000a0 bb c3 f8 bd da b3 93 bd 9c 21 cf bd b2 b9 7b 3c
       -0.121467076 -0.07212038 -0.10113832 0.015364097
0000b0 b7 d2 29 be 43 27 f8 bd 5c 76 23 3d dd a5 2d bb
       -0.16584288 -0.121168636 0.0399078 -0.0026496567
0000c0 98 f3 f1 3c b5 2c 73 bd 81 8d 0a bd f3 f1 bf bd
       0.0295351 -0.059368808 -0.033826355 -0.0937232
0000d0 89 ee 6e 3c b7 1d b8 3c cb b9 6d bd 07 a2 b0 bd
       0.014583238 0.022475107 -0.058038514 -0.08624654
0000e0 40 43 24 bd b4 1f a3 bc f6 77 9c bd 91 94 1f 3d
       -0.040103197 -0.019912578 -0.07640068 0.038960043
0000f0 85 c8 74 3d 1a f5 c2 3d 0d 6a 8a 3b d9 73 d3 bc
       0.059761543 0.09519406 0.004224068 -0.025812076
000100 b2 35 7c bc f1 3c 18 bd f2 5d 13 bc 5e 1d 33 bd
       -0.015393661 -0.037167493 -0.008994566 -0.04372918
000110 49 19 af 3c be 54 7e 3d a9 0c b0 3d a3 13 4e bd
       0.021374362 0.062092535 0.08596165 -0.050311696
000120 58 be 21 bd 96 f7 97 3c 8a 6e e7 bc b3 53 80 bd
       -0.039488167 0.018550675 -0.028250951 -0.06265964
000130 eb b5 3d 3d e5 ee e6 3c c4 3d 6d 3d 50 db 02 be
       0.04631607 0.028190086 0.057920232 -0.12778974
000140 bb 08 2c 3d 9e d6 2a 3d 66 5e a4 3c 9b 2f ed 3b
       0.042000514 0.04170858 0.020064544 0.007238341
000150 db 14 03 bc 8e 78 a0 bc ba 04 7d b9 e9 fb ad 3a
       -0.008000578 -0.019588735 -0.00024129721 0.0013273928
000160 16 f0 cf 3d fe f2 2a 3d d5 37 4a 3d 88 b7 09 bc
       0.10153215 0.04173564 0.04936965 -0.008405574
000170 71 1b 8d 3d dc dc d4 bd fc 0f df 3c 24 a1 6d bd
       0.0689 -0.10393688 0.027229302 -0.058015004
000180 e6 1c 5e bc d3 bd eb bc fa 87 b4 3c be 56 c8 bd
       -0.013556695 -0.028777039 0.022037495 -0.0978217
000190 66 fd 2c 3d 17 5e 5c bd ab ab 2f 3d 35 32 67 3d
       0.042233847 -0.05380067 0.042888325 0.056444366
0001a0 74 d2 4c bd 79 5c bc 3d 00 a4 bd bc 67 47 01 be
       -0.05000539 0.09197325 -0.02314949 -0.12624894
0001b0 b9 c5 06 be 9d 16 a8 3d f9 40 50 bb 4a 41 40 bd
       -0.13161363 0.08207438 -0.0031777008 -0.046937265
0001c0 0c aa bc 3c 22 b1 de 3b 2c 2a ec 3d 08 1d b8 3c
       0.023030303 0.006796018 0.11531481 0.02247478
0001d0 b4 7f 9a bc 79 94 a0 ba 2e 35 98 bd ca df 3c 3d
       -0.018859722 -0.001225128 -0.07432018 0.04611186
0001e0 ab d1 fd 3d 93 c8 38 be be bb 6d 3d a0 2e 8d bd
       0.123935066 -0.18045263 0.058040373 -0.06893659
0001f0 4f 57 93 bd e8 6d 90 3d fb 37 13 be 29 c2 88 3d
       -0.07194387 0.07052213 -0.14376824 0.06677658
000200 94 f8 26 be 8d 01 1e 3d 1a 69 73 3d 37 5c 3f bd
       -0.16305763 0.038575698 0.059426405 -0.046718802
000210 4f 51 e6 bd 2f 99 22 3b 78 78 14 3d 03 5c ef bc
       -0.11245977 0.0024810543 0.0362477 -0.02921868
000220 c3 19 79 bd 20 4a ad bc 14 eb ff bc 4f ef b8 3c
       -0.060815584 -0.02115351 -0.031240024 0.022575049
000230 2d 53 15 bc 5f f3 e8 3b 67 bf 85 bd 80 60 99 3d
       -0.009114069 0.00710909 -0.06530648 0.07489109
000240 52 ef 3e 3d 66 4d f4 3c a8 67 a7 bc bc 5e aa bc
       0.046614952 0.029822063 -0.02043517 -0.020797126
000250 2a f8 f5 3d 26 39 6a 3b 53 ed 84 bb 92 46 b4 bc
       0.12010224 0.003573963 -0.0040566116 -0.022006307
000260 35 69 71 3d 33 3c f0 3c db 6c 83 bd cf db 1d bd
       0.058938224 0.02932558 -0.06417247 -0.038539704
000270 74 a5 8d 39 71 7c 93 bd 73 46 1e 3d ef ba bb 3a
       0.00027016888 -0.0720147 0.038641404 0.0014322678
000280 49 3d fa 3b e1 81 23 bd 84 5b ed bd f2 fb c6 bd
       0.0076367003 -0.039918784 -0.11589721 -0.097160235
000290 59 d8 cd bd 87 7e 24 3d b2 f3 7b 3c 14 9c 05 3d
       -0.10051031 0.04015973 0.015377926 0.03261955
0002a0 22 0d 2a bd a4 06 84 bd 13 06 ee bc 72 28 95 3d
       -0.04151643 -0.06446579 -0.02905563 0.07283105
0002b0 cf bb 39 3d 70 d2 ad 3d ae 1f 0e 3d 6e 0a 26 bc
       0.045345124 0.084874034 0.03469818 -0.010134323
0002c0 71 dc 89 3d e6 d6 51 3d eb 4c 88 3d 72 32 1e 3d
       0.06731499 0.051230334 0.06655296 0.038622327
0002d0 db ef c8 bd 10 89 92 bc 0e 7c cc bd 99 3e 23 bd
       -0.09811374 -0.017887622 -0.09984599 -0.03985462
0002e0 ea 2f 98 3d b7 73 f9 bc 8f dc 44 bd 26 7e 1a 3d
       0.07431014 -0.030450685 -0.048061904 0.03771796
0002f0 70 8c c0 3d e6 06 7a bd b6 76 83 3d e7 eb b0 bd
       0.09401786 -0.061041735 0.06419127 -0.08638745
000300 f6 86 5f 3d 0c ca 5d 3c 2d a2 2e bd ab 16 7f bd
       0.05457207 0.013536941 -0.04263513 -0.062277477
000310 12 1a 46 3d e8 a0 18 bd 9f 01 55 3c 98 e9 68 3c
       0.048364706 -0.037262827 0.013000875 0.014215849
000320 c7 91 5c bc 77 35 25 be 9b 69 8e bd 01 8c bc 3d
       -0.01346249 -0.16133676 -0.069537364 0.09206391
000330 09 cd 1f 3e ba 34 b3 3d c0 da 82 3b f9 8c 8a 3d
       0.15605558 0.08750291 0.003993362 0.0676517
000340 ad 44 37 3d 29 a2 c6 bc 66 d0 18 3c da 0c 1a bd
       0.04474323 -0.024247246 0.00932703 -0.037609912
000350 44 7b bd bc ec c4 f6 3b 7e 2d 18 3a 36 03 8a 3d
       -0.023130067 0.007530799 0.00058051187 0.06738894
000360 03 61 e9 bd da ff fe 3c 4f e7 ac 3d 9f fe c8 bd
       -0.11395457 0.031127859 0.08442556 -0.0981419
000370 27 8e 94 bb 84 94 0c 3c 6a 40 c8 3d 4c 43 6f 3c
       -0.0045335474 0.008580331 0.09777911 0.014603447
000380 09 45 b8 3c 93 9c 71 bd 57 cd 8e bd 83 e8 ac bc
       0.022493856 -0.05898721 -0.06972759 -0.021106964
000390 7a 29 88 3d 7f 55 39 bc fb 6f d2 bc 66 28 17 3d
       0.06648536 -0.011311888 -0.025688162 0.03690376
0003a0 17 33 91 3c 52 19 5b bc 24 05 85 3a f9 83 6c 3d
       0.017724557 -0.013372736 0.0010148627 0.057743046
0003b0 81 5b 48 3c 80 33 53 3d d4 cf e6 bc 54 ef 86 3d
       0.0122288475 0.051562786 -0.028175272 0.06588617
0003c0 2c ad 36 bd a9 e0 8a bd 9b 87 35 3d 90 ba 06 bd
       -0.044598743 -0.06781132 0.044318777 -0.032892764
0003d0 19 09 a8 bd 47 6b d3 bd 13 52 af 3d 19 60 87 3c
       -0.0820486 -0.10323196 0.08560576 0.016525315
0003e0 42 29 e6 bc 6e 13 f5 3c 57 72 a9 3b 43 03 0e 3d
       -0.028095845 0.029916491 0.005171101 0.03467108
0003f0 d5 be e8 bd 59 21 43 3d e8 be 9c bc 18 fe 54 3d
       -0.11364523 0.047639225 -0.019134 0.052000135

conv4.bias f4 [100]
000000 3d bc e5 b7 07 6e 52 39 8d 87 6a 39 af 49 01 b8
       -2.7386583e-05 0.00020068149 0.00022366476 -3.082462e-05
000010 0d 1c a0 37 bc cc 2c b8 95 3b 90 37 b7 e4 1f ba
       1.9086548e-05 -4.119867e-05 1.7193883e-05 -0.000609945
000020 bb 50 dc 37 cc e0 7f 38 6a 6b ff b8 0e 13 ac 38
       2.6263637e-05 6.1006096e-05 -0.00012179355 8.205148e-05
000030 39 e7 9e 38 26 83 cb b8 94 97 f0 38 4e f7 a6 b9
       7.577096e-05 -9.7042226e-05 0.000114723254 -0.00031846244
000040 cf 0e 17 39 7c 68 d2 b9 14 b8 80 b9 a5 22 ad b8
       0.00014405999 -0.00040132168 -0.0002455121 -8.255736e-05
000050 30 24 0e b9 db 31 c3 39 df 01 88 b9 a7 f6 6d 38
       -0.00013555656 0.00037230444 -0.00025941335 5.6734916e-05
000060 e4 82 a1 39 33 fb 61 b8 ac fa 0f 39 05 a2 6c 37
       0.00030805834 -5.3878128e-05 0.00013730925 1.4104419e-05
000070 cf 82 4c 39 5f 13 53 b8 62 56 ae 38 f7 4f 9b 38
       0.00019503686 -5.032436e-05 8.3130566e-05 7.4058706e-05
000080 42 74 9d b7 34 7f 8e 39 4f 51 8d b9 d7 d7 cb b8
       -1.8769995e-05 0.00027179124 -0.00026954195 -9.7199976e-05
000090 e9 f0 4b 38 9e 51 98 b9 f3 aa 6f b8 ac 3c 82 b8
       4.8623337e-05 -0.0002905251 -5.714125e-05 -6.210184e-05
0000a0 78 21 a1 b8 02 b2 3f b9 d9 c9 b7 b7 4b ae 57 39
       -7.683312e-05 -0.00018281493 -2.1909293e-05 0.00020568927
0000b0 41 e8 8a b9 ea c5 17 39 75 52 9c 39 58 22 15 39
       -0.00026494454 0.00014474211 0.00029816074 0.00014222541
0000c0 80 76 10 39 e1 20 87 37 78 62 56 b7 47 6e cd 37
       0.00013777055 1.6108565e-05 -1.27783205e-05 2.4489256e-05
0000d0 82 f6 03 b9 81 a3 2f b8 94 05 8f 37 4b 92 63 37
       -0.00012584965 -4.1875526e-05 1.7049526e-05 1.3564316e-05
0000e0 5c 67 af b8 61 60 7f 38 53 29 0a 39 f9 c8 43 39
       -8.3639025e-05 6.0886498e-05 0.000131761 0.00018671517
0000f0 71 88 92 39 38 00 8c b9 31 0c c4 38 a7 d8 37 b9
       0.00027948947 -0.00026703044 9.348279e-05 -0.0001753295
000100 bf 42 b3 38 a2 62 2c 39 e7 89 a7 b8 65 5b 51 b8
       8.5478176e-05 0.00016439942 -7.988867e-05 -4.99146e-05
000110 d4 5a cb b7 ed 6a ec b8 0d 5c 06 80 14 9b 1a b8
       -2.4241781e-05 -0.000112732734 -5.84035e-40 -3.686089e-05
000120 f5 43 08 39 9c 30 e2 b8 14 46 38 37 04 8c e0 38
       0.00012995287 -0.00010785574 1.0983571e-05 0.00010707232
000130 e7 1d a2 39 07 94 d0 b8 c9 99 c7 b6 6f de f6 b8
       0.00030921327 -9.945785e-05 -5.948565e-06 -0.000117716256
000140 e2 74 0a b9 2f 09 e7 38 0a 9d 9a 38 2e 21 36 b8
       -0.00013204248 0.00011016649 7.372543e-05 -4.3423082e-05
000150 f0 d4 00 b9 34 91 bd 38 9a 24 d7 b8 fe e6 4d b9
       -0.00012286357 9.0392685e-05 -0.000102588165 -0.00019636375
000160 3e 0c 43 39 d0 ee 05 37 61 79 a9 b7 05 5d b7 38
       0.0001860121 7.983021e-06 -2.0202891e-05 8.743446e-05
000170 58 e2 e5 38 dd a1 8b b8 35 4b 90 38 bf 6c 13 b9
       0.00010961731 -6.658186e-05 6.8804635e-05 -0.00014059524
000180 17 bf 1e 39 c9 bb 4e b7 90 51 d5 b8 1b dd b6 b7
       0.0001513924 -1.2322279e-05 -0.00010171824 -2.1799051e-05

bn1.weight f4 [64]
000000 b4 b5 5e 3e 65 f7 16 3e c7 f5 28 3f 14 38 ca 3e
       0.21749002 0.14742811 0.66000026 0.3949591
000010 63 ee d8 39 ce ec 41 3f bc 9a 93 3e 42 37 d7 3d
       0.00041376342 0.7575196 0.2882899 0.105085865
000020 2c f8 70 3f e4 3a f3 3e 9e 3c 0c 3f 48 e1 18 3f
       0.9412868 0.47505867 0.54779994 0.5971875
000030 fb c6 28 3f dd a5 9f 3e f3 13 73 3f 35 9b bb 3e
       0.6592862 0.3118123 0.94952315 0.3664185
000040 46 cb 13 3d 5c ec d9 3e f6 67 5c 3f aa 89 62 3f
       0.03608253 0.4256314 0.8609613 0.8849131
000050 87 2a d0 3e 55 09 94 3e 05 44 76 3f 4f 16 2c 3f
       0.40657446 0.2891337 0.9619754 0.6722154
000060 b3 7f 96 3e 61 da 70 3f 5c 6f 5a 3f d7 01 26 3f
       0.29394302 0.9408322 0.8532617 0.6484656
000070 a8 74 a3 3d de 23 3a 3e ed 98 9f 3e f8 60 65 3f
       0.07981235 0.18177745 0.3117136 0.8960109
000080 bd 7a 19 3f fd b6 b9 3d 10 1f 8b 3e e2 23 40 3f
       0.5995291 0.09068105 0.27172136 0.7505475
000090 0f 01 24 3f 09 1b 3d 3f 29 19 f2 3e 29 43 18 3f
       0.64064115 0.7386938 0.4728482 0.5947748
0000a0 df f7 46 3f dc 91 6c 3f fc a9 0b 3f ac 01 b3 3e
       0.7772197 0.92410064 0.5455625 0.34962213
0000b0 76 60 02 3f f5 75 76 3f b2 17 a0 3e b1 c5 f3 3c
       0.5092844 0.9627374 0.31268078 0.029757353
0000c0 57 d1 77 3e c8 3e 4b 3f f7 78 23 3f a2 ea 52 3e
       0.2420095 0.7939267 0.6385645 0.20597318
0000d0 e5 73 31 3f c7 36 7f 3f 50 f0 2e 3f a7 6f 2a 3f
       0.69317466 0.9969296 0.6833544 0.6657662
0000e0 b4 f7 da 3e 53 15 7a 3f b3 52 4a 3f b0 d6 d0 3e
       0.42767107 0.9768879 0.7903244 0.40788794
0000f0 82 08 6d 3f 13 c6 68 3f 11 ec 14 3f 73 be 54 3f
       0.92591107 0.9092724 0.5817271 0.831031

bn1.bias f4 [64]
000000 61 95 2a 3d 66 82 4c 3c 0e 51 0e 3d f7 a4 02 bd
       0.041646365 0.012482261 0.03474527 -0.031895604
000010 a0 73 c8 ba 30 8d e6 3c 23 9e e9 bc 79 01 bc 3c
       -0.0015293248 0.028143495 -0.028517788 0.022949921
000020 52 c5 2d 3d ce e1 ed 3c 21 bc 1d 3d 3d 77 c8 3c
       0.042424507 0.029038336 0.03850949 0.02447092
000030 ac 16 11 3d 77 70 3a bd 6f 91 7c bc 86 38 c1 3b
       0.035422012 -0.04551741 -0.015415533 0.0058966307
000040 c6 6d a4 3b 30 5a 46 3d 4f ca d1 3c 65 64 e6 bc
       0.005017969 0.048425853 0.025609164 -0.028124044
000050 31 b3 52 3d 26 2a 96 3c e5 37 9f 3c f3 e8 e0 bc
       0.05144042 0.018330645 0.019435832 -0.027454829
000060 aa 4a ea 3c a1 8f 1e 3d 83 99 cc b8 10 69 dd 3c
       0.028600056 0.038711194 -9.756072e-05 0.027027637
000070 80 a2 e8 bc 5a f7 22 bc a5 ae 30 3c c1 14 d0 3d
       -0.028397799 -0.0099466685 0.010783826 0.101602085
000080 af 84 87 3b a9 76 89 bb 60 3c 90 bc 4b 71 34 3b
       0.00413569 -0.0041950536 -0.017606914 0.0027533348
000090 5e cc 14 bc f1 32 c5 3b be 91 30 3c 96 ca 86 3b
       -0.009081928 0.0060180356 0.010776935 0.0041135056
0000a0 c0 96 c6 bc 9b 89 bf 3c 8f 90 4d bc ce 38 9f 3c
       -0.024241805 0.023381045 -0.0125466725 0.019436266
0000b0 0e ac e2 3c 2d c2 5b 3b 57 34 9b bc bb 11 f4 3b
       0.027669933 0.0033532486 -0.018945856 0.0074484027
0000c0 fa 48 fb bc 36 da d3 3c 48 ce 0d 3d 99 67 7a 3b
       -0.030674446 0.025860887 0.034620553 0.0038208722
0000d0 ee 24 2a bd 60 ac 83 bc 26 52 5c 3a a8 c9 ce bc
       -0.041539125 -0.016073406 0.0008404575 -0.025242642
0000e0 ab be 74 bb 2a 32 2f 3d a8 fa d8 bb d2 58 c9 3b
       -0.0037345092 0.04277245 -0.0066216774 0.0061446214
0000f0 13 6a 09 3d d5 50 7c 3c 6b 0c 55 3b f1 cc 19 bc
       0.033548426 0.015400131 0.0032508622 -0.009387241

bn1.running_mean f4 [64]
000000 85 34 6e 38 08 11 96 b7 b4 e5 24 39 17 c1 d8 b4
       5.6792534e-05 -1.7889324e-05 0.0001572583 -4.0373627e-07
000010 ee f6 9e b2 e3 04 a8 39 fe 78 9d 38 92 8e da 38
       -1.8505911e-08 0.00032047098 7.50888e-05 0.00010421606
000020 d2 e3 84 39 2b 1d 52 38 76 46 92 b9 5c c6 61 b9
       0.0002534674 5.0095066e-05 -0.00027899788 -0.00021531567
000030 f0 ae 74 b8 1a 77 7f 38 ad 28 8e 39 02 d4 21 b9
       -5.8337057e-05 6.090766e-05 0.00027114656 -0.00015433136
000040 da d5 6a b7 9b fd 29 37 12 94 05 ba 25 1e 69 b8
       -1.3997278e-05 1.0132232e-05 -0.00050956116 -5.5579603e-05
000050 9a 41 50 38 7e 98 c6 37 74 17 78 b9 c7 81 ec b7
       4.965216e-05 2.3674449e-05 -0.0002365986 -2.8193825e-05
000060 99 1f a2 b8 4b e3 0c 3a 22 2f 30 38 f4 c3 06 b9
       -7.7306475e-05 0.00053744455 4.2005566e-05 -0.00012852234
000070 1c 42 cd b6 1a 7b d1 35 5f 33 f8 38 dc c3 c6 b9
       -6.1171722e-06 1.5607541e-06 0.0001183513 -0.0003791143
000080 10 dd 5d 38 f7 84 30 38 dd a6 c0 b9 a7 e7 31 b9
       5.2896386e-05 4.2085503e-05 -0.00036745417 -0.00016966333
000090 cb 27 cd 39 d8 18 6d 38 fd a8 3e 3a 73 9c 96 b9
       0.00039130295 5.652834e-05 0.0007273106 -0.00028726793
0000a0 f7 7e 95 b8 1f 99 e8 34 9c e2 11 ba 80 6a 9b b8
       -7.128523e-05 4.3324778e-07 -0.00055650785 -7.410813e-05
0000b0 82 f8 29 b9 1d 15 49 b9 61 8b 0b 39 a7 87 f7 37
       -0.00016209672 -0.00019176719 0.00013307996 2.9507863e-05
0000c0 38 f9 08 b9 5e a1 26 38 64 39 51 b8 12 70 fe 37
       -0.00013062812 3.972777e-05 -4.9882932e-05 3.0331346e-05
0000d0 8e b5 3b b8 65 a0 92 39 87 25 81 b9 84 27 ee b9
       -4.475336e-05 0.00027966793 -0.00024632757 -0.0004542434
0000e0 a9 23 01 b9 cb 46 37 38 93 21 85 b9 63 14 7e b9
       -0.00012315683 4.369653e-05 -0.00025392752 -0.00024230922
0000f0 2f 70 7e b9 d4 a2 6e 39 92 0a c2 b9 6a 55 d6 38
       -0.0002426512 0.00022758107 -0.0003701044 0.00010220225

bn1.running_var f4 [64]
000000 be 51 d1 3c af d8 6b 3d 03 6e 8a 3d 65 5e 44 3d
       0.025551673 0.057579692 0.06759264 0.047941584
000010 e7 db 13 3c 7a 63 82 3d 93 93 5f 3d 1b 05 de 3c
       0.009024597 0.0636663 0.054584097 0.027102044
000020 02 d1 4e 3d f1 5b 28 3d cb 38 c6 3c 8b 9a 1b 3d
       0.050492294 0.041103307 0.024197003 0.03798918
000030 42 4e 64 3d 28 04 f2 3c 67 8f 9d 3d 90 7a 32 3d
       0.055738695 0.029542997 0.076933675 0.043573916
000040 1b c9 1c 3d 7e 7a dc 3c d4 c9 60 3c 9d 22 15 3d
       0.038277727 0.026913878 0.013719995 0.036409963
000050 b7 5e 4e 3d c0 61 69 3d 0d d6 29 3d 8c db 0f 3d
       0.050383296 0.056977987 0.0414639 0.035121486
000060 66 aa d1 3c 86 cc 74 3d 51 60 5b 3d 29 a1 7d 3d
       0.025593948 0.05976536 0.05355865 0.061921272
000070 ee 06 a8 3d 71 49 c1 3d 5c d5 84 3d 12 10 90 3c
       0.08204447 0.09437836 0.064860076 0.017585788
000080 06 a3 3b 3d 99 3d 88 3d 09 fb 76 3c 9f e2 6f 3d
       0.04580977 0.06652374 0.0150745 0.058565732
000090 b3 e3 64 3d 9f 91 07 3d 3a c8 93 3c b3 d1 99 3d
       0.055881213 0.03309786 0.018039811 0.075107
0000a0 9e 45 4b 3d fb bb 19 3d d6 87 9f 3b 8b 42 c8 3d
       0.04962694 0.037532788 0.004868488 0.09778317
0000b0 0a 94 73 3d 3d 4f 7c 3d b0 4e 20 3d 82 31 52 3d
       0.059467353 0.061599005 0.039137542 0.051316746
0000c0 79 84 1d 3d a9 b8 50 3d ab 02 58 3d 3b 10 51 3d
       0.038456414 0.050957356 0.05273692 0.05104087
0000d0 f0 6c f9 3c e6 90 42 3d a9 da cd 3c 67 97 24 3d
       0.030447453 0.047501467 0.02512868 0.04018345
0000e0 7e 86 9a 3d d5 31 49 3d 1b ca 4d 3d db 1e 5a 3d
       0.075451836 0.04911979 0.05024157 0.053252082
0000f0 bf e4 fc 3c 05 3b 2e 3d 98 73 53 3d 61 c0 4a 3d
       0.030870793 0.042536754 0.05162391 0.049499873

bn2.weight f4 [128]
000000 ec e0 0f 3f d0 f4 50 3f 46 9c 15 3f 15 de ab 3d
       0.5620258 0.81623554 0.5844158 0.08391968
000010 e3 d6 59 3f be 9e b6 3e b7 de 96 3e 0e 47 e9 3e
       0.85093516 0.35667986 0.29466793 0.45562023
000020 3f d0 65 3f 9d 26 1c 3f dc 33 ce 3e 61 b2 36 3f
       0.89770883 0.6099642 0.4027394 0.71365935
000030 b5 7e 32 3f 49 6f 30 3f 4f 8a d8 3d 72 c0 08 3e
       0.6972459 0.6891981 0.10573255 0.13354662
000040 aa 80 14 3f 78 0e 04 3f 32 9b df 3d dd e8 66 3f
       0.58008826 0.5158458 0.10918273 0.9019907
000050 b4 5c 33 3f 2f 99 46 3f 6d 52 2a 3e 82 56 cb 3e
       0.7006333 0.7757749 0.16633005 0.39714438
000060 f1 2f 35 3f 2b 48 e6 3e 1d c3 89 3e fa cc 60 3f
       0.7077628 0.44976935 0.26906672 0.8781277
000070 5e 28 0f 3f f2 a2 34 3f 00 4c 38 3d b7 89 9e 3e
       0.5592097 0.70561135 0.044994354 0.30964443
000080 2e 56 d9 3d e1 6b cb 3e f6 6e 5f 3f c4 eb 16 3f
       0.106121406 0.39730743 0.8727869 0.589535
000090 f1 ea 23 3f d0 86 eb 3e 13 f1 5a 3e 5a 72 17 3d
       0.6403037 0.4600129 0.21381025 0.03697429
0000a0 cb b3 35 3f 77 42 e8 3e d7 bb 40 3f e8 d0 7b 3f
       0.7097747 0.4536321 0.7528662 0.9836564
0000b0 09 52 24 3f 92 b2 cf 3e 7c 42 72 3f 3b 62 8e 3e
       0.64187676 0.40565926 0.946327 0.2780932
0000c0 2d c3 42 3f 94 41 07 3f 34 b8 38 3f 51 d5 56 3f
       0.76079065 0.5283444 0.7215607 0.83919245
0000d0 6f 8a 47 3f ac 5c 5b 3f 68 f0 3a 3e 0a b4 90 3e
       0.7794561 0.8568828 0.1825577 0.2826236
0000e0 e0 40 05 3f df f0 21 3e 73 38 ed 3e cf 7c 26 3e
       0.52052116 0.15814541 0.4633213 0.16258548
0000f0 92 42 4a 3f 89 ad 4d 3d c7 b9 45 3f 73 74 f0 3e
       0.7900783 0.050214324 0.772366 0.46963844
000100 ee 09 78 3e d3 ee 54 3f 05 c8 f9 3e c3 11 ac 3e
       0.24222538 0.83176917 0.48785415 0.336073
000110 35 a5 06 3f c5 5e 02 3f 94 75 65 3e ed 1b e9 3e
       0.52595836 0.50925857 0.22408134 0.45529118
000120 bc 8d 02 3f f4 39 01 3f dd 55 39 3f 5b 40 6c 3f
       0.5099752 0.50479054 0.7239664 0.922857
000130 63 64 e0 3e 7e ab a9 3d 2b 65 dd 3e f9 d9 03 3f
       0.4382659 0.08284663 0.43241248 0.51504475
000140 69 f1 3b 3f 2c 98 b5 3b 81 14 cf 3e 12 8d 59 3e
       0.7341524 0.005541822 0.4044533 0.2124522
000150 3c b2 00 3e 7f fd 0b 3f b1 d4 0d 3f 4a e9 63 3f
       0.12567991 0.5468368 0.55402666 0.89027846
000160 e7 3b 42 3e bc 81 54 3f fa 2d f4 3d e3 1e 6d 3f
       0.18968163 0.8301046 0.11922832 0.92625254
000170 b0 59 77 3f da af 48 3f 22 37 00 3f 4e 97 8d 3d
       0.9662123 0.7839333 0.50084126 0.06913625
000180 6d 1a 47 3f bb 4c 10 3f fc a4 81 3e 90 16 56 3f
       0.777747 0.5636708 0.25321186 0.8362818
000190 d6 17 ca 3d 21 c7 03 3f 79 c7 68 3f 7e a6 6a 3f
       0.098678276 0.5147572 0.9092937 0.91660297
0001a0 31 57 66 3e 59 c1 49 3e 83 f2 26 3f 97 fd 1b 3f
       0.22494198 0.19702663 0.65213794 0.6093382
0001b0 7b c7 bb 3e e2 65 24 3f 55 00 c2 3e 88 97 7c 3f
       0.3667563 0.6421796 0.37890878 0.9866872
0001c0 04 ff 9b 3e 68 d0 70 3f 63 f6 a7 3e 70 26 65 3f
       0.30468 0.94068 0.32805166 0.89511776
0001d0 0b d7 05 3f ca 6d 36 3f 1e cf b4 3e a7 ee c3 3e
       0.52281255 0.71261275 0.35314268 0.38268015
0001e0 92 41 7a 3e 36 5b 5e 3f 17 fc 38 3f 00 fc 22 3f
       0.24439076 0.86857927 0.7225966 0.6366577
0001f0 c4 77 71 3e 40 27 28 3f 41 5d 2a 3f fb e6 a7 ba
       0.23580843 0.6568489 0.66548544 -0.0012809926
