part_pc_vae_storagefurniture/4950_net_part_pc_encoder.pth (torch_old, 244256 bytes, 28 tensors)

conv1.weight f4 [64, 3, 1]
00000000: ef02 7e3e c065 1cbe 4b8b bfbe dd23 bb3e
00000010: f270 753e fdae 103f bbda db3e 1ef0 9fbe
00000020: f263 013f f243 603e 3421 c6be 9f42 f3be
00000030: cfdb 813e bd09 5c3d 9d10 ecbd f81f c7be
00000040: e2d6 0cbf 4c4b 92be ba8f 99be 50c8 ce3e
00000050: a76e d5be cf84 1b3e f07c 64be a6dd dcbe
00000060: 2947 94be cacc e8be c6f0 a93e 4021 443b
00000070: 10f3 fe3d 493e 173f 547e a2be e5a1 3a3e
00000080: 4eb3 76be c5d1 d23c a9ad 08bf b5c0 c8bc
00000090: 565a 0cbf 5187 b03e f7be 623b 334a 48be
000000a0: c72e cfbe 2daa 3fbe 2223 0fbf 45b5 81be
000000b0: f1c5 fd3e 2f25 d6bd 7e10 cc3e 1b33 ed3e
000000c0: 5532 28be e46d eabe 976a 3cbe 02b9 b33e
000000d0: 8488 2c3e bbc7 713e d4b6 513d c2ca a1be
000000e0: dce6 203d 67ff 8a3e fcd0 e6be 8a55 02be
000000f0: c349 aebe c0ea d53e b926 bb3e ca12 d23d
00000100: 5b8f d9be 21e2 043f 881c e0be badf 8e3e
00000110: 2a34 6b3e c081 983e 810f d7be ad0f 54bd
00000120: d8a7 d1be 66f5 f0bd 5fbe 2f3e 4cef e7be
00000130: ad5a f1be c8ef b83d 4638 b6be 231b f9be
00000140: dca1 503e 8d89 0d3f ab69 ab3e b83b 93be
00000150: 038e b5be 796c 01bf 516b 033f b67e 12bf
00000160: 2e8f 0fbf acc6 a1be 74f9 a5be bd55 053f
00000170: 7f17 d33e 57f7 05be e222 b0be 641d 253d
00000180: 3746 8eb9 3f73 4e3e ea9d 17bf 8665 b43d
00000190: b57f 10bf c158 fcbe 3de8 113e 7558 83be
000001a0: b809 64be e4ce ffbe 2a48 ff3d 5bcf f63e
000001b0: f819 ae3d e403 e33e 6a66 00bf a9e7 61be
000001c0: 9aba a53e 5efb aabe 3b6e 61be e6da 963e
000001d0: 5008 ffbc ad86 ba3e 740d f53e 9445 093f
000001e0: 7e06 f63e 9219 62be b0a8 a33e ddc5 6a3e
000001f0: 92f4 e53e 1296 843e 3d47 3f3e 653d 133d
00000200: deef 82bd b39a f6be e58c 06bf cc5a 013f
00000210: c816 9e3e 1940 0dbf 027b 803e 491d 6bbe
00000220: 1927 c73e 9a4e 08bf 1d29 573e 301a ddbe
00000230: 3e8a 8a3e 0eeb 38be 2c46 ea3e a727 c3be
00000240: c96f cebe e499 a43e 236a 563e db06 dabe
00000250: 24d9 8cbe e55a c93e 64ad 1cbf 0380 11be
00000260: eb28 06bd 9057 0dbf f195 87be 2a74 28be
00000270: e6b9 bbbe aaab 81be c65c 31be 605c 103f
00000280: 3555 163c dce9 0abe d494 3abe a23d adbe
00000290: 69f4 77be a028 0f3d 29d9 14bf 7851 893d
000002a0: efb4 073f ae05 7bbe 9e09 043f 2440 ed3e
000002b0: 63ac 79be b98b a63e fa9c ac3e 5905 8abe
000002c0: 8ddd fdbe 6d96 8b3e 751f 9c3e 317f 06bf
000002d0: 1985 ef3c dd86 fa3e e32e 1ebe aed7 d0be
000002e0: bfd0 a93e b088 7d3e 80f0 c7be 35aa e23e
000002f0: 6bfd 6b3e c6c7 03bc 8c8a d33e a006 083f
0.24805807 -0.1527319 -0.3741096 0.365508 0.23968866 0.5651701 0.42940316 -0.31237882
0.5054313 0.21900919 -0.38697207 -0.47511765 0.25363013 0.053720225 -0.11526606 -0.38891578
-0.55015385 -0.28573072 -0.29992467 0.403872 -0.41685984 0.15187381 -0.22313285 -0.43137854
-0.2896054 -0.45468742 0.33191508 0.0029927045 0.12448704 0.59079415 -0.31737006 0.1822582
-0.24091837 0.025734792 -0.53389984 -0.024505952 -0.5482534 0.34478238 0.0034598687 -0.19559555
-0.40465376 -0.1871726 -0.55912983 -0.2533361 0.4956508 -0.10456311 0.39856333 0.46328053
-0.1642545 -0.45786965 -0.18400036 0.35102087 0.16848952 0.23611347 0.05119975 -0.31600004
0.039282665 0.27147982 -0.45081317 -0.12727943 -0.3404065 0.41780663 0.3655298 0.1025749
-0.42492184 0.51907545 -0.43771768 0.27905065 0.22969118 0.2978649 -0.42004016 -0.051772762
-0.40948367 -0.11765556 0.17162465 -0.45299757 -0.47139493 0.0903011 -0.35589808 -0.48653516
0.20374244 0.5528801 0.33479056 -0.287565 -0.3545991 -0.5055614 0.51335627 -0.57224596
-0.5607785 -0.31596887 -0.3241688 0.5208395 0.41228864 -0.13082634 -0.34401613 0.040311232
-0.00027136665 0.2016115 -0.5922533 0.088084266 -0.56444865 -0.49286464 0.14248748 -0.25653425
-0.22269332 -0.49962533 0.12464936 0.48205075 0.08501047 0.44338906 -0.5015627 -0.22061028
0.32368928 -0.33394903 -0.22014706 0.2946388 -0.031131893 0.36430874 0.47861826 0.5362179
0.48051828 -0.22080067 0.31964636 0.22927041 0.44913155 0.25895745 0.18679519 0.035947222
-0.06393407 -0.481649 -0.5255874 0.5052917 0.30876756 -0.5517593 0.25093848 -0.2296039
0.38897017 -0.53244936 0.21011777 -0.43184042 0.27058595 -0.18058416 0.45756662 -0.3811619
-0.4031966 0.3214866 0.20938925 -0.42583355 -0.27509415 0.3932716 -0.61202073 -0.14208989
-0.032753866 -0.55211735 -0.26481584 -0.16450563 -0.36665267 -0.25326282 -0.17320547 0.56390953
0.009175588 -0.13565773 -0.18220836 -0.33836085 -0.24214329 0.034950852 -0.5814386 0.06704992
0.5301046 -0.24513885 0.51577175 0.46337998 -0.24382167 0.32528475 0.33713514 -0.26957205
-0.49583092 0.27263203 0.3049275 -0.5253783 0.02923827 0.48931018 -0.15447573 -0.4078955
0.33167073 0.24759173 -0.39050674 0.44270483 0.2304589 -0.008043235 0.4131664 0.5313511

conv1.bias f4 [64]
00000000: d370 2538 763c 40b7 a55d ecb8 cd96 48b7
00000010: f560 06b6 cc6d ffb7 3d21 65b7 4de6 55b7
00000020: 8cfa d2b8 4e77 8138 723a a336 5eac 6cb8
00000030: 02bc ee38 24b1 dcb7 bb0d abb8 d32e e7b7
00000040: 6893 de35 e07a e138 78f1 9438 93b4 a738
00000050: 2db4 6d36 a129 97b8 36a2 2739 2696 a638
00000060: dc7f 5437 1331 35b8 06b5 4cb8 64ea 03b8
00000070: 13d6 1b37 b750 bd36 377d 3937 516d 3a38
00000080: 897a 4139 1549 1437 a7bb 3cb8 49bb 1237
00000090: 1bf0 64b8 a793 d537 7554 4db8 b865 0138
000000a0: 5958 4038 3b98 37b9 4dd3 02b9 86fb 8c37
000000b0: d4e9 7a38 9f8d 24b9 198d 4438 4304 a135
000000c0: 83e5 bcb5 f670 9a37 fc58 d2b6 fe0d 5fb7
000000d0: 169d 1e39 3620 5638 015f 2838 4671 7cb7
000000e0: 6215 5ab8 b422 14b8 131c 78b7 11c8 8bb4
000000f0: 1d54 1b39 6230 c037 56d4 07b7 8dd3 b4b8
3.944414e-05 -1.1458169e-05 -0.000112707996 -1.195604e-05 -2.0023992e-06 -3.0449497e-05 -1.36572025e-05 -1.274941e-05
-0.00010060248 6.1734216e-05 4.8645825e-06 -5.6427314e-05 0.000113837435 -2.6308531e-05 -8.156473e-05 -2.755915e-05
1.658319e-06 0.00010751723 7.102167e-05 7.996815e-05 3.5420628e-06 -7.207995e-05 0.0001598679 7.943464e-05
1.2665954e-05 -4.3199467e-05 -4.880598e-05 -3.1451127e-05 9.288563e-06 5.6420354e-06 1.1056013e-05 4.4447665e-05
0.00018451562 8.838503e-06 -4.4997458e-05 8.745884e-06 -5.458305e-05 2.5460335e-05 -4.8954465e-05 3.085073e-05
4.5858647e-05 -0.0001750895 -0.00012476482 1.6806425e-05 5.9822414e-05 -0.00015693017 4.686145e-05 1.1996675e-06
-1.4073888e-06 1.8410832e-05 -6.268847e-06 -1.3295094e-05 0.00015126573 5.1051575e-05 4.01428e-05 -1.5046744e-05
-5.1995165e-05 -3.531827e-05 -1.4788488e-05 -2.6036335e-07 0.00014813287 2.2910714e-05 -8.096065e-06 -8.622473e-05

conv2.weight f4 [128, 64, 1]
00000000: 7b07 ec3c bf3e a6bd 6e17 053d 5810 c93d
00000010: cf6d 9b3c 8b19 c43d 9619 83bd 51ee 073d
00000020: 7bd2 6cbc f642 a6bd 0e59 cfbd 0ad3 b0bd
00000030: 919b 02be ea46 1c3c 0454 3b3c 2849 c7bc
00000040: 245c 123d 31f8 f6bd eeb9 8bbd 6938 1bbd
00000050: 3fd3 1fbd ae47 b93d 2dbc e0bd 1469 fb3b
00000060: 7197 0f3e 12ca 7c3d 9ea8 ec3d 897b c4bd
00000070: 10c1 083e b285 d4bb d65d 003d f661 8f3c
00000080: f6d3 af3d dc2a 32bd 558f 8bbd d4ee debd
00000090: 73f9 67bd f97b d03d 834e 8c3d c702 4dbb
000000a0: fb4e 32bd 3c9f c83d 7fa1 603d 9d33 073e
000000b0: b44b b7bd d9ef 8dbc 85f3 8b3d b94d 76bd
000000c0: ee4d 42bc 1b50 d53d bc54 8fbd 6859 e639
000000d0: 4af2 493d 2ca9 8bbd af10 643c ff71 223d
000000e0: fb07 57bd fd6b 863d 9a51 3e3c 521c 3bbc
000000f0: 0c5c aa3d db35 0c3d fd69 863d 13f1 723d
00000100: 0b04 eebd ae79 febd 107a e83d be1a 803d
00000110: f846 1dbb 90ab 863d e928 4fbc 5899 3bbd
00000120: 5870 f7bd a34f fabd 21d1 3b3c 3d3e c6bc
00000130: 6f59 ea3d d90e 18be b55c a5b9 b236 da3d
00000140: e49d ffbd c6f6 c6bd f7ac 123d 3703 e83d
00000150: caab c53d eee8 0d3e 9d3b 623d 0227 2d3d
00000160: b56e a73d 6863 e4bd 42e9 26bd db90 fbbd
00000170: 7d92 cabd f350 733c 863c 8c3d 33ce d3bc
00000180: a1a2 8ebd 11cd fdbd 7868 76bb 40e4 0cbd
00000190: a9d8 bb3d 715d 823d fe6d 713c b2cd b63c
000001a0: 9fd6 d53d 2ece 81bd 0cb1 01be f459 d5bb
000001b0: 9601 833d 4923 1bbd 36f5 073e 8160 203c
000001c0: c528 9e3d 269d 5f3d 3583 fe3c ad70 b73d
000001d0: d6c9 e7bd 0250 bc3b f3e9 2bbc dae7 753d
000001e0: 5015 08bd 4726 fabb 8391 8c3d 02d0 2c3d
000001f0: 9015 b9bd ae40 913d 026e e13c bb03 ad3c
00000200: fd25 f0bc 4015 4f3d 235f 833d c371 57bd
00000210: c9d7 8cb9 4d82 313d b9f3 1dbe 6f60 cfbd
00000220: 9ac0 4a3d 84f6 013c aee8 1cbc f15b 29be
00000230: 8135 ba3d f4e6 c3bd f0b6 12bd 558c 3fbd
00000240: eedc 06bc cc32 50bd 4f55 31be e347 583d
00000250: 2b8e b03d 94bc 1b3c e15e 123d 455c efbd
00000260: f0db 3ebd dbde aebd cd81 a5bd 212f a53d
00000270: 4886 58bd b740 0bbe 66bd edbd 1468 a73d
00000280: a08a 42bd 75d7 18bd a434 5d3d 152d 8b3d
00000290: 99a4 42bc d74f 03be 5708 a23d fa48 1a3d
000002a0: 3cbb 5f3d 81b7 b03d 1991 fbbd a707 68bd
000002b0: 4183 b8bd 5e53 0cbe 9d0e 38bd cbd8 32bd
000002c0: bfeb eb3c c79b 7a3d 75e0 973d e537 50bc
000002d0: 4c07 533d bfdb c83d 89c2 abbd 404b 12be
000002e0: cfc5 1b3d 4978 0ebd 240d 83ba 36f2 ce3d
000002f0: c1af 8e3c 7093 d73d 3393 15bd dd42 8abc
00000300: 9da8 11bd bda5 84bd 63fc d8bd d9f1 80bd
00000310: 8613 cbbb cad1 9c3d 7d4c e0bd 75d9 973d
00000320: 70bc 4bbd 4cb9 103e fbe4 053e e3e1 85bd
00000330: 3483 b03c 13ae 363c 7e02 073d 2a35 6d3d
00000340: fd25 c63c 97cc 133d f5eb e13d ba24 393d
00000350: 1318 98bd 1243 80bd 16e5 6ebd 22cf b5bd
00000360: 7086 f5bc e5a8 3d3d b775 7abd 783f dbbc
00000370: 2c1f d0bd daae 8b3d 3464 adbd 1288 f03d
00000380: db23 6dbc 4d8e 9c3d ea81 bb3d ba6d 063d
00000390: d724 b3bd 7adf c93d fee2 4ebd 7f25 8f3d
000003a0: 4258 a7bd 463e 9b3d b4ba 103e cd6d 483d
000003b0: 9146 38bd 8099 863c 8ade 893d 77aa 45bd
000003c0: b4dc 41bd 1a51 00be a608 c4bd 8ed9 bf3d
000003d0: b8d9 ac3d 9da3 3cbd 877e 89bc 39e5 03bd
000003e0: 8e71 2dbe 793e bbbd 5110 bfbb 5b4a d9bd
000003f0: 0ccf 223c 75c5 253c 58c6 953d 5624 b1bc
0.02881216 -0.081174366 0.032493047 0.098175704 0.01897326 0.095751844 -0.064013645 0.03318626
-0.014454479 -0.081182405 -0.10124408 -0.086340025 -0.12754656 0.009538392 0.011433605 -0.024326876
0.035732403 -0.120590575 -0.06822573 -0.037895594 -0.03901982 0.09046875 -0.10973392 0.0076724384
0.14022614 0.061716147 0.11555599 -0.09593875 0.13354897 -0.0064856643 0.03133949 0.017502766
0.0858535 -0.043497905 -0.06814448 -0.108853966 -0.056634378 0.10179896 0.068509124 -0.0031282173
-0.043532353 0.097959965 0.054841515 0.13203283 -0.08949986 -0.017326282 0.06833557 -0.060132716
-0.0118594 0.104156695 -0.06998584 0.0004393563 0.04930333 -0.06819376 0.013919993 0.039659496
-0.052497845 0.06563566 0.011616135 -0.011420326 0.08318338 0.034231048 0.065631844 0.059311938
-0.11621865 -0.12425552 0.113514066 0.06255101 -0.00239986 0.06575692 -0.012644031 -0.045800537
-0.12081975 -0.12222221 0.011463434 -0.0241996 0.11442839 -0.14849414 -0.00031540325 0.106549636
-0.12481287 -0.09715037 0.035809483 0.11328738 0.09651907 0.13858387 0.055232633 0.04227353
0.081754126 -0.11151773 -0.040749796 -0.12283488 -0.09891222 0.014850843 0.068474814 -0.02585516
-0.06964613 -0.12392629 -0.003759889 -0.034397364 0.09172184 0.06365479 0.014735697 0.02231488
0.10441326 -0.06338154 -0.12665194 -0.0065109674 0.06396787 -0.037875447 0.13277134 0.009788633
0.0772262 0.054593228 0.031068424 0.08957038 -0.11317794 0.0057468424 -0.01049279 0.060035564
-0.03322345 -0.0076339575 0.06863692 0.04219056 -0.09037316 0.07092415 0.027518276 0.021119943
-0.02931499 0.050557375 0.0641463 -0.052598726 -0.00026863653 0.043337155 -0.15425004 -0.10125815
0.049500085 0.007932309 -0.00957696 -0.16538979 0.09092236 -0.09565535 -0.035818994 -0.04676469
-0.008231385 -0.050829694 -0.17317699 0.05280293 0.086208664 0.00950541 0.035735015 -0.11687521
-0.046596467 -0.085386 -0.08081398 0.0806563 -0.052862436 -0.13598906 -0.116083905 0.08174148
-0.047495484 -0.03731485 0.05400528 0.06795708 -0.011880063 -0.12823425 0.07911747 0.037667252
0.05462192 0.086287506 -0.122835346 -0.056647923 -0.0900941 -0.13703677 -0.04493581 -0.04366378
0.028798936 0.061183717 0.07415859 -0.012708639 0.05152063 0.09807538 -0.08386714 -0.14286518
0.03803044 -0.03478268 -0.0009998423 0.10104792 0.01741779 0.10526168 -0.036517333 -0.016877586
-0.035561193 -0.064769246 -0.10595014 -0.06296129 -0.0061973957 0.076572016 -0.10952089 0.074145235
-0.049740255 0.14133185 0.1307563 -0.06537225 0.021546938 0.011149901 0.03296136 0.05791203
0.024188036 0.036083784 0.11031333 0.04520104 -0.07426467 -0.06262793 -0.058323942 -0.08877398
-0.029971331 0.04630365 -0.061147418 -0.026763663 -0.101621956 0.0682046 -0.08466378 0.11744703
-0.014473881 0.07644329 0.091556385 0.032819487 -0.08747261 0.09857078 -0.050509445 0.06989574
-0.08171131 0.07580237 0.14133722 0.04893284 -0.044989172 0.016430616 0.06731899 -0.04825827
-0.04732962 -0.12530938 -0.09571962 0.09367667 0.08439964 -0.04605447 -0.016783966 -0.032201026
-0.16937849 -0.09142775 -0.0058308025 -0.10609885 0.009937059 0.010117878 0.07313222 -0.021623772

conv2.bias f4 [128]
00000000: 703e 2b38 b641 b538 86a2 4eb7 1ca2 d1b5
00000010: aaa3 3db8 d621 03b7 5f5f cb37 dffd 32b8
00000020: 14a7 37b8 7703 0338 d932 40b8 0709 a337
00000030: d95e cbb7 ac01 e937 e0e4 5b36 5eef 8a34
00000040: 1054 c537 42ef 96b7 7b32 ac36 2a82 4bb8
00000050: 786d f2b7 2fb7 8736 02a2 e5b6 7abb 92b7
00000060: 0229 59b8 a0b4 6336 217c 2db6 8a5e a3b7
00000070: efc8 0ab8 942a 3e38 15e5 b034 fedd d3b7
00000080: c6e4 c1b5 c279 67b7 02dc 5c38 7c41 5137
00000090: a4a2 1e36 e465 70b8 d9f2 f4b6 68c1 a4ac
000000a0: c32e 0938 b124 1c37 0e69 e737 f22d 1cb8
000000b0: 1651 0db7 4d3e 8eb7 be70 0eb9 03ac b436
000000c0: 2223 9f38 acae c8b7 a226 0337 0b47 0cb9
000000d0: 1b23 12b8 8471 ebb7 7c49 bdb5 1f78 0c38
000000e0: f779 1535 1d1c 5836 792e abb7 63c7 d4b6
000000f0: 881e b037 520f 9835 cc58 95b7 2ba2 47b7
00000100: 08f4 2d36 0124 8b35 75e2 0f38 aa8a 33b7
00000110: e6b8 c137 ab45 a837 fac5 bc36 bc79 f335
00000120: 7db4 33b8 b6d7 a536 2c6b 8c37 ebde 8b36
00000130: cd79 b837 b167 f636 8280 cbb5 4adb c636
00000140: 9e34 1eb8 77c7 b034 565e 6438 6160 efb2
00000150: a100 cf36 1e97 0937 154a 5c38 dfcc 2838
00000160: 702b f9b6 79f5 53b5 96cb aeb5 3a42 9537
00000170: d5f1 4738 6656 d7b6 ff23 86b7 7adb 0b36
00000180: 0484 67b8 136f e9b6 79d1 92b8 4407 85b8
00000190: bee3 b135 5098 a2b7 8419 0a38 1663 a3b7
000001a0: b02a 0837 56a1 4e35 c433 d437 6ebe 63b7
000001b0: 1873 a5b7 8b1e 2e38 e26d 00b7 46a7 acb7
000001c0: dac3 25b7 f791 f6b6 cdac bbb6 0738 0cb8
000001d0: 037b 9c36 b503 6d38 722d a137 4106 c2b6
000001e0: 0753 32b5 88f0 bbb7 0f3e b336 b4f9 9636
000001f0: 5772 22b7 d887 0bb7 5501 edb7 ae55 0080
4.0827726e-05 8.642992e-05 -1.2316397e-05 -1.5618893e-06 -4.5213535e-05 -7.8160865e-06 2.4243896e-05 -4.2674943e-05
-4.3786204e-05 3.123606e-05 -4.5823723e-05 1.9435318e-05 -2.4243653e-05 2.7776543e-05 3.2766766e-06 2.5878666e-07
2.3523375e-05 -1.7992807e-05 5.131876e-06 -4.8520196e-05 -2.8899623e-05 4.044639e-06 -6.843592e-06 -1.7491857e-05
-5.1775023e-05 3.3930773e-06 -2.5851261e-06 -1.9475137e-05 -3.3088898e-05 4.5339184e-05 3.2949234e-07 -2.5256533e-05
-1.4446202e-06 -1.3797022e-05 5.2656986e-05 1.24726175e-05 2.3638504e-06 -5.7315352e-05 -7.300038e-06 -4.6826328e-12
3.2706896e-05 9.3068675e-06 2.7586266e-05 -3.723609e-05 -8.423134e-06 -1.695673e-05 -0.00013584175 5.384443e-06
7.588255e-05 -2.3923196e-05 7.817203e-06 -0.00013377906 -3.4841807e-05 -2.8067043e-05 -1.4102984e-06 3.3490473e-05
5.568431e-07 3.2202872e-06 -2.0406429e-05 -6.341304e-06 2.0995052e-05 1.1329341e-06 -1.7803533e-05 -1.1899082e-05
2.5921054e-06 1.0366786e-06 3.430476e-05 -1.0701517e-05 2.3093493e-05 2.0059602e-05 5.625884e-06 1.814034e-06
-4.284502e-05 4.9424953e-06 1.6739206e-05 4.168474e-06 2.1991227e-05 7.3434426e-06 -1.5162079e-06 5.9263884e-06
-3.771914e-05 3.2927684e-07 5.4447293e-05 -2.786709e-08 6.169154e-06 8.201021e-06 5.252108e-05 4.0245122e-05
-7.425835e-06 -7.8960835e-07 -1.3023262e-06 1.7793023e-05 4.767052e-05 -6.4175574e-06 -1.5990807e-05 2.0840366e-06
-5.519764e-05 -6.956872e-06 -7.00084e-05 -6.3432875e-05 1.3253809e-06 -1.9382831e-05 3.2925527e-05 -1.9477255e-05
8.116171e-06 7.6975755e-07 2.5296475e-05 -1.3574592e-05 -1.9723127e-05 4.1513278e-05 -7.654979e-06 -2.058189e-05
-9.880367e-06 -7.348364e-06 -5.593151e-06 -3.343078e-05 4.6634827e-06 5.6508656e-05 1.9213858e-05 -5.7823786e-06
-6.643099e-07 -2.2404143e-05 5.3418403e-06 4.4994176e-06 -9.682574e-06 -8.316674e-06 -2.8253222e-05 -3.0736e-41

conv3.weight f4 [128, 128, 1]
00000000: 7408 8cbb 9e1f a5bc a20b 3e3d b0aa 223c
00000010: af14 ecbc 3016 b73d ae11 813d 9893 653d
00000020: 729b 503d 1139 e2bd 4c95 33bd 38ca 6abd
00000030: 404c 35bc ce58 0abc 788d 77bc 3f9c b53c
00000040: c8fd 3bbd 2bec c7bc a30d 183d 62f4 39bd
00000050: d60d 6abd acf1 ca3b 3503 4b3d fd59 75bd
00000060: 3237 4c3d 0001 89bd c14a 00ba 195d b93d
00000070: 0238 88bd 7445 8f3d 1649 393d e58b 3c3d
00000080: 61eb 9cbb 0756 c1bd 5264 6eb9 0fb6 89bd
00000090: e5bf e2bc 8570 0dbd 28ef 21ba cfb4 71b1
000000a0: 379f fb3d 0755 92bc 47bc 2bbc 4279 11bd
000000b0: 29e0 e5bc 6e70 f73c 13a5 a6bd 7609 c5bd
000000c0: b245 f4bd 469a 883d 15b7 ef3c 2903 cfbc
000000d0: e392 973d c50b d13d 94a9 263c 93f6 413d
000000e0: 03bf 6abd fda5 47ba 0d18 9bbd 35b0 c4bd
000000f0: 6fab 84bd 4b37 36bd 47de e8bc 5dce 9abd
00000100: 8980 f43b e51c 583d 3c99 4ebd 1ec7 a1bd
00000110: 8386 db3c 1f93 873d 31e7 febc d830 29bd
00000120: aff1 41bd 834d 823d f531 b43b d9c3 2cbd
00000130: 464e b73d b6ee c3bc 4ced 6cbd 2aec 233d
00000140: c5ab 003d adf0 a5bc 5708 d3bd a62b 9f3b
00000150: 7bfc d53c 3162 b637 9a02 643d 3f4a af3d
00000160: a0d9 f83c ce07 c63d 4de5 23bd 7b8f 60bd
00000170: 7cf5 373c e711 953d ec6e ddbd 92aa 8c3d
00000180: cca8 983c 569c 9cbd 6d6f a2bc 271d a63d
00000190: a108 66bc 7c90 843d a96c 1fbc 6ded 81bd
000001a0: d4d3 eaba 20fb 52bd 1a17 843d 8440 bb3d
000001b0: 1fc9 39bd 042b 80bd efff 933d 3aa7 c0bc
000001c0: 0029 103c b016 333d 2b30 de3c 2016 2bbd
000001d0: ab68 eb3d 7ab8 02bd 3197 d3bd 51c1 923d
000001e0: 5088 adbd 73ea 023d 4684 59bd 0a00 b63a
000001f0: 9967 d2bc 1e9e 473d e6b0 aebc 0adc 7281
00000200: 3d9a 47bd 5705 803d 5383 333d 6e56 35bd
00000210: dd94 90bc 7361 3e3d 31f4 353d 06c2 9e3c
00000220: 467c eb3c fdcc e83c 229a 3dbd 84ee adbd
00000230: 6034 81bd a94c 3c3d 34d6 85bd 66bc 14bb
00000240: 9717 bd3d d431 86bd 383a 97bd 67aa 8dbd
00000250: e64e d2bd 29a1 72bd 5e31 b3bc cdd5 2b3c
00000260: 48d5 a63c 451d 75ba d5d2 e9bc 9754 93bc
00000270: df41 a9bb bc0c 85bc 9bb7 803d 81fe 153d
00000280: 7ec0 3b3d f775 9abc 4b2c 94bc b358 90bd
00000290: e015 a3bb 0bf2 b5bd f872 1a3c f482 1db8
000002a0: d559 7a3c 7c48 27bc 0e1c bc3d 692c 553d
000002b0: e030 99ba ec28 b03d 9c4f 323c d23f 673c
000002c0: 6600 d43d fd36 503c 86c6 b23d e819 4f3d
000002d0: 23d3 9c3d 2450 ea3c ad5a ddbb 1456 80ba
000002e0: d9cb 1abd 1f10 653d 8d6b 733d 9142 bdbd
000002f0: 3eea 373d 904c 043c b4b7 da3d c4b5 0f3c
00000300: 40e6 c93d c59a 3a3d af5e 72bd 6d13 bc3d
00000310: 44b3 babd 1ba2 4e3c 6c4a 4a3d 19fc 64bd
00000320: fbb9 ab3d c47a 273d 3200 ab3b 061f 613d
00000330: 1700 5f3d 18fe ee3b 1346 94bd 476f f8bd
00000340: 657b 01bd 9ab5 64bd 7ba4 21bd ffd9 41bd
00000350: 4e5d 963c 1dc5 4dbd dea0 91bd 7e73 b7bd
00000360: 74b0 93bb 4e0a 1b3d 1e12 13bd 2f60 8abd
00000370: 73f8 54bd e0af ee3d 51ce d43c 3371 9a3d
00000380: af35 813d 731c a4bc 4152 25bd ca17 d3bc
00000390: a72c 9f38 94c7 32bd 9729 75bd 20b7 37bc
000003a0: 0026 6abd 23cc 81bd cbcf da3c 8151 ca3c
000003b0: 8558 cebd fa1a 183d 1e92 753c 17f9 fbbd
000003c0: d5ac 90bd 0ce2 263d e75b 903c 826c 20bc
000003d0: 65d7 bcbc 1a90 563d 9dea 883d 814c 253d
000003e0: e630 95bd 2f0e 8b3c 24c3 2c3d 631c 84bd
000003f0: 22bb c3bd 4f1f 1f3c 1d9a 6c3d feb6 a737
-0.0042734686 -0.020156678 0.046397813 0.00992839 -0.028818456 0.08939779 0.063022 0.05604896
0.050929494 -0.11046041 -0.043843552 -0.057321757 -0.011065543 -0.008444024 -0.015109412 0.02216923
-0.04589632 -0.024404606 0.03712238 -0.045399077 -0.0571421 0.0061933603 0.049563605 -0.059900273
0.049857326 -0.06689644 -0.00048939517 0.0905096 -0.06651308 0.06995669 0.045235716 0.04603185
-0.0047888015 -0.094402365 -0.00022734821 -0.06724178 -0.027679393 -0.034531135 -0.00061772997 -3.5172893e-09
0.12286227 -0.01786281 -0.010481901 -0.03551603 -0.02806099 0.030204978 -0.08136954 -0.09620945
-0.11927356 0.0667005 0.029262105 -0.025270062 0.07401063 0.10207323 0.0101722665 0.047354292
-0.05731107 -0.0007615982 -0.07572947 -0.09603921 -0.06478011 -0.044486325 -0.028426303 -0.07558892
0.0074616116 0.05276193 -0.050439104 -0.07899307 0.026797539 0.06619858 -0.0311161 -0.041306347
-0.047349628 0.063624404 0.0054991194 -0.042178962 0.08950476 -0.023917537 -0.05784349 0.040020145
0.031413812 -0.020256365 -0.10304325 0.004857498 0.026121369 2.1741815e-05 0.055666544 0.08559083
0.03037721 0.096694574 -0.0400136 -0.054824334 0.011227962 0.07278805 -0.10812172 0.06868471
0.018635176 -0.07647006 -0.019828523 0.08111029 -0.014040143 0.06472871 -0.009730496 -0.063441135
-0.0017915913 -0.051509023 0.06449719 0.09143165 -0.04535782 -0.062582046 0.0722655 -0.02351724
0.008798838 0.04372281 0.027122578 -0.041769147 0.11494573 -0.03191421 -0.10331572 0.071657784
-0.08473265 0.03196187 -0.05310466 0.001388551 -0.025684165 0.048734777 -0.021324586 -4.460625e-38
-0.048731077 0.062510185 0.043826412 -0.04427188 -0.017649109 0.046479654 0.044422332 0.019379627
0.028745782 0.028418059 -0.04628957 -0.08492759 -0.06308818 0.045971546 -0.06534997 -0.0022695302
0.09233015 -0.06552473 -0.07384151 -0.06917267 -0.10268955 -0.059235726 -0.021874126 0.010487986
0.020365372 -0.000935037 -0.028542915 -0.017984672 -0.005165323 -0.016241424 0.0628502 0.036619667
0.04583787 -0.018855078 -0.018087527 -0.07048168 -0.004976973 -0.08884057 0.009426825 -3.7553677e-05
0.015280207 -0.010210153 0.091850385 0.052044306 -0.001168754 0.08601555 0.010883238 0.014114337
0.103516385 0.012708423 0.087292716 0.050561816 0.07657459 0.028602667 -0.006755194 -0.0009791278
-0.03779206 0.055923577 0.05942874 -0.09241212 0.044901125 0.008074895 0.1067957 0.008771364
0.0985837 0.045557756 -0.05917233 0.09183393 -0.091162235 0.012611891 0.04938738 -0.05590448
0.08385082 0.040888563 0.005218529 0.054961227 0.054443445 0.007293474 -0.07239928 -0.121305995
-0.03161182 -0.05583725 -0.0394635 -0.047327038 0.018355038 -0.05023681 -0.07110761 -0.08957575
-0.004507119 0.037851624 -0.03590595 -0.06756627 -0.051994752 0.11654639 0.025977286 0.07541122
0.063090675 -0.020033097 -0.040361647 -0.02576818 7.590028e-05 -0.043647364 -0.059854116 -0.011213094
-0.057165146 -0.06337764 0.026710412 0.024697067 -0.100754775 0.0371351 0.01498845 -0.123033695
-0.07064215 0.04074292 0.017621947 -0.009791495 -0.023051927 0.05238352 0.06685374 0.040356163
-0.07284717 0.016974537 0.042178288 -0.06450727 -0.09557177 0.009712054 0.05776416 1.9993164e-05

conv3.bias f4 [128]
00000000: a0f7 f3b6 7d6e 8938 7866 14b6 767a de35
00000010: 0f2f 6db7 7f4f f037 a8cb c837 1096 1d38
00000020: 5793 1738 1e54 9cb6 6875 7238 270d 0e38
00000030: e311 9336 dd13 8b36 6767 8bb7 2637 5cb6
00000040: 1033 14b6 931f 4837 4563 a2b5 a8b9 4eb7
00000050: 3ceb b2b7 f84e 0236 2cfd 1c38 b7b5 1237
00000060: 64e9 1138 7106 bf37 2bd8 f136 d0ab 79ae
00000070: bd15 a7b4 7d54 3c37 fba6 e0b6 5889 0138
00000080: b339 ef36 d92a 06b5 ed53 e636 063e 2138
00000090: a88c 35b7 05e7 13b7 8fac 97b1 fed0 aa37
000000a0: 7f6a 5cb7 f780 3fb7 aa5a d437 babd 91b6
000000b0: 73a4 8f37 5653 6fb7 dfa2 0138 254f 49b7
000000c0: f2b1 9637 513b 06b8 18a6 5437 b1ba 8bb7
000000d0: 3ae7 8d36 0f6c 9436 999c d737 3cc7 f0b7
000000e0: be3c 5cb8 770b fc37 9883 cfb6 d409 53b8
000000f0: dc15 a4b6 1b9f fd37 b59b 7c36 6368 df36
00000100: 89fd 2236 0589 3c37 f7c2 9737 4787 a5b8
00000110: 154c 9e37 81d8 6cb8 b6ac ef36 f41e 98b6
00000120: cec8 49b8 393d 01b8 b94a 3a38 ee5a 2337
00000130: 2d57 abb7 de87 e137 17cf feb7 fd57 22b6
00000140: 9d36 44b7 88bf 8937 22d0 bcb7 d9b1 db36
00000150: 7824 0237 09eb c037 0503 87b0 9558 a536
00000160: 73d6 ec37 ea6e c2b5 2638 b535 22f0 8b38
00000170: 9176 95b6 1e56 0cb6 3c4e 2bb7 cec0 a0b7
00000180: 832c f8b5 0444 1e38 22fb 94b7 b060 80b7
00000190: fee3 29b8 72ca e237 129d b437 9e52 0c36
000001a0: 4d00 e8b7 f00e 65b7 34e9 89b6 bfb1 1c38
000001b0: 5212 b4b7 b8f7 69b4 c75a 2338 36d1 bfb4
000001c0: 4d36 bc37 9241 5238 ae4d 4737 fb3e 5437
000001d0: dd30 d6b7 dc3d 1837 e648 b6b7 623d 2fb9
000001e0: 649e dd36 ec7c 1f38 951d 0b38 2b6a 0bb7
000001f0: 1824 dd37 47ad 66b8 6e25 d335 e8b5 bfb6
-7.2707917e-06 6.553249e-05 -2.2113363e-06 1.657593e-06 -1.41372575e-05 2.8647248e-05 2.3936693e-05 3.7571474e-05
3.6138426e-05 -4.658955e-06 5.780664e-05 3.3867687e-05 4.3830237e-06 4.144835e-06 -1.6618242e-05 -3.2814655e-06
-2.208344e-06 1.192828e-05 -1.2098832e-06 -1.2321783e-05 -2.1328793e-05 1.9417475e-06 3.7429083e-05 8.744587e-06
3.4788056e-05 2.2771974e-05 7.207525e-06 -5.6768645e-11 -3.112199e-07 1.1225345e-05 -6.6951593e-06 3.0883908e-05
7.129472e-06 -4.998124e-07 6.8643044e-06 3.8443155e-05 -1.082119e-05 -8.815671e-06 -4.414296e-09 2.0362899e-05
-1.3137817e-05 -1.1414514e-05 2.5314588e-05 -4.343424e-06 1.7123506e-05 -1.4264913e-05 3.0907682e-05 -1.1998961e-05
1.7964256e-05 -3.2003332e-05 1.2674856e-05 -1.6657026e-05 4.2290458e-06 4.4233234e-06 2.5702919e-05 -2.8703005e-05
-5.2508658e-05 3.004608e-05 -6.1844003e-06 -5.0315473e-05 -4.8901256e-06 3.023404e-05 3.764156e-06 6.65807e-06
2.4287458e-06 1.1237576e-05 1.809139e-05 -7.8930105e-05 1.8870496e-05 -5.646842e-05 7.1428613e-06 -4.5335564e-06
-4.810915e-05 -3.0813015e-05 4.4415447e-05 9.736728e-06 -2.0425383e-05 2.6885358e-05 -3.0375593e-05 -2.4191097e-06
-1.1695226e-05 1.6420861e-05 -2.2508266e-05 6.547413e-06 7.757095e-06 2.299763e-05 -9.823401e-10 4.9276955e-06
2.8233253e-05 -1.4486407e-06 1.3501892e-06 6.672765e-05 -4.454349e-06 -2.0911752e-06 -1.021061e-05 -1.9163268e-05
-1.8490394e-06 3.773348e-05 -1.7759918e-05 -1.5303813e-05 -4.0505074e-05 2.703557e-05 2.1530814e-05 2.0909715e-06
-2.7656695e-05 -1.3652942e-05 -4.1100666e-06 3.7358837e-05 -2.1466203e-05 -2.1789936e-07 3.894677e-05 -3.5728743e-07
2.2436632e-05 5.012897e-05 1.18794105e-05 1.26508485e-05 -2.5533542e-05 9.074309e-06 -2.1730037e-05 -0.00016712167
6.6047523e-06 3.8024897e-05 3.3167733e-05 -8.309765e-06 2.636206e-05 -5.499765e-05 1.5731619e-06 -5.7134203e-06

conv4.weight f4 [100, 128, 1]
00000000: 95e0 853d b1c6 b7bd 9fb2 9dbd 8162 b3bc
00000010: 4102 4fbc 9424 3ebd b495 993d be82 ea3d
00000020: 922c 433d 6015 ecbd 3f56 cd3c 4430 a8bd
00000030: df49 ac3c cd00 21bd 2dcf 15bd c884 19bd
00000040: a29a 2dbd 9202 d5bd 39ff 75bd 5ff7 1cbd
00000050: ca48 a4bd cb75 2b3d 3c75 9dbc d664 073d
00000060: 91d1 a93d 967f 803c f483 8e3d 8ba7 f6b3
00000070: d81c 97bd acc8 f43d cae1 0e3e 7d69 273d
00000080: 5e49 0abd 3772 91bc 66ae b13d 8b7b 2fbd
00000090: 1a17 e23c 47e8 08bb 6a29 ecb9 f493 dfbd
000000a0: bcc6 9fbd 20a6 26bd 4fc4 3bbd cf24 d0bb
000000b0: cd38 24be 4b10 6dbd 318a 063d cbf5 693d
000000c0: babc cd3c 1f9f ecbc c5ad 2ebd 5309 34bd
000000d0: e081 a33d 8332 8dbc a0ab 15bc 9a03 44bd
000000e0: 0e7f a0bc ea59 a7bc e20d d4bd 15ca 6c3d
000000f0: c011 033d 97d9 be3d bc59 963d 1e3b e5bc
00000100: 8444 94bd eb79 b83c 48ba c2bd cef7 b7bd
00000110: 034b 633d 4a7b 0c3d c8bf d13c 8949 a1bc
00000120: ee99 e9bd 9310 5fbd f8da 3e3c e3c9 c6bd
00000130: 8eac d03d 29a8 5b3c 6b07 3a3d b526 b2bd
00000140: 156c 503d 8831 bf3d ce63 09be 6749 dfbc
00000150: aece 1fbc deb7 68bb fbd0 a8b8 e844 023d
00000160: b240 873d f3a9 77bd e286 27bd 50db 553b
00000170: 843b 2bbb cdfd 44bd f9d6 87bd 8018 c8bd
00000180: c691 42bd 6642 72bb b74d 99bd 6489 f8bb
00000190: f7a4 a03b 98e5 1ebc d1ff ba3c 955d 31bb
000001a0: e370 edbd 004a 773d 1abf 99bd a6d2 c9bd
000001b0: 1863 c6bd 5f37 be3d a624 673d 2874 c3bd
000001c0: 2284 703c b60e 5bbc 5b95 013e 7c23 2c3d
000001d0: 7f0c b53c 7165 533c 3f4c 90bd b452 cd3a
000001e0: 44a7 d43d 7d47 35be 9fa3 9e3c 158a 1fbc
000001f0: ebb1 74bd 884b 1a3d b0fa c4bc ec2c 813c
00000200: 880f 91bd 389a 403d a193 57bb 1ac1 24bd
00000210: b546 80bd 337b e0bd 6598 213d 27b0 a6bd
00000220: ea51 92bd 0e58 57bd 9c61 2d3d 58a5 a7bc
00000230: 68c0 26bb 3499 4d3c 708b b8bd f846 5d3d
00000240: afd6 9b3d 7ec5 ac3b 8896 0dbd 7d4a ccbb
00000250: 3686 c73d 29e9 17bd 1f2b 633d db36 e5bc
00000260: 3f95 743d f1eb 003d 305a aebd c28c 2733
00000270: af72 72bd fee6 21bd 6ba5 b13d 99ae 0dbc
00000280: af2b 933d 3ede cebd d1e7 9abd 61ec 99bd
00000290: d866 c1bd feb6 443d 1d11 353b 5a65 2cbb
000002a0: 85e8 e4bc 1b9f 9bbd 371f ecbc aa13 a73d
000002b0: 7be5 d2bb ed34 053d 8e34 213d fc23 b23c
000002c0: d801 5c3d 3cee a93d f8d8 303d 2514 033d
000002d0: 1342 c0bd 6328 f4bc f981 f2bd 2013 b3bd
000002e0: 56a7 743d b1ab 44bd cc4e a0bd 88c2 9b3d
000002f0: 3fc7 203d a202 d5bd 3f5b 6c3d f0f6 dcbc
00000300: d794 3abb 40c9 1c3d 904d bb3c 6a3b 86bd
00000310: 8974 383d 2c49 ddbc ce77 f53b 44cc 18bd
00000320: 4b1a 06bd cd5c 9abd efea cbbb 43de 5a3d
00000330: 59eb d33d 1cce 393d 1c6e 0a3d 3c10 873d
00000340: a2bb fd3c 9c59 7abd 1b6f 643d 7672 9dbc
00000350: fe10 95bd 5c87 04bd 8a2f 83b8 0c7f 993d
00000360: e592 08be de79 473b 88c2 373d db6b d5bd
00000370: 8fda dfbc a68b 3d3c 2ddf 823d 20c6 7fbc
00000380: 97d9 c03c df28 babc 23e2 b9bd 9f93 29bd
00000390: 01e5 a53d c00a 563d c725 44bd 2a7a 243d
000003a0: 05b4 b3bd a458 53bd 9664 bb3b a6ab 893d
000003b0: 7aa9 e63c 1829 3a3d 03af 29bb 63b2 b63d
000003c0: 9f8d 31bd a867 adbd af0a 003e 998a 02bd
000003d0: 00cf cdbd 6522 dbbd 6078 493d b94a d93b
000003e0: c553 d7bc 4b07 643d 121b 673d 38cf 143c
000003f0: 50d4 0abe 64b8 9e3d 8e99 93bd e412 1d3c
0.06536976 -0.08973444 -0.07700085 -0.021897556 -0.012634815 -0.046421602 0.07499257 0.11450718
0.047649927 -0.115275145 0.02506554 -0.08212331 0.021031318 -0.039307404 -0.03657453 -0.037480146
-0.042383797 -0.10400881 -0.060057852 -0.03832185 -0.08021696 0.041860383 -0.01922094 0.03305515
0.08291925 0.015685838 0.06958762 -1.14857436e-07 -0.073785484 0.119523376 0.13953319 0.040872086
-0.033761375 -0.017754657 0.08675842 -0.04284243 0.027598906 -0.0020890401 -0.00045044284 -0.10916892
-0.078015774 -0.040685773 -0.04584151 -0.006352044 -0.16037293 -0.057876866 0.032846633 0.057119172
0.025114406 -0.028884469 -0.04264619 -0.043954205 0.07983756 -0.017236 -0.009135157 -0.047854997
-0.019591834 -0.020428617 -0.103542104 0.057809908 0.03199935 0.09318846 0.07341334 -0.02798229
-0.07239631 0.022519073 -0.095081866 -0.08982812 0.05549146 0.034297265 0.025604144 -0.019688385
-0.11406313 -0.054459166 0.011648886 -0.097064756 0.10189162 0.013406792 0.04541723 -0.08698789
0.050884325 0.09335619 -0.13416979 -0.02725668 -0.009753866 -0.0035509984 -8.04979e-05 0.031803995
0.066041365 -0.06046481 -0.04090012 0.003263194 -0.0026128003 -0.048093606 -0.066328 -0.09770298
-0.0475023 -0.0036965846 -0.07485526 -0.0075847376 0.004902478 -0.009698294 0.02282706 -0.0027063836
-0.11593797 0.060373306 -0.07507153 -0.09854631 -0.096868694 0.09287905 0.056431435 -0.095436394
0.01467994 -0.013370207 0.12654631 0.042026028 0.022100685 0.0129026035 -0.07045793 0.0015664906
0.10383466 -0.17703052 0.01936513 -0.009737511 -0.05973999 0.03766969 -0.024045318 0.01576849
-0.070830405 0.047022074 -0.003289439 -0.04022322 -0.06263486 -0.109609984 0.039451975 -0.08139067
-0.0714453 -0.05257421 0.042329416 -0.020464584 -0.0025444273 0.0125487335 -0.090109706 0.05402276
0.07609307 0.0052725663 -0.034567386 -0.0062344656 0.097423956 -0.037087593 0.055461045 -0.027980259
0.059712645 0.03147501 -0.08513296 3.9010736e-08 -0.059191402 -0.039526932 0.08674129 -0.008647584
0.07186066 -0.10100983 -0.07563747 -0.07515789 -0.09443444 0.048026077 0.0027628609 -0.0026305527
-0.027942905 -0.07598706 -0.028823478 0.081580475 -0.0064360476 0.032521177 0.03935676 0.021745674
0.053712696 0.08297393 0.043175668 0.032001633 -0.09387603 -0.029804414 -0.118411966 -0.08743882
0.059729896 -0.0480153 -0.07827529 0.07605463 0.039252516 -0.10400893 0.057704207 -0.026973218
-0.0028470063 0.038277864 0.022864133 -0.06554301 0.04503301 -0.02701243 0.0074910885 -0.037304178
-0.03273992 -0.075372316 -0.0062230746 0.05343462 0.103476234 0.045362577 0.033796415 0.06594893
0.03097326 -0.061120614 0.05577002 -0.019219618 -0.07278632 -0.03235565 -6.2554216e-05 0.074949354
-0.13337286 0.0030437629 0.044863254 -0.104209624 -0.027325897 0.011568939 0.06390224 -0.0156112015
0.023541255 -0.022724567 -0.09076335 -0.041400548 0.0810032 0.052256346 -0.04788759 0.040155567
-0.087745704 -0.051598206 0.005718778 0.067221925 0.028156985 0.045449346 -0.0025891669 0.08920743
-0.04334795 -0.084670365 0.12504075 -0.03187046 -0.10049248 -0.106999196 0.049187064 0.006631222
-0.026285062 0.055671018 0.0564223 0.009082608 -0.13557553 0.077500135 -0.072070226 0.009587023

conv4.bias f4 [100]
00000000: 5a9e 2338 a2ab a237 8bd6 9d37 e17b eeb6
00000010: b50d bfb7 42b9 e5b5 c1fd 6bb8 b5a9 27b7
00000020: b250 5237 7bd3 8f36 9b83 2eb7 1ea0 d9b5
00000030: a1b6 4038 a88d 23b8 fb8e 2636 9b28 0d37
00000040: e961 9236 4b2d dd38 1a75 0138 84d5 ba36
00000050: fab2 8bb8 e23f b737 f4dd b4b7 ef8c cb35
00000060: a144 d1b4 075a 8035 e2c3 1636 d7c9 be37
00000070: eb61 feb4 9bbc e836 2224 4935 dead f5b7
00000080: ca0d 3a37 3d74 9537 2240 a9b6 eb20 1536
00000090: a0e7 0ab7 9bc2 67b7 f060 0e38 9911 2138
000000a0: 63ee 61b8 a899 9837 6ec0 63b6 457d 1fb7
000000b0: b2c0 9b36 e78d 0a37 5b7f 3138 c183 6fb7
000000c0: afbf cdb7 5f42 6db7 7410 29b7 1c03 d5b6
000000d0: f4e3 5236 f6e0 d3b6 5e4e 6c37 5c65 77b5
000000e0: d1fa 0437 5d65 9134 ab50 0e38 a712 2c38
000000f0: 44c5 1a37 f050 5337 5c7f dd37 5f92 67b5
00000100: 66ae 09b6 d65c 05b7 b22f e637 9c91 8fb7
00000110: 5841 ea35 2b21 7bb7 79cf 55b8 b4ac 23b7
00000120: 94af 97b7 7cc0 39b8 626a a2b8 ca03 d1b5
00000130: 77c6 2537 0edf deb7 a69b 3937 0bc9 b137
00000140: 977d 4938 6aae 4335 1da3 8037 803e 12b7
00000150: da11 20b7 9600 62b6 3a31 5337 8a10 8eb7
00000160: a357 4137 4c28 4437 871e 1b37 459d c6b7
00000170: 8926 ed37 1057 f8b7 0c70 bdb7 d7d4 1238
00000180: fcb9 06b8 c95f a237 562c 76b8 f051 9538
3.9009705e-05 1.9391828e-05 1.8815763e-05 -7.107374e-06 -2.2775357e-05 -1.7115747e-06 -5.6264693e-05 -9.993489e-06
1.2535764e-05 4.2863517e-06 -1.040185e-05 -1.621436e-06 4.5946454e-05 -3.8994156e-05 2.4819153e-06 8.413709e-06
4.3625373e-06 0.00010546538 3.0865056e-05 5.5680885e-06 -6.6613735e-05 2.1845048e-05 -2.1561027e-05 1.5165696e-06
-3.8979218e-07 9.562945e-07 2.246576e-06 2.2743754e-05 -4.7382431e-07 6.9360954e-06 7.4930915e-07 -2.928724e-05
1.1089674e-05 1.7816312e-05 -5.0440585e-06 2.222189e-06 -8.27937e-06 -1.3813983e-05 3.394572e-05 3.840178e-05
-5.3866195e-05 1.8191364e-05 -3.3937645e-06 -9.506305e-06 4.6417927e-06 8.25848e-06 4.2318698e-05 -1.4276186e-05
-2.4527164e-05 -1.4141754e-05 -1.0077016e-05 -6.3482566e-06 3.1425125e-06 -6.314479e-06 1.4084942e-05 -9.216217e-07
7.926211e-06 2.7082106e-07 3.3930566e-05 4.1025367e-05 9.225045e-06 1.2595425e-05 2.640456e-05 -8.6267204e-07
-2.0516104e-06 -7.949033e-06 2.7440346e-05 -1.7114733e-05 1.7453376e-06 -1.4968488e-05 -5.097638e-05 -9.755768e-06
-1.8082363e-05 -4.4286702e-05 -7.744577e-05 -1.5572816e-06 9.880975e-06 -2.656833e-05 1.1063099e-05 2.1193662e-05
4.80391e-05 7.2896967e-07 1.5334745e-05 -8.71683e-06 -9.5409e-06 -3.3676965e-06 1.25880415e-05 -1.693542e-05
1.1524101e-05 1.1691893e-05 9.245828e-06 -2.3676674e-05 2.8270546e-05 -2.9604445e-05 -2.2582732e-05 3.5007335e-05
-3.21213e-05 1.9356508e-05 -5.869226e-05 7.120136e-05

bn1.weight f4 [64]
00000000: dcad 7d3e 368e 323e 187c 203f 57c5 cf3e
00000010: 09c6 a23c 0f86 3e3f 3916 b23e 62d7 c53d
00000020: 83cb 6e3f 01a5 ea3e 2f09 063f 45cd 1c3f
00000030: a40e 353f 263b 9b3e a87d 713f 59d2 af3e
00000040: aafe 313d 48c9 ea3e 86a7 5a3f 2c39 5f3f
00000050: db86 dd3e a978 943e 5412 793f a794 273f
00000060: 9533 8a3e c6d8 753f 9e3b 5e3f a152 1f3f
00000070: c37c 9a3d f0d0 2c3e 1f7f 903e 4714 743f
00000080: c369 1e3f 6490 8f3d 421c 953e a777 453f
00000090: 27ce 203f e564 3e3f f958 f93e a9b3 0c3f
000000a0: 8115 3f3f d007 6e3f bc71 0b3f 2d4f a83e
000000b0: 3928 0a3f 4fe7 793f 3c9b a63e 5e1d 173d
000000c0: d08e 643e 2998 4e3f 7d19 1d3f c7e3 433e
000000d0: 4bc6 273f a262 7e3f a4ef 253f 6fc6 313f
000000e0: 8ef6 e03e 781c 783f d1e5 483f c78a c83e
000000f0: 4627 6a3f 6843 643f 3741 183f eb7a 4f3f
0.24773353 0.17437062 0.6268935 0.40580246 0.019869821 0.7442331 0.3478258 0.09660222
0.93279284 0.45829013 0.52357763 0.61250716 0.70725465 0.30318564 0.9433236 0.3434017
0.043455757 0.4585669 0.8541187 0.8719661 0.4326695 0.28998306 0.9729359 0.654612
0.2699248 0.96033895 0.8680972 0.62235457 0.07543328 0.16876578 0.28221986 0.9534344
0.6188013 0.07009962 0.29123122 0.771357 0.62814564 0.743727 0.48700693 0.5496164
0.7464219 0.9298067 0.5447042 0.32872906 0.53967625 0.97618574 0.3254031 0.03689324
0.22320104 0.8070093 0.6136702 0.19129859 0.65536946 0.9936925 0.6481879 0.6944341
0.43938106 0.9691844 0.7847567 0.3916838 0.91466177 0.89165354 0.5947451 0.8104693

bn1.bias f4 [64]
00000000: 828d 113d 71f3 2f3d 6072 023c 486b 39bc
00000010: ae1a 1bbc 4a3f d5bc 6e26 03bc e433 983c
00000020: d44c 873c 3403 963d 9518 cdb8 a68e 67bc
00000030: b3dd e6bc 1597 883c 9c74 36bc 0895 df3b
00000040: 7935 7cbb f556 a23c 8465 9f3d 99fb ae3b
00000050: bb9d 3abc 702d 4abb a94c 18bd ccfe 983c
00000060: 2060 debc c8a2 5c3d c7bd b6bc bd81 7c3b
00000070: cd8f 013d 1d50 7cbd 7edd de3c 65d0 19bd
00000080: 04c4 a3bd 976a 27bc 9cdf dd3b 9d90 ce3c
00000090: 154d 1e3d 96b5 9fbc 5ac6 9fbc c8e4 59bd
000000a0: 0308 443d 7f30 003d 1b57 423c 84b4 d73c
000000b0: 6482 8a3b 4c01 95bc 10fb bfbc b5cd ebbc
000000c0: 33e7 c3bb ea5b 963d eeaa 063d a043 363d
000000d0: 755a 1c3c 3ced 813d a3be 0c3d 0cb8 06bd
000000e0: 2003 b93b 56b8 383c f485 87bc f374 fb3c
000000f0: 4d59 2a3d 278c 063d 3927 a23c c997 623d
0.035535343 0.042956773 0.007961839 -0.011317082 -0.00946681 -0.026031155 -0.008004768 0.01857943
0.016516127 0.0732483 -9.7797405e-05 -0.014133131 -0.028181886 0.016673604 -0.0111362 0.006823186
-0.003848402 0.019816855 0.077830344 0.0053400514 -0.011390145 -0.0030849837 -0.037182484 0.018676184
-0.027145445 0.053866178 -0.02230729 0.0038529478 0.03163128 -0.06159984 0.027205225 -0.037552256
-0.079963714 -0.010218284 0.006771041 0.025215441 0.03864773 -0.019495767 -0.019503761 -0.0531967
0.047859203 0.03129625 0.011861588 0.026331194 0.0042269696 -0.018189095 -0.023435146 -0.028784612
-0.005978489 0.0734175 0.032877855 0.044498086 0.009543051 0.06344077 0.034361493 -0.032890365
0.0056461245 0.011274418 -0.016543366 0.030695414 0.04158907 0.032848503 0.019794093 0.055320535

bn1.running_mean f4 [64]
00000000: a485 2538 5dee 3eb7 9a32 ecb8 ca5b 48b7
00000010: e04c 04b6 f8fb ffb7 5f28 66b7 37e0 55b7
00000020: 7608 d3b8 d384 8138 3746 a136 5da6 6cb8
00000030: 4495 ee38 8b00 ddb7 b12b abb8 ff24 e7b7
00000040: 53d5 da35 469a e138 28f6 9438 c0c6 a738
00000050: 0ca5 6b36 9515 97b8 2394 2739 8fab a638
00000060: f6ad 5337 1474 35b8 56e1 4cb8 75a5 03b8
00000070: 9c74 1b37 5940 ba36 39ff 3837 255d 3a38
00000080: 7f73 4139 6c31 1437 32b0 3cb8 79dc 1137
00000090: fcff 64b8 8a30 d537 b077 4db8 dcb0 0138
000000a0: 8fb3 4038 e58c 37b9 60cd 02b9 7da2 8c37
000000b0: cd24 7b38 ef9c 24b9 a4b9 4438 d349 9b35
000000c0: 56d3 c2b5 1a22 9a37 a320 d5b6 1367 60b7
000000d0: fd8d 1e39 916e 5638 bc3a 2838 644c 7cb7
000000e0: a2ae 59b8 dbcb 13b8 b99b 77b7 00d4 83b4
000000f0: 9353 1b39 0fd5 bf37 3aa3 08b7 23c7 b4b8
3.9463528e-05 -1.1380381e-05 -0.00011262782 -1.19423e-05 -1.971428e-06 -3.0515701e-05 -1.3718468e-05 -1.2747993e-05
-0.0001006284 6.17594e-05 4.806348e-06 -5.6421723e-05 0.00011376527 -2.6345506e-05 -8.1620536e-05 -2.7554574e-05
1.6304351e-06 0.00010757572 7.10304e-05 8.0002006e-05 3.5113799e-06 -7.204261e-05 0.00015981546 7.947452e-05
1.26170835e-05 -4.326187e-05 -4.884725e-05 -3.1386928e-05 9.26587e-06 5.550723e-06 1.1026678e-05 4.4432603e-05
0.0001844894 8.832994e-06 -4.4986788e-05 8.694006e-06 -5.459784e-05 2.5414181e-05 -4.8987276e-05 3.092071e-05
4.5943594e-05 -0.00017504727 -0.00012474274 1.6764965e-05 5.9877337e-05 -0.00015698721 4.6902933e-05 1.1569886e-06
-1.4515633e-06 1.837411e-05 -6.351694e-06 -1.3375439e-05 0.00015120949 5.112455e-05 4.0109022e-05 -1.5038157e-05
-5.189947e-05 -3.5237386e-05 -1.4758604e-05 -2.4554902e-07 0.00014813086 2.2868187e-05 -8.144236e-06 -8.620161e-05

bn1.running_var f4 [64]
00000000: 0a07 b43c 9d29 4b3d 3114 783d 927d 243d
00000010: ab0a 543c 40c3 903d ae2f 403d 8c52 aa3c
00000020: 25ad 433d b453 ae3c 6df6 d43c 5453 143d
00000030: 700e 903d e94d f33c 8d66 a23d 17df 0a3d
00000040: cba3 083d 74c5 f03c ef59 583c da52 243d
00000050: ac9f 4f3d 0e1e 233d 7377 443d f1c7 1e3d
00000060: 8d4d 0c3d 85fe 873d 7cde 633d fec2 993d
00000070: 92c2 8f3d 6868 d83d b3db 803d c156 953c
00000080: 05db c93c 7785 613d 94ff 713c 6096 783d
00000090: 0ed6 243d 841a e93c 8173 a33c d406 8e3d
000000a0: 0dd4 5e3d 7d5f 1f3d 3440 df3b 4a3d bc3d
000000b0: 8f2a 743d 2dfe 363d b5c4 123d 6a6a 263d
000000c0: 1cc4 393d 2e2c 533d 5ca4 923d bb46 883d
000000d0: cd86 0d3d 17f1 733d d84d c33c b133 313d
000000e0: 1ff8 973d d500 593d 10a8 323d f717 273d
000000f0: cc49 023d 7dff 433d 2c2c 643d ec38 183d
0.021976013 0.049600232 0.06056613 0.040158816 0.012941997 0.07068491 0.04692047 0.020791315
0.047772545 0.021280147 0.025996411 0.03621228 0.07034004 0.029700236 0.07929716 0.03390416
0.03335933 0.029391028 0.013205036 0.040118076 0.050689384 0.039823584 0.04796548 0.038764898
0.034253646 0.066403426 0.0556321 0.07507895 0.07019533 0.10566789 0.06291904 0.018229844
0.02464057 0.055058923 0.014770407 0.060690284 0.0402432 0.028455026 0.019952537 0.06934896
0.054401446 0.038909424 0.0068130735 0.091913775 0.0596109 0.044675995 0.035832126 0.040628828
0.04535304 0.051555805 0.07160255 0.06654116 0.034552384 0.059556093 0.02384083 0.043262187
0.07420372 0.05297931 0.04361731 0.04079434 0.03180866 0.047851074 0.055706188 0.03716366

bn2.weight f4 [128]
00000000: 7e50 0a3f 64b0 623f dd08 163f 315b e13d
00000010: 1244 673f 319d b43e 83b5 953e 310b ee3e
00000020: 88bd 653f c713 263f 850f e13e 4a2e 333f
00000030: 21b8 363f 9451 2b3f 3e7f 323d 5bcc ca3d
00000040: 3208 0e3f f434 023f b8ab 013e 266e 6e3f
00000050: b3d4 323f 4744 3a3f 073e 173e 0d97 c33e
00000060: 14a2 2d3f 154e e73e 8e3a 593e f752 5d3f
00000070: 8caa 0b3f 964e 3a3f a461 1a3d 047f ca3e
00000080: e5a8 d73d fae2 bb3e 9b60 663f 5956 163f
00000090: 50af 2b3f 7641 e13e 6ad3 553e d54b ee3a
000000a0: a913 333f 6adc d03e cbb9 3c3f 98a7 763f
000000b0: aa91 273f 09ab cc3e 357a 7c3f 1e58 873e
000000c0: fce6 443f a03b fd3e cb7d 3b3f d3fe 4e3f
000000d0: edf8 4c3f 8b22 563f 644e 653e 8c40 923e
000000e0: 8ee5 043f 1e42 043e 8834 003f 6219 2f3e
000000f0: 6820 473f 2f99 d33d 9e7b 543f 2d90 e13e
00000100: 2d92 493e 1b45 413f 8a6e dc3e 6cb0 b83e
00000110: b8d6 ff3e 6cdb fe3e a3a7 483e 5a4d eb3e
00000120: ac8d ff3e 6868 023f 02f4 383f 9591 673f
00000130: fa25 ea3e 35df b93d 753b d33e 1e74 f23e
00000140: 76b9 3a3f aa36 c0bb 6f8a f03e 1cac 3f3e
00000150: 3fae d23d ac01 073f e0ee 113f dd22 593f
00000160: 765f 603e f3f5 4c3f 894c 893d 1774 713f
00000170: 8a04 803f 0ab6 4d3f 8d99 003f 9ea5 853d
00000180: 392d 403f ee00 053f a175 973e 4281 5a3f
00000190: 026c b13d 4727 013f 853f 6c3f b99e 5d3f
000001a0: 28ba 413e edd2 623e ba85 243f 22b1 1f3f
000001b0: c0ca ac3e 56e8 223f cdff b83e fc2b 773f
000001c0: 9fd9 a73e 1b50 6f3f 2353 973e ebaa 753f
000001d0: 3d8b ec3e eabb 363f 5986 b63e 35f6 bf3e
000001e0: 85ae 823e 2453 693f c87a 3e3f 6a09 253f
000001f0: 21ab 593e 7fa9 353f c94f 2c3f 4fe6 2abb
0.5402907 0.885504 0.58607274 0.110037215 0.9033824 0.35276178 0.29240045 0.46492913
0.89742327 0.6487393 0.43957153 0.69992507 0.7137471 0.66921353 0.04357838 0.09902259
0.55481255 0.5086205 0.12663162 0.93136823 0.69855803 0.7276043 0.14769755 0.3820118
0.67825437 0.4517676 0.21213743 0.8645472 0.5455711 0.7277616 0.037690774 0.3955003
0.10530261 0.36696607 0.8999116 0.58725506 0.6706438 0.43995255 0.2088143 0.0018180559
0.69951874 0.40793163 0.73721 0.9634948 0.6545664 0.3997424 0.98623973 0.26434416
0.76914954 0.49459553 0.7323882 0.8085758 0.8006733 0.8364646 0.22393185 0.2856487
0.5191277 0.12915847 0.50080156 0.17099527 0.77783823 0.10331952 0.83001125 0.4405531
0.19684668 0.7549607 0.43053085 0.360721 0.49968505 0.4977678 0.19595198 0.45957452
0.49912775 0.5094056 0.72247326 0.90456516 0.457321 0.090757765 0.412563 0.47354215
0.7293924 -0.0058658915 0.46980616 0.18717998 0.10287141 0.52736926 0.5700512 0.8481882
0.21911415 0.8006279 0.06704051 0.94317764 1.0001385 0.80355895 0.502343 0.065257296
0.75069004 0.51954544 0.2958193 0.8535348 0.08663179 0.5045056 0.92284423 0.86570317
0.18918669 0.22150774 0.6426655 0.6237966 0.33748436 0.63635767 0.3613266 0.9655149
0.3278322 0.93481606 0.29555616 0.95963925 0.4619998 0.71380484 0.35649374 0.3749253
0.25523773 0.9114249 0.744061 0.6446749 0.21256687 0.70961756 0.6730924 -0.0026077216

bn2.bias f4 [128]
00000000: fd3b f0bc bee9 6138 e149 b0bb 4630 c23c
00000010: 5b58 4ebc 5d0b feb9 497a efbc bd2b 23bc
00000020: 7229 023c 6715 e5bc 1192 093c 3d8e e33b
00000030: a831 19bb 2a75 e2bc f9f3 85bc 662f 15bc
00000040: ee4b a0bc a08a 67bd 8d9e afbc 1f00 03bd
00000050: 174a 0f3d 5419 603c d6ef ebbb d020 98bd
00000060: 9a0f 1bbc 7bfe cbbc 53e5 bbbc ad5f a7bc
00000070: 5b18 a9bd 6e8a d3bb 055d 0fbd 01bf c53c
00000080: 5eec e9bc 046d 53bc 8c54 2fbd d134 4cbd
00000090: c5ad e8bc 9cac 93ba 9085 47bd c469 11bc
000000a0: 0d66 9dba 5667 b73b fb92 c6bc 76c7 8d3b
000000b0: c2cc 30bc 88cd b1bb 9ab9 bc3d b804 73bd
000000c0: 4d8b e13c 0849 3ebc c7e6 bbbd bdc1 943c
000000d0: 75dd fe3c 9aef 7dbd 1a41 963c 2de3 56bd
000000e0: fc71 df3c 8c09 1abd db56 bbbc f151 0dbd
000000f0: 5c90 d0bc 9116 733a 21f4 6fbd 94a1 1dbc
00000100: f5b0 aabc 86c1 d9bb 1760 abbc 3912 923c
00000110: b75c 563c db22 68bd 7ffb 17bd 9166 e13a
00000120: ef01 80bd 7949 6f3b 7606 7dbc 94a0 ffbc
00000130: 22fb 0ebd 229e bebb eeff efbc 042c 8abd
00000140: cdc7 9d3c 781d 7a3b 8790 283d a1fc 35bd
00000150: 6065 81bc 6835 18bd d6bf c8bc eb6a 08bd
00000160: 905e 773c 9b6b 15bd b0e6 01bd a189 a5bb
00000170: 184c d9bc 2a3e d83a 8394 3dbd 0868 033b
00000180: b350 3bbd 4511 d3bc b5ef 6b3c 6119 1abd
00000190: 07b7 a3bb f898 4ebc 5592 debc 7455 90bd
000001a0: ddbc 82bb db89 3e3d c6e2 14bd 0b28 703c
000001b0: 0ef6 4bbc d6fd 8ebd a5f8 98bc f358 f4bc
000001c0: 1ec8 31bc dae2 a9bc fabb d6bc ae7f 83bd
000001d0: 3ab3 24bd 7739 c13c c7f6 e73c e625 13bd
000001e0: cdcb 4cbd 8ca6 febc bad6 25bc de67 26bd
000001f0: 8c77 51bd 68da 0d3d c261 123a 7e3b 2fbc
-0.02932548 5.386187e-05 -0.005379901 0.02370466 -0.012594308 -0.00048455122 -0.029233115 -0.0099591585
0.007944452 -0.027964307 0.008396641 0.0069444464 -0.0023375545 -0.027643759 -0.016351687 -0.009105539
-0.019567456 -0.056528687 -0.021437908 -0.031982537 0.034982767 0.013677914 -0.0072002215 -0.074281335
-0.009464169 -0.02490162 -0.022936499 -0.020431364 -0.082565986 -0.006455711 -0.03500082 0.02413893
-0.028555091 -0.012904409 -0.04280524 -0.049855057 -0.028403172 -0.0011266652 -0.04871136 -0.008875314
-0.0012008563 0.0055970354 -0.024240008 0.004326756 -0.010791006 -0.0054261126 0.09215088 -0.059330672
0.027532244 -0.011614092 -0.09174877 0.018158788 0.031111458 -0.06199608 0.01834159 -0.052462745
0.027276032 -0.03760676 -0.022868564 -0.034501974 -0.02545946 0.0009273077 -0.05858243 -0.009621043
-0.020836333 -0.0066453842 -0.020919843 0.017830955 0.013083628 -0.056673866 -0.03710508 0.0017196705
-0.06250369 0.00365123 -0.015443435 -0.0312045 -0.034907468 -0.0058171907 -0.029296841 -0.067466766
0.019260311 0.0038164537 0.041153457 -0.04443038 -0.01579541 -0.037160307 -0.024505537 -0.03330509
0.015098229 -0.036479574 -0.03171414 -0.005051807 -0.026525542 0.0016498019 -0.04628421 0.002005102
-0.045731258 -0.02576507 0.014400412 -0.03762186 -0.004996184 -0.012609713 -0.027169386 -0.07047549
-0.0039897994 0.046518188 -0.03634908 0.0146579845 -0.012448801 -0.06982009 -0.01867325 -0.02982757
-0.010850934 -0.020738054 -0.026212681 -0.06420837 -0.040209986 0.023586972 0.028315915 -0.035924815
-0.049999047 -0.031085275 -0.010121996 -0.0406264 -0.0511394 0.034632117 0.0005584025 -0.010695336
