part_pc_vae_vase/5000_net_part_pc_encoder.pth (torch_old, 244256 bytes, 28 tensors)

conv1.weight f4 [64, 3, 1]
0.25125632 -0.11712397 -0.3882579 0.40086743 0.16880414 0.56959367 0.3845805 -0.351972
0.51556987 0.1545254 -0.40188318 -0.49808246 0.26754597 -0.015046682 -0.11736009 -0.42212647
-0.5208778 -0.26306105 -0.27084523 0.3897797 -0.4597812 0.1700733 -0.22128081 -0.41447648
-0.31389883 -0.42706275 0.33827245 0.021749616 0.13536234 0.5779632 -0.36414844 0.07875432
-0.2578617 -0.005360892 -0.52331716 -0.059382647 -0.5124531 0.37223938 0.0718575 -0.22631478
-0.3438121 -0.23856843 -0.5877193 -0.24223627 0.463284 -0.117150515 0.32627493 0.53858525
-0.18844803 -0.45518705 -0.17287225 0.35265887 0.15978844 0.24811932 0.0322767 -0.32469267
0.040491547 0.3077594 -0.41202202 -0.13552894 -0.3603994 0.4351024 0.31971303 0.09234404
-0.4672584 0.48815078 -0.32972252 0.36034843 0.25729036 0.28399375 -0.4348041 -0.04182196
-0.34190837 -0.1419369 0.24200717 -0.40995282 -0.51353705 0.08269954 -0.3591337 -0.5037489
0.1617377 0.5624696 0.3558799 -0.25342566 -0.40250483 -0.46099916 0.5066339 -0.5895569
-0.5409435 -0.33420888 -0.31265393 0.5331405 0.40289932 -0.13506693 -0.3108384 0.10277398
-0.058740083 0.19656116 -0.5855642 0.08792323 -0.5649234 -0.49604964 0.18188429 -0.25576386
-0.21083014 -0.49475154 0.13880062 0.47942442 0.20206189 0.47717458 -0.42869127 -0.23712514
0.31423953 -0.32566157 -0.2375325 0.27311876 -0.057170764 0.37255725 0.5043158 0.5056364
0.4910688 -0.22949249 0.30367878 0.24533598 0.4519435 0.23319232 0.12221453 0.0027496882
-0.12803476 -0.46547034 -0.56169325 0.47747588 0.28743878 -0.54445964 0.28619498 -0.19617704
0.43071857 -0.5179935 0.24810205 -0.4183573 0.26092133 -0.06863832 0.46033475 -0.42593887
-0.36691263 0.35794973 0.20415701 -0.4402658 -0.21587186 0.415927 -0.5535203 -0.2083999
-0.034080133 -0.51588356 -0.32940626 -0.11485177 -0.3813165 -0.23693097 -0.17086112 0.5627801
-0.010665396 -0.1359964 -0.15092923 -0.367447 -0.23544933 0.11138233 -0.49119717 0.13704258
0.500996 -0.22175017 0.5578276 0.4599475 -0.22656052 0.351965 0.30830532 -0.30545935
-0.49069417 0.3006432 0.30008754 -0.50927186 0.08876267 0.45918676 -0.16614158 -0.3583262
0.37401298 0.24424782 -0.3503953 0.43552652 0.2953537 0.0024165632 0.46269614 0.4801552
00000000: aba4 803e b1de efbd bdc9 c6be 7f3e cd3e
00000010: feda 2c3e e4d0 113f bce7 c43e ad35 b4be
00000020: 63fc 033f e83b 1e3e a2c3 cdbe aa04 ffbe
00000030: c9fb 883e 5c86 76bc 7d5a f0bd f620 d8be
00000040: 3f58 05bf f0af 86be 3aac 8abe 3491 c73e
00000050: 7168 ebbe b227 2e3e 7097 62be 4336 d4be
00000060: 59b7 a0be f8a7 dabe 0c32 ad3e 402c b23c
00000070: 6d9c 0a3e 65f5 133f aa71 babe f249 a13d
00000080: 7306 84be 6caa afbb 1df8 05bf 383b 73bd
00000090: 2030 03bf 2996 be3e 062a 933d 10bf 67be
000000a0: 2408 b0be 484b 74be c674 16bf c90c 78be
000000b0: 8f33 ed3e 9cec efbd 820d a73e b9e0 093f
000000c0: 85f8 40be 470e e9be 6c05 31be b48f b43e
000000d0: 959f 233e fe12 7e3e 9334 043d 1e3e a6be
000000e0: 77da 253d a492 9d3e 8df4 d2be 19c8 0abe
000000f0: 4586 b8be bec5 de3e 6db1 a33e df1e bd3d
00000100: 7e3c efbe e6ee f93e 64d1 a8be 977f b83e
00000110: 90bb 833e a167 913e a59e debe 814d 2bbd
00000120: 9d0e afbe e857 11be bad0 773e 56e5 d1be
00000130: 2a77 03bf 605e a93d 5fe0 b7be b0f5 00bf
00000140: 919e 253e 02fe 0f3f e435 b63e 02c1 81be
00000150: 1d15 cebe 1508 ecbe c2b2 013f 33ed 16bf
00000160: 467b 0abf 6d1d abbe 2d14 a0be e57b 083f
00000170: d248 ce3e fc4e 0abe 3626 9fbe 2a7b d23d
00000180: 7199 70bd 5447 493e 89e7 15bf 1811 b43d
00000190: d29e 10bf 38fa fdbe e03f 3a3e 7bf3 82be
000001a0: dbe3 57be 1350 fdbe c021 0e3e 1e77 f53e
000001b0: 50e9 4e3e 3a50 f43e 6c7d dbbe efd0 72be
000001c0: 01e4 a03e 1dbd a6be b83b 73be 39d6 8b3e
000001d0: e42b 6abd d3bf be3e d71a 013f 6371 013f
000001e0: 5f6d fb3e 1400 6bbe c97b 9b3e 5b39 7b3e
000001f0: 2365 e73e f8c9 6e3e 9d4b fa3d 1d34 343b
00000200: 8b1b 03be 2152 eebe 21cb 0fbf b877 f43e
00000210: 2d2b 933e b561 0bbf 2688 923e a2e2 48be
00000220: 2587 dc3e 399b 04bf 770e 7e3e ee32 d6be
00000230: 7b97 853e 3f92 8cbd ffb0 eb3e a914 dabe
00000240: f9db bbbe 3045 b73e 890e 513e 856a e1be
00000250: 830d 5dbe 62f4 d43e 82b3 0dbf c966 55be
00000260: 9c97 0bbd f210 04bf f0a7 a8be 6837 ebbd
00000270: eb3b c3be 089e 72be 38f6 2ebe 5b12 103f
00000280: eabd 2ebc a442 0bbe 318d 1abe 0322 bcbe
00000290: a119 71be 6b1c e43d 327e fbbe e454 0c3e
000002a0: 4641 003f 7a12 63be cacd 0e3f 3d7e eb3e
000002b0: 7bff 67be c234 b43e 32da 9d3e 2b65 9cbe
000002c0: 443c fbbe e8ed 993e 13a5 993e a45f 02bf
000002d0: 34c9 b53d 871a eb3e 0521 2abe 8876 b7be
000002e0: a17e bf3e 1a1c 7a3e 0367 b3be 55fd de3e
000002f0: 9a38 973e 345f 1e3b 82e6 ec3e e7d6 f53e

conv1.bias f4 [64]
-7.0286565e-05 -1.7851167e-05 -0.00017334697 -7.260845e-05 5.208836e-06 7.2160924e-06 -6.835665e-05 -9.053497e-06
-2.2735023e-05 3.3486424e-06 0.00015762354 1.6275335e-05 -5.9209735e-05 -7.667811e-05 8.607981e-05 -9.149523e-08
8.4664526e-07 1.5250081e-05 -0.00015060129 -0.00016214095 6.2435305e-05 -1.3434358e-05 -4.3155032e-05 -9.118486e-06
2.348295e-05 -3.9821658e-05 -2.550763e-05 -6.19711e-06 -4.1975763e-06 4.5291104e-06 -7.8825746e-05 0.00013731439
-2.022156e-06 2.1847603e-05 4.8183214e-05 3.0764717e-05 -5.6441586e-06 -4.406116e-05 0.00027521243 -3.8940994e-05
-8.0972546e-05 -0.00012329381 0.000934616 3.6417267e-05 -3.494036e-05 1.6089302e-06 6.877763e-05 2.7527474e-06
8.640639e-06 0.00019983077 -4.3925193e-05 -5.0836147e-06 -4.588474e-05 6.863115e-05 0.00027298028 1.0847827e-05
1.7378303e-05 -0.0001312755 -0.00025060866 3.1894342e-05 -0.00010672809 -0.00010285886 1.1927725e-05 -0.00030537113
00000000: d066 93b8 17bf 95b7 79c4 35b9 5d45 98b8
00000010: 8fc7 ae36 c321 f236 b25a 8fb8 79e4 17b7
00000020: 17b7 beb7 3db9 6036 bf47 2539 0487 8837
00000030: f857 78b8 3fce a0b8 bf85 b438 097c c4b3
00000040: 0545 6335 99da 7f37 baea 1db9 6104 2ab9
00000050: b3ef 8238 2164 61b7 5d01 35b8 99fb 18b7
00000060: 40fd c437 2e06 27b8 38f9 d5b7 c5f0 cfb6
00000070: e8d8 8cb6 c3f8 9736 404f a5b8 0dfc 0f39
00000080: 60b4 07b6 5f45 b737 5518 4a38 5d09 0138
00000090: f462 bdb6 4fce 38b8 634a 9039 9354 23b8
000000a0: cecf a9b8 6e48 01b9 0501 753a bebe 1838
000000b0: ed8c 12b8 6cf2 d735 b53c 9038 d7bb 3836
000000c0: 43f7 1037 aa89 5139 513c 38b8 eb93 aab6
000000d0: 5d74 40b8 11ee 8f38 cb1e 8f39 10ff 3537
000000e0: 9fc7 9137 00a7 09b9 2064 83b9 4ac6 0538
000000f0: 35d3 dfb8 eeb5 d7b8 301d 4837 381a a0b9

conv2.weight f4 [128, 64, 1]
-0.027213106 -0.06438682 0.034743007 0.014934587 0.0071654785 0.028278088 -0.09893738 -0.019556975
-0.036453728 -0.052434128 -0.18017197 -0.10797451 -0.15040348 -0.05686791 0.01324941 -0.027004875
-0.026449528 -0.11466395 -0.06873069 -0.08434172 -0.05231995 0.10216572 -0.11915039 -0.025953323
0.12824348 0.017530201 0.07823321 -0.08319021 0.11473194 -0.072409846 0.033991337 0.005865565
0.08507159 -0.11592835 -0.12311792 -0.08708241 -0.059251804 0.06580055 0.0327543 0.0035961063
-0.054492366 0.10281341 0.068055905 0.104105026 -0.1061038 -0.044349883 0.06294503 -0.10339398
-0.031405393 0.09773885 -0.09372048 -0.053324454 -0.002516463 -0.06015886 -0.06630694 0.053343013
-0.04369399 0.061366882 -0.07091256 0.0013393154 0.08196862 0.022306819 0.0591193 0.06784236
-0.1194906 -0.121523276 0.09674461 0.090577304 0.011029907 0.09743497 -0.015310794 -0.028909339
-0.12994827 -0.1338333 -0.018093998 -0.022123478 0.06969979 -0.10752721 -0.009555568 0.0991652
-0.090089105 -0.082593925 0.023262544 0.12388984 0.07154453 0.10571678 0.017083416 0.045696646
0.071701266 -0.10997948 -0.049129184 -0.09926328 -0.08049946 0.054783504 0.040843647 -0.019278252
-0.08029817 -0.085098155 0.030132787 -0.09301421 0.102360174 0.06370409 -0.021167513 0.04190935
0.09161182 -0.055639368 -0.11422442 -0.017290225 0.04629871 -0.047852732 0.112378456 -0.0074201627
0.03125504 0.05099443 0.036812205 0.10809047 -0.08534484 0.008717247 0.043736897 0.051398333
-0.04935029 -0.025112923 0.075053446 0.077374324 -0.13543947 0.033154864 -0.012667105 0.020973627
-0.06030637 0.07288638 0.104146704 -0.10071564 0.030533588 0.053238932 -0.077550694 -0.14331931
0.026023922 -0.032511175 0.032697026 -0.14907473 0.09520546 -0.09584005 -0.04646648 -0.055109985
-0.026208883 0.010064084 -0.12945274 0.06336397 0.07236307 0.0053054164 0.032784812 -0.10239314
-0.04195235 -0.09626149 -0.10069919 0.120043434 -0.08490426 -0.11880272 -0.11789725 0.05500307
-0.01053311 -0.048124738 0.044513486 0.04235718 0.018928912 -0.054229833 0.120257124 0.079873875
0.10140171 0.12573427 -0.11051426 -0.07517894 -0.037757877 -0.057746638 0.009648891 0.015222243
0.028830871 0.05427195 0.0897057 0.009216968 0.08915369 0.11962757 -0.09099601 -0.11288736
0.07576628 0.009701753 -0.033614185 0.102388844 0.050610855 0.10109989 -0.030168936 -0.017073903
-0.039157074 -0.12711479 -0.07043257 -0.10580959 -0.034316618 0.06752397 -0.099431284 0.031665497
-0.0049638553 0.05765532 0.12641636 -0.07002898 0.025651881 -0.009536704 0.068390705 0.023919515
0.012077797 -0.008773417 0.12737803 0.03224189 -0.08706854 -0.00050551747 -0.05361809 -0.091925405
0.0022420152 0.074737996 -0.028573519 -0.04104559 -0.05821428 0.06037324 -0.10469216 0.13938975
0.017722648 0.03081446 0.044724733 0.034824062 -0.04879137 0.111174636 -0.061997328 0.0315705
-0.08156205 0.07389877 0.120384686 0.100059584 -0.013600549 0.038046096 0.10725544 -0.011894231
-0.047565237 -0.08314062 -0.060881466 0.10121357 0.085011184 -0.07785353 -0.055275157 -0.011145675
-0.15923178 -0.09015658 -0.034826335 -0.092747815 0.039039515 0.00831066 0.062037636 -0.07143171
00000000: 05ee debc 3ddd 83bd af4e 0e3d 33b0 743c
00000010: 64cc ea3b 73a7 e73c ae9f cabd f335 a0bc
00000020: 8150 15bd 2bc5 56bd 007f 38be bd21 ddbd
00000030: 5f03 1abe 53ee 68bd 0e14 593c 5439 ddbc
00000040: aeac d8bc efd4 eabd adc2 8cbd 5abb acbd
00000050: 724d 56bd 433c d13d 1f05 f4bd 109c d4bc
00000060: 4252 033e 7f9b 8f3c bc38 a03d a15f aabd
00000070: 94f8 ea3d 9d4b 94bd 803a 0b3d ed33 c03b
00000080: 043a ae3d d86b edbd 3f25 fcbd 4358 b2bd
00000090: 05b2 72bd 70c2 863d 5f29 063d a7ac 6b3b
000000a0: 6333 5fbd d68f d23d e560 8b3d 0435 d53d
000000b0: f34c d9bd 39a8 35bd 53e9 803d 39c0 d3bd
000000c0: f1a2 00bd 4e2b c83d 86f0 bfbd be6a 5abd
000000d0: 3eeb 24bb 2369 76bd efcb 87bd 347e 5a3d
000000e0: 78f8 32bd d75b 7b3d 9b3a 91bd f88b af3a
000000f0: 2adf a73d cabc b63c 1427 723d eff0 8a3d
00000100: 7db7 f4bd 32e1 f8bd 0a22 c63d 9880 b93d
00000110: c8b6 343c fc8b c73d 20da 7abc 47d3 ecbc
00000120: 2911 05be 990b 09be dd39 94bc 4c3c b5bc
00000130: c3be 8e3d 3a37 dcbd f58e 1cbc 2017 cb3d
00000140: a380 b8bd 0127 a9bd 1791 be3c f5b9 fd3d
00000150: f085 923d 0a82 d83d 85f2 8b3c 682c 3b3d
00000160: 1dd8 923d ec3c e1bd af3b 49bd 8c4a cbbd
00000170: e7dc a4bd ab64 603d ab4b 273d 6ded 9dbc
00000180: 5e73 a4bd f147 aebd 09d9 f63c 3c7e bebd
00000190: 36a2 d13d 4a77 823d 7e67 adbc 23a9 2b3d
000001a0: fa9e bb3d 1be6 63bd 7eee e9bd 3ba4 8dbc
000001b0: b7a3 3d3d 3a01 44bd ad26 e63d d624 f3bb
000001c0: 4905 003d 89df 503d 65c8 163d 895e dd3d
000001d0: 47c9 aebd c9d2 0e3c 7625 333d 0f87 523d
000001e0: 8823 4abd 9eb9 cdbc 9fb5 993d 6e76 9e3d
000001f0: a5b0 0abe 65cd 073d b089 4fbc e2d0 ab3c
00000200: d003 77bd 7445 953d de4a d53d 0044 cebd
00000210: 9321 fa3c 1111 5a3d e6d2 9ebd 4cc2 12be
00000220: 1f30 d53c 702a 05bd 51ed 053d 0ca7 18be
00000230: 15fb c23d ca47 c4bd a353 3ebd 02bb 61bd
00000240: 03b4 d6bc d4e3 243c 428f 04be f8c4 813d
00000250: 1733 943d 0fd9 ad3b 5e49 063d 7fb3 d1bd
00000260: 3ad6 2bbd be24 c5bd 603b cebd 55d9 f53d
00000270: 49e2 adbd d74e f3bd 1d74 f1bd e64a 613d
00000280: 1193 2cbc 721e 45bd c653 363d b97e 2d3d
00000290: ce10 9b3c 1a20 5ebd 5e49 f63d ea94 a33d
000002a0: b3ab cf3d 7cc0 003e 4d55 e2bd 6bf7 99bd
000002b0: 01a8 1abd bd87 6cbd 6216 1e3c b766 793c
000002c0: b82e ec3c 444c 5e3d 9fb7 b73d c402 173c
000002d0: 3696 b63d 4dff f43d 1e5c babd 7d31 e7bd
000002e0: 5a2b 9b3d 1af4 1e3c 07af 09bd 3eb1 d13d
000002f0: 544d 4f3d 760d cf3d d824 f7bc 92de 8bbc
00000300: 2b63 20bd 612a 02be f43e 90bd b3b2 d8bd
00000310: 958f 0cbd 024a 8a3d a1a2 cbbd aeb3 013d
00000320: d6a7 a2bb fc27 6c3d 4a73 013e 5b6b 8fbd
00000330: e523 d23c d63f 1cbc 6d10 8c3d dcf2 c33c
00000340: f4e1 453c 61be 0fbc 636f 023e 1210 043d
00000350: fe50 b2bd b484 04ba a49e 5bbd 6343 bcbd
00000360: c6ee 123b 3c10 993d 0313 eabc 6c1f 28bd
00000370: 1972 6ebd ee49 773d d868 d6bd 30bc 0e3e
00000380: 162f 913c 9b6e fc3c 4831 373d ada3 0e3d
00000390: 76d9 47bd 87af e33d e9f0 7dbd 1250 013d
000003a0: 010a a7bd 3d58 973d 3f8c f63d 0aec cc3d
000003b0: d6d4 5ebc 39d6 1b3d bda8 db3d 05e0 42bc
000003c0: c4d3 42bd a145 aabd d85e 79bd 0f49 cf3d
000003d0: 581a ae3d ac71 9fbd 3468 62bd 599c 36bc
000003e0: a80d 23be 03a4 b8bd 0fa6 0ebd 91f2 bdbd
000003f0: e6e7 1f3d 6f29 083c 2d1b 7e3d ca4a 92bd

conv2.bias f4 [128]
-6.8667205e-06 3.3780311e-06 -2.8914417e-05 3.4193868e-06 1.0612455e-05 -2.323211e-05 2.1442816e-05 -2.3093497e-05
3.278104e-05 6.423416e-05 -3.5874073e-06 3.310831e-05 5.7601765e-06 1.8496045e-05 -8.096818e-06 3.002679e-06
6.621852e-05 -2.1219988e-05 -8.899036e-07 -9.2888215e-05 -5.321591e-05 4.2253363e-05 -1.8515144e-05 7.870615e-06
-2.2422193e-05 3.4360398e-06 9.9108765e-06 1.0524415e-05 -3.953849e-07 -1.5740075e-05 1.1288582e-06 -1.541251e-05
2.1452631e-06 -4.068462e-05 0.00027492366 1.6802183e-05 3.4198692e-06 -1.6488411e-05 4.8765018e-05 -5.64959e-40
5.717889e-07 2.428967e-05 -5.296698e-05 5.9781458e-05 8.201112e-06 1.2786855e-05 -2.5871437e-05 -1.6831737e-05
-5.847352e-05 -1.8214524e-06 1.8895234e-05 6.269722e-05 4.2396114e-06 3.0179008e-05 -1.43142e-05 -1.275466e-05
-6.4312817e-06 9.2517473e-07 3.869644e-05 6.9080174e-06 -7.7065844e-05 -8.355251e-07 -0.0001231186 -3.4030152e-05
6.359868e-06 1.9088235e-05 5.293133e-05 -3.4491175e-05 -5.8238325e-06 6.5421995e-07 1.5484284e-05 1.7834727e-05
2.7698801e-05 -1.7019185e-05 3.743866e-05 1.6262808e-05 2.2116546e-05 -6.2201593e-06 1.5815422e-05 -0.00010014837
5.5514643e-06 -1.2968402e-08 3.519237e-06 1.6253945e-05 -2.7540402e-06 6.199474e-07 -2.4293086e-05 -1.0774893e-05
8.03886e-06 7.280907e-05 3.6593642e-07 -0.00011361714 5.5791428e-05 2.0161648e-05 4.5399145e-05 8.614061e-07
-7.128222e-05 5.399923e-05 -4.8680195e-05 6.8482886e-06 4.118946e-06 4.166785e-05 -0.00016311428 0.00012455233
-3.0609056e-07 5.002805e-06 -5.088082e-05 3.495276e-05 -1.4361851e-05 2.6559308e-05 1.6968063e-06 -0.00013605444
-5.4876073e-06 2.3297267e-05 2.3236604e-05 -0.00012507969 6.494755e-05 -8.3650564e-05 1.905676e-06 3.0400564e-05
-9.673345e-06 -8.9709254e-05 6.3297404e-05 -1.1375431e-05 1.1109774e-05 -1.680472e-05 -6.3952386e-05 5.5969e-41
00000000: ae68 e6b6 22b2 6236 3d8d f2b7 9e78 6536
00000010: 260c 3237 94e2 c2b7 19e0 b337 e8b8 c1b7
00000020: 607e 0938 74b5 8638 30bf 70b6 c7dd 0a38
00000030: 8a47 c136 f427 9b37 92d7 07b7 a281 4936
00000040: ccde 8a38 9401 b2b7 b6e1 6eb5 fbcc c2b8
00000050: 2634 5fb8 3439 3138 f850 9bb7 090c 0437
00000060: 4b17 bcb7 b796 6636 e446 2637 0592 3037
00000070: 4945 d4b4 8e09 84b7 4683 9735 1d4a 81b7
00000080: 57f7 0f36 c7a4 2ab8 a123 9039 6af2 8c37
00000090: e880 6536 9850 8ab7 0a89 4c38 e026 0680
000000a0: 097d 1935 abc1 cb37 dd28 5eb8 dabd 7a38
000000b0: 8297 0937 2087 5637 7d06 d9b7 e131 8db7
000000c0: 7741 75b8 a178 f4b5 3581 9e37 507c 8338
000000d0: fc41 8e36 ed28 fd37 0527 70b7 d9fc 55b7
000000e0: 4acc d7b6 8659 7835 fc4d 2238 6bcb e736
000000f0: 699e a1b8 d948 60b5 6619 01b9 99bb 0eb8
00000100: da66 d536 ac1f a037 9502 5e38 9eaa 10b8
00000110: 576a c3b6 a79d 2f35 3fe4 8137 c99b 9537
00000120: b95a e837 6cc4 8eb7 7407 1d38 1d6c 8837
00000130: ec86 b937 c3b6 d0b6 5cab 8437 bf06 d2b8
00000140: b746 ba36 a3cb 5eb2 082c 6c36 1559 8837
00000150: 0dd2 38b6 766a 2635 01c9 cbb7 d0c5 34b7
00000160: a4de 0637 12b1 9838 eb75 c434 bd45 eeb8
00000170: 9701 6a38 cf20 a937 f66a 3e38 603b 6735
00000180: 5a7d 95b8 3b7d 6238 f62d 4cb8 5aca e536
00000190: 7a35 8a36 83c4 2e38 a809 2bb9 439a 0239
000001a0: c454 a4b4 c5dd a736 dd68 55b8 3e9a 1238
000001b0: aef3 70b7 aecb de37 d2bd e335 d6a9 0eb9
000001c0: 3022 b8b6 806e c337 3aec c237 d327 03b9
000001d0: 7334 8838 8e6d afb8 87c6 ff35 b704 ff37
000001e0: b34a 22b7 4a22 bcb8 89be 8438 1bd9 3eb7
000001f0: 1e64 3a37 ddf7 8cb7 2d1e 86b8 059c 0000

conv3.weight f4 [128, 128, 1]
-0.007202436 0.022794342 0.061139837 0.057684153 -0.056930825 0.0815518 0.029700926 0.07030264
0.07648324 -0.11680424 0.032232266 -0.07229682 -0.0064381957 -0.012259253 0.031760525 -0.0036696915
-0.069901355 -0.040574893 0.077453054 -0.104206085 -0.015418558 0.04300977 0.046258047 -0.029674675
0.043455373 -0.052540623 -0.0024360684 0.11325323 -0.07683849 0.076540746 0.10674883 0.034870572
0.058291856 -0.07502124 -0.020929683 -0.093993224 -0.06945205 -0.030555056 -0.046099428 9.934652e-21
0.08919931 0.066015005 -0.012168352 0.013880373 -0.012663465 -0.035461303 -0.081332065 -0.007515376
-0.05719015 0.018981935 0.025700023 -0.0009163138 0.044340577 0.13731569 0.023177644 -0.031687897
0.008127147 -0.02264275 0.00071449036 -0.049770236 -0.040878136 0.035415735 -0.10622111 -0.023502411
-0.040671855 -0.070397705 0.049893025 -0.02837275 0.047265787 0.081475444 -0.01884866 -0.026322957
0.037584435 0.054032896 0.03647475 -0.0633759 0.07783795 -0.027436975 0.034363512 0.026709557
0.061430387 -0.023511514 -0.1018815 0.029936016 -0.00033314058 0.01948327 0.09075376 0.04419209
0.04927047 -0.03192441 0.019025013 -0.06063147 -0.024267338 0.10528746 -0.09968243 0.09178703
-0.04052109 -0.0694545 -0.033001717 -0.01235373 0.040588334 -0.028517356 -0.0092005 -0.12491905
0.044004723 -0.039906304 0.1316524 0.056867436 -0.046212528 -0.07704015 0.05115519 0.069751225
0.028777583 0.03308884 0.023912387 -0.06412089 0.08520632 -0.02662921 -0.07504575 0.08920467
-0.05060771 -0.0034644403 -0.025720501 0.02212924 -0.026754899 0.087134205 -0.04121414 -5.9274296e-08
-0.046989404 0.019363213 -0.0055037653 -0.005544841 -0.0146867335 0.08335214 0.03314512 -0.04829124
0.061499637 0.08899286 -0.02251278 -0.054735217 -0.005600771 0.02863557 -0.078785606 0.0055864453
0.058930747 -0.0744894 -0.07369144 -0.0030708546 -0.057272617 -0.05401183 -0.03499488 0.028989157
0.009026698 -0.010845058 0.0021954703 -0.0216569 0.042525526 -0.041562576 0.05422738 0.023031043
0.034987018 0.0006569701 -0.006014487 -0.044214614 -0.020501258 -0.09592409 0.09110274 -4.3957343e-06
0.040208627 -0.04948879 0.08383674 0.08739363 -0.013389947 0.09258949 0.029480787 0.008323347
0.07475256 -0.031664215 0.05330812 0.06261284 0.053210605 0.027442992 0.03669163 -0.017750526
-0.060610104 0.08677155 0.047197655 -0.07620114 0.037205324 0.04439527 0.11677419 -0.019988349
0.10395796 0.1024206 -0.09763445 0.102374405 -0.061247304 0.019577399 0.0716162 -0.013307172
0.07101889 0.0101606455 -0.010463376 0.07564165 0.10602935 0.0078353295 -0.07550807 -0.07804147
-0.0012715922 -0.049417548 -0.044796072 -0.065428585 0.064614646 -0.030925082 -0.0024535034 -0.044290457
0.020616679 0.09727134 -0.0021707742 -0.049853325 -0.017450502 0.07840665 0.008396118 0.060985997
0.02772937 -0.01660081 -0.06677339 -0.03433496 -0.02793232 -0.031233458 -0.014873937 0.06920134
-0.06375466 -0.055488445 0.0035847733 -0.01043227 -0.07142638 -0.057600945 0.024546959 -0.105193205
-0.051243596 0.070113756 0.050615262 -0.014920215 -0.0021444203 0.029208083 0.07126586 0.024455518
-0.00799404 0.04572313 0.07911049 -0.052669894 -0.025950743 -0.0101145655 0.080223784 -0.0004811607
00000000: 6a02 ecbb 33bb ba3c c46d 7a3d 3846 6c3d
00000010: 4c30 69bd a104 a73d 5b4f f33c d5fa 8f3d
00000020: 3fa3 9c3d 1037 efbd fb05 043d 5b10 94bd
00000030: 80f7 d2bb 09db 48bc 5317 023d 357f 70bb
00000040: 7128 8fbd dc31 26bd b59f 9e3d 006a d5bd
00000050: 1f9e 7cbc 032b 303d 1479 3d3d 4e18 f3bc
00000060: 43fe 313d d634 57bd 72a6 1fbb 4ff1 e73d
00000070: 805d 9dbd 65c1 9c3d 219f da3d 72d4 0e3d
00000080: 71c3 6e3d bca4 99bd ba74 abbc 857f c0bd
00000090: e03c 8ebd 994e fabc c1d2 3cbd 07a9 3b1e
000000a0: 21ae b63d e032 873d c45d 47bc 816a 633c
000000b0: 6c7a 4fbc df3f 11bd 6d91 a6bd 8b43 f6bb
000000c0: 3840 6abd 0180 9b3c db88 d23c c734 70ba
000000d0: 779e 353d 7c9c 0c3e 0bdf bd3c 2bcb 01bd
000000e0: ba27 053c 4a7d b9bc a34c 3b3a e0db 4bbd
000000f0: d56f 27bd 1710 113d 748a d9bd 2188 c0bc
00000100: 8897 26bd ac2c 90bd a15c 4c3d f86d e8bc
00000110: c599 413d 99dc a63d 8168 9abc 3ea3 d7bc
00000120: 23f2 193d 9951 5d3d 8c66 153d 39cb 81bd
00000130: 8169 9f3d 82c3 e0bc c1c0 0c3d 00ce da3c
00000140: 6e9e 7b3d 389b c0bc 3fa7 d0bd 603c f53c
00000150: 5fa9 aeb9 619b 9f3c 1bdd b93d c402 353d
00000160: d5cf 493d 2cc3 02bd 58da 9b3c b458 78bd
00000170: 4ccc c6bc f4a0 d73d 4d26 ccbd d7fa bb3d
00000180: 71f9 25bd 293e 8ebd cf2c 07bd 4d67 4abc
00000190: f43f 263d 3b9d e9bc b2bd 16bc 8fd5 ffbd
000001a0: 4c3e 343d cb74 23bd e3cf 063e d4ed 683d
000001b0: 5949 3dbd 3ac7 9dbd 1b88 513d bbd9 8e3d
000001c0: f7be eb3c 2a88 073d e9e3 c33c d051 83bd
000001d0: a780 ae3d 8025 dabc 96b1 99bd f0b0 b63d
000001e0: 084a 4fbd aa0b 63bb cdb3 d2bc 6148 b53c
000001f0: 172d dbbc 6b73 b23d 28d0 28bd c794 7eb3
00000200: f677 40bd 9a9f 9e3c ee58 b4bb 7fb1 b5bb
00000210: a0a0 70bc 87b4 aa3d 2dc3 073d 09cd 45bd
00000220: 0be7 7b3d e341 b63d b96c b8bc 0932 60bd
00000230: ac86 b7bb 2595 ea3c 595a a1bd 800e b73b
00000240: 5e61 713d e68d 98bd 8aeb 96bd 6440 49bb
00000250: b196 6abd 823b 5dbd cb56 0fbd ab7a ed3c
00000260: b7e4 133c 78af 31bc e1e1 0f3b d069 b1bc
00000270: 3f2f 2e3d 853d 2abd 871d 5e3d 99ab bc3c
00000280: 8c4e 0f3d 8438 2c3a 2c15 c5bb 621a 35bd
00000290: 41f2 a7bc d973 c4bd 1394 ba3d 127f 93b6
000002a0: cdb1 243d c2b4 4abd 99b2 ab3d 6efb b23d
000002b0: 8261 5bbc 8f9f bd3d b181 f13c a65e 083c
000002c0: df17 993d 56b2 01bd 9e59 5a3d 293b 803d
000002d0: 5df3 593d 20d0 e03c f649 163d 8d69 91bc
000002e0: 4d42 78bd 48b5 b13d 5452 413d 580f 9cbd
000002f0: 9c64 183d d1d7 353d 4e27 ef3d 9bbe a3bc
00000300: e9e7 d43d e4c1 d13d 92f4 c7bd aca9 d13d
00000310: 74de 7abd c860 a03c 84ab 923d 5306 5abc
00000320: 5a72 913d d678 263c 946e 2bbc 02ea 9a3d
00000330: ea25 d93d c15f 003c faa3 9abd 35d4 9fbd
00000340: 8eab a6ba 0e6a 4abd 167c 37bd 6cff 85bd
00000350: af54 843d 9956 fdbc f5ca 20bb e969 35bd
00000360: 4fe4 a83c 3236 c73d 8c43 0ebb 0033 4cbd
00000370: 5bf4 8ebc aa93 a03d df8f 093c 74cc 793d
00000380: b428 e33c 6cfe 87bc 7dc0 88bd d1a2 0cbd
00000390: 52d2 e4bc 4fdd ffbc d0b1 73bc 6fb9 8d3d
000003a0: ce91 82bd da47 63bd 84ee 6a3b 1dec 2abc
000003b0: fe47 92bd f8ee 6bbd b416 c93c 896f d7bd
000003c0: cee4 51bd cd97 8f3d f351 4f3d eb73 74bc
000003d0: 6789 0cbb ca45 ef3c d6f3 913d f056 c83c
000003e0: 6ff9 02bc 2d48 3b3d ae04 a23d 63bc 57bd
000003f0: a796 d4bc 90b7 25bc 5e4c a43d 4c44 fcb9

conv3.bias f4 [128]
-5.7007833e-06 -5.6644614e-05 2.212909e-05 -3.345291e-05 7.5618955e-06 -6.658962e-06 6.2442574e-05 9.635697e-05
1.6016507e-05 -8.162962e-07 3.955075e-05 4.5840472e-05 2.4876306e-05 2.4411207e-07 6.434674e-05 -1.8815474e-05
2.5730717e-05 6.716476e-07 -7.1092486e-06 -1.7551552e-05 3.0818373e-05 -2.0393192e-05 3.3322336e-05 -3.2053282e-07
1.8175451e-05 -4.0979063e-05 -3.5210733e-06 1.9792965e-06 -1.35522e-05 -5.7195597e-05 1.7683817e-05 3.5102657e-05
-3.8097173e-06 1.5205289e-05 -2.4906381e-05 -2.8861386e-06 -1.2456276e-05 4.33412e-06 -5.93111e-40 9.225923e-06
6.1460573e-06 -2.1403878e-08 3.197963e-05 1.9668853e-06 -3.2647105e-05 1.0047092e-05 3.3790868e-05 4.069586e-06
-1.8545326e-05 -8.492975e-05 -1.6289587e-05 -4.864469e-06 -1.376124e-06 -1.7896491e-05 -1.0578057e-05 1.9711606e-05
1.7344368e-05 -4.1035484e-05 2.231122e-05 8.070221e-06 2.9328428e-05 3.0841507e-05 1.8092449e-05 2.5904126e-05
3.9471368e-05 -7.99565e-06 -1.1141187e-05 5.2601456e-05 4.2733495e-06 1.671983e-05 -9.38939e-05 7.864021e-06
3.534869e-05 3.0617113e-05 -2.2855416e-05 -3.4499528e-05 -4.1817435e-05 4.156395e-05 2.6635693e-05 -6.249895e-05
-1.1557656e-05 -3.218748e-05 -4.026248e-05 -3.0472802e-05 3.026585e-05 -4.083982e-05 -1.3953243e-06 2.6073212e-05
-6.4940086e-06 -3.3450462e-07 1.9166355e-05 -2.369606e-05 -2.1521e-06 5.9871807e-05 -3.444323e-05 -1.912034e-05
4.445567e-06 4.5279445e-05 -3.0020099e-05 -5.144865e-05 -7.5222895e-05 2.5553973e-05 -4.5641777e-05 1.8892964e-05
2.4962597e-05 2.9631206e-05 -1.5486845e-05 5.7798326e-05 -2.636883e-05 -3.6516834e-05 -4.3696706e-05 -7.4765617e-06
3.7034086e-05 -5.237622e-06 -1.6435357e-05 9.021248e-06 2.1887161e-05 1.9677818e-05 -1.8479202e-05 -1.9921616e-05
1.6493558e-06 1.6101748e-06 2.1895408e-05 -1.378163e-05 -1.138594e-06 -2.6638043e-06 -3.0347383e-06 1.9505269e-05
00000000: 5b49 bfb6 b195 6db8 dca1 b937 ca4f 0cb8
00000010: 30bc fd36 0c70 dfb6 9af3 8238 4113 ca38
00000020: 305b 8637 731f 5bb5 4be3 2538 d544 4038
00000030: 76ad d037 820e 8334 e5f1 8638 ecd5 9db7
00000040: 4bd8 d737 464b 3435 fb8b eeb6 ac3b 93b7
00000050: fa42 0138 0c12 abb7 96c3 0b38 b215 acb4
00000060: 7c77 9837 efe0 2bb8 944b 6cb6 0ed4 0436
00000070: 415e 63b7 4ee5 6fb8 b557 9437 313b 1338
00000080: 72aa 7fb6 381a 7f37 0cee d0b7 7caf 41b6
00000090: 4cfb 50b7 cf6d 9136 5a75 0680 0ac9 1a37
000000a0: 3b3a ce36 a0db b7b2 de21 0638 d5fe 0336
000000b0: 90ee 08b8 ee8f 2837 abba 0d38 7a8d 8836
000000c0: c991 9bb7 501c b2b8 9fa5 88b7 7839 a3b6
000000d0: 43b3 b8b5 6c20 96b7 6978 31b7 5a5a a537
000000e0: bf7e 9137 841d 2cb8 fb28 bb37 5665 0737
000000f0: 5206 f637 d15b 0138 3dc5 9737 b04c d937
00000100: 0f8e 2538 0e25 06b7 09eb 3ab7 62a0 5c38
00000110: cb63 8f36 9041 8c37 e7e8 c4b8 b7ef 0337
00000120: 5e43 1438 e06a 0038 a2b9 bfb7 96b3 10b8
00000130: 2165 2fb8 f454 2e38 b76f df37 de11 83b8
00000140: c1e7 41b7 0b01 07b8 82df 28b8 d89f ffb7
00000150: 6be3 fd37 6c4b 2bb8 fa46 bbb5 ccb7 da37
00000160: 1ce7 d9b6 f795 b3b4 6fc7 a037 e7c6 c6b7
00000170: cc6c 10b6 dd1e 7b38 2377 10b8 9e64 a0b7
00000180: 212b 9536 6fea 3d38 acd3 fbb7 91ca 57b8
00000190: fcc0 9db8 bd5c d637 7c6f 3fb8 557c 9e37
000001a0: c566 d137 8890 f837 bfe9 81b7 7b6c 7238
000001b0: a232 ddb7 a729 19b8 fb46 37b8 2ddf fab6
000001c0: 0c55 1b38 d5be afb6 a9de 89b7 f759 1737
000001d0: 529a b737 cb11 a537 c903 9bb7 581d a7b7
000001e0: 6f5f dd35 2f1d d835 08ac b737 a637 67b7
000001f0: cbd1 98b5 cfc3 32b6 68a8 4bb6 3f9f a337

conv4.weight f4 [100, 128, 1]
0.08106179 -0.07166719 0.004973694 -0.034216262 -0.021260045 -0.15134327 0.009241249 0.08420019
0.017893722 -0.027959133 -0.07218612 -0.0867702 0.036566775 -0.14023353 -0.033850294 -0.0416958
-0.010473037 -0.045044526 -0.0128232045 -0.07270592 -0.08892762 0.06061869 -0.07271799 0.0069078747
0.112512834 0.03685961 0.046173654 0.074244305 -0.12181091 0.038003724 0.060616504 -0.056792032
-0.09579146 -0.060777187 0.06809654 0.021342685 -0.003152619 -0.06673584 -8.6786995e-06 -0.049067426
-0.08344147 -0.08946196 -0.060010552 -0.024707155 0.00036725533 -0.049257983 -0.01528246 -0.002692637
-0.029974643 -0.10038003 -0.03164105 -0.06541815 0.048178148 -0.014813618 -0.045628253 0.0024222038
-0.03161959 0.032962766 -0.14347191 0.1295653 0.0056874924 0.05528112 0.089483626 0.007956828
-0.06445832 0.07681392 -0.06214154 -0.07797089 0.027674029 0.12585442 0.023514697 -0.042719256
-0.010591136 -0.14485818 0.013887195 -0.1268864 0.018067414 0.031227404 0.049511757 -0.09918238
-0.031337388 0.018221244 -0.08076787 0.012267373 -0.019498853 -0.028680597 -0.034298882 0.024581375
0.03276216 -0.052445617 -0.036351793 -0.020663051 0.006488642 -0.06297265 -0.069771655 -0.08253198
-0.13430788 -0.03366169 -0.10533557 -0.04599822 0.042425666 -0.05662725 0.023212625 -0.003174455
-0.014723292 0.06256554 0.0008007207 -0.089999415 -0.060689315 0.031299125 0.002126049 -0.027762054
0.023261726 0.0475043 0.14315383 0.05510163 -0.04151541 0.0007460862 -0.082732506 0.088483654
0.05781456 -0.043123387 0.014446638 0.03214909 0.020883044 0.08648799 -0.0049545863 0.07943931
-0.0607699 0.05347056 0.022592306 -0.022350121 -0.06255302 -0.07837514 0.033238668 -0.014333826
-0.080642745 0.012231893 -0.043004584 9.043302e-05 0.021214573 -0.052053217 -0.034583755 0.09860132
0.05841997 -0.015460477 -0.1698413 -0.006351781 0.099035636 -0.028857136 0.03236958 0.043572728
0.06140032 0.03942551 -0.06373454 -0.12717608 -0.06714742 -0.05623806 0.07638228 0.01583502
0.048721064 -0.064026535 -0.054972786 -0.11195408 -0.06708714 0.060655948 0.00042211692 0.00637819
0.0005866728 -0.053517792 -0.019572265 0.06897377 0.018292204 0.010448264 0.032835368 0.03863443
0.054794546 0.041627374 0.0508283 0.017189091 -0.10556283 -0.032721784 0.014666759 -0.029851409
0.08148668 -0.026457205 -0.036692087 0.03708231 0.08804107 -0.059407666 0.040822133 -0.034686785
0.038050547 0.09709865 0.0143982265 -0.089170344 0.0002292841 -0.041260503 -0.024420422 -0.037223265
-0.034793355 -0.047545563 -0.037577197 0.08234401 0.0776264 0.054379784 0.029912503 0.06437442
0.037127227 -0.06013773 -0.012572911 0.016450927 -0.047906276 0.024135428 0.16100365 0.03471565
-0.087887906 0.028917497 0.02307652 -0.0638265 0.06712148 0.04696662 0.07505988 0.05262912
0.038604096 0.012381718 -0.10618551 0.033714082 0.0793527 0.077319846 -0.010564592 0.065247886
-0.06377811 0.03323314 0.041369848 0.09852396 0.013488307 0.033121854 0.00010445684 0.03932492
-0.041134726 -0.09286689 0.041943 -0.01472834 -0.10968383 -0.09451686 0.061133586 0.04162883
-0.029324872 0.042658586 0.034533557 0.013314937 -0.09022076 0.10661338 -0.044950206 0.014392152
00000000: b903 a63d 3fc6 92bd 5ffa a23b 5a26 0cbd
00000010: 8c29 aebc bbf9 1abe 9c68 173c 2671 ac3d
00000020: db95 923c 8d0a e5bc 51d6 93bd 93b4 b1bd
00000030: 0bc7 153d 6199 0fbe 9ba6 0abd 37c9 2abd
00000040: 1a97 2bbc 9c80 38bd 6b18 52bc d7e6 94bd
00000050: af1f b6bd 4e4b 783d 2bed 94bd 745b e23b
00000060: 216d e63d 1afa 163d 9620 3d3d 660d 983d
00000070: 0078 f9bd cba9 1b3d 0349 783d c39e 68bd
00000080: 502e c4bd 80f1 78bd 3376 8b3d dbd6 ae3c
00000090: 2c9c 4ebb cdac 88bd bb9a 11b7 edfa 48bd
000000a0: 5de3 aabd d537 b7bd a0cd 75bd a966 cabc
000000b0: 2d8c c039 bdc2 49bd 4863 7abc f476 30bb
000000c0: 628d f5bc 0c94 cdbd 0c9a 01bd f3f9 85bd
000000d0: 7356 453d d1b4 72bc b1e4 3abd d6bd 1e3b
000000e0: 8b83 01bd f703 073d 4dea 12be c4ac 043e
000000f0: 255e ba3b 756e 623d 3143 b73d 5b5d 023c
00000100: b902 84bd 9e50 9d3d 2188 7ebd 34af 9fbd
00000110: a5b4 e23c fbdf 003e e5a1 c03c 63fa 2ebd
00000120: 7286 2dbc b455 14be 1e87 633c 82ee 01be
00000130: 1d02 943c 9dd0 ff3c d7cc 4a3d 2220 cbbd
00000140: a25b 00bd b844 953c a069 a5bd 17fd 483c
00000150: 0fbc 9fbc 92f3 eabc fc7c 0cbd e15e c93c
00000160: 9d31 063d 37d1 56bd 9ee5 14bd 8f45 a9bc
00000170: ad9e d43b cef7 80bd 71e4 8ebd 8706 a9bd
00000180: 0188 09be d7e0 09bd 2dba d7bd a168 3cbd
00000190: 89c6 2d3d faf1 67bd 6728 be3c 840a 50bb
000001a0: f639 71bc 5d22 803d 75e7 513a 9d51 b8bd
000001b0: 5c95 78bd 8333 003d 2f55 0b3b 3f6d e3bc
000001c0: 608f be3c de93 423d eb96 123e 3fb2 613d
000001d0: 100c 2abd ff94 433a a96f a9bd eb36 b53d
000001e0: f6ce 6c3d 26a2 30bd 97b1 6c3c c4ae 033d
000001f0: eb12 ab3c 9e20 b13d 155a a2bb 14b1 a23d
00000200: dce9 78bd f203 5b3d 8013 b93c 9a17 b7bc
00000210: cc1b 80bd 2583 a0bd 4525 083d 6cd8 6abc
00000220: 0628 a5bd 4768 483c 9325 30bd dca6 bd38
00000230: 2fca ad3c c135 55bd b2a7 0dbd 7def c93d
00000240: c749 6f3d f14d 7dbc e1ea 2dbe 9a22 d0bb
00000250: 32d3 ca3d cd65 ecbc f795 043d 5179 323d
00000260: e77e 7b3d a57c 213d 4187 82bd 723a 02be
00000270: 9684 89bd e159 66bd 506e 9c3d 72b8 813c
00000280: bd8f 473d 5820 83bd 252b 61bd 2e48 e5bd
00000290: fc64 89bd 5f72 783d 934f dd39 2300 d13b
000002a0: f2ca 193a 7935 5bbd 0456 a0bc 1f42 8d3d
000002b0: 88d9 953c 322f 2b3c 617e 063d 233f 1e3d
000002c0: 3f70 603d 7781 2a3d 5631 503d 23d0 8c3c
000002d0: 5331 d8bd 4707 06bd d94c 703c f18a f4bc
000002e0: 7de2 a63d c8bc d8bc 714a 16bd 9fe3 173d
000002f0: e04e b43d 7455 73bd 1c35 273d bb13 0ebd
00000300: e4da 1b3d a8db c63d 8ae6 6b3c f19e b6bd
00000310: fb6b 7039 c600 29bd 560d c8bc 6c77 18bd
00000320: 7a83 0ebd 23bf 42bd 8cea 19bd faa3 a83d
00000330: 97fa 9e3d 56bd 5e3d 110b f53c bcd6 833d
00000340: b812 183d fb52 76bd 9cfe 4dbc 18c4 863c
00000350: 5f39 44bd a9b7 c53c 24de 243e ff31 0e3d
00000360: 93fe b3bd 63e4 ec3c f80a bd3c 78b7 82bd
00000370: fd76 893d 1260 403d ffb8 993d a291 573d
00000380: 541f 1e3d b0dc 4a3c ca77 d9bd c717 0a3d
00000390: ab83 a23d de59 9e3d 1c17 2dbc afa0 853d
000003a0: 199e 82bd 791f 083d 6e73 293d eec6 c93d
000003b0: 0ffe 5c3c c8aa 073d d70f db38 2b13 213d
000003c0: e37c 28bd ff30 bebd 6ccc 2b3d 234f 71bc
000003d0: eaa1 e0bd 0e92 c1bd 3667 7a3d fe82 2a3d
000003e0: b73a f0bc c5ba 2e3d 0f73 0d3d e526 5a3c
000003f0: a9c5 b8bd 1e58 da3d b51d 38bd 10cd 6b3c

conv4.bias f4 [100]
-3.6026548e-05 3.100147e-05 -0.00010901646 2.9830297e-05 -1.3228163e-05 1.6369526e-05 -6.6989465e-05 -4.5528723e-05
2.6137182e-05 -1.9619827e-05 -6.0823902e-05 -2.5688334e-05 5.7024226e-05 2.5619296e-05 -1.823575e-05 -2.7951185e-06
5.473045e-05 -1.0426012e-05 -1.26338655e-05 4.1537896e-06 3.152755e-05 -3.7187863e-05 9.227473e-07 1.5053316e-05
-3.3600223e-05 3.1548466e-06 -9.21121e-05 5.411532e-06 -5.5553987e-06 9.658164e-06 -2.7481774e-05 1.2280184e-05
-1.4359246e-05 4.6310953e-07 4.9278457e-05 4.694975e-06 2.780045e-06 1.207258e-06 2.2549715e-05 2.7180635e-05
9.673262e-06 3.872556e-05 1.496335e-05 -4.736226e-05 4.7591606e-05 2.0021125e-05 -1.2305481e-05 6.473997e-05
-2.0878629e-06 9.75452e-06 9.222045e-06 1.0033597e-05 -1.3443362e-06 2.096981e-06 4.280061e-05 4.5509525e-05
1.2017071e-05 2.583511e-05 5.6685105e-05 -2.474725e-05 3.5271558e-05 8.842109e-06 -0.000101831436 -2.1891847e-05
-1.8292541e-05 -0.00015914929 -6.3679823e-07 -2.5643662e-06 -1.2779143e-05 -5.6737013e-06 -1.297499e-05 -4.510534e-06
2.3015434e-06 -4.287829e-05 1.8274259e-05 -6.002456e-06 -4.4049328e-05 2.4293606e-05 1.6490514e-05 -4.913881e-05
-2.1406442e-05 -4.2641e-05 -3.0846386e-06 -7.048407e-05 1.5068369e-05 -1.0443059e-05 3.989577e-05 -0.00019400043
-6.846388e-06 5.934557e-06 6.1003364e-05 4.5628814e-05 4.8729453e-05 -1.32646655e-05 2.6967773e-05 -2.685892e-05
-4.9294114e-05 -5.6530357e-06 -3.051841e-05 4.6610487e-05
00000000: 361b 17b8 9307 0238 c49f e4b8 133c fa37
00000010: 87ee 5db7 4a51 8937 b27c 8cb8 18f6 3eb8
00000020: 2c41 db37 4295 a4b7 2b1d 7fb8 477d d7b7
00000030: 4c2d 6f38 05e9 d637 faf8 98b7 c593 3bb6
00000040: 608e 6538 61eb 2eb7 0af6 53b7 c860 8b36
00000050: 733c 0438 2afa 1bb8 b6b2 7735 808d 7c37
00000060: f7ed 0cb8 dab7 5336 4f2c c1b8 b594 b536
00000070: 8368 bab6 8009 2237 a988 e6b7 fd06 4e37
00000080: 7ee8 70b7 4aa1 f834 57b0 4e38 8789 9d36
00000090: cf90 3a36 1209 a235 2529 bd37 f801 e437
000000a0: 584a 2237 416d 2238 190b 7b37 d7a6 46b8
000000b0: 199d 4738 0af3 a737 a373 4eb7 02c5 8738
000000c0: 361d 0cb6 58a7 2337 62b8 1a37 f955 2837
000000d0: 0a6f b4b5 dcb9 0c36 ce84 3338 7be1 3e38
000000e0: ed9c 4937 7ab8 d837 2bc1 6d38 5198 cfb7
000000f0: 8cf0 1338 9258 1437 568e d5b8 62a4 b7b7
00000100: ef72 99b7 50e1 26b9 71f0 2ab5 7a17 2cb6
00000110: 0066 56b7 b960 beb6 28af 59b7 3159 97b6
00000120: 3774 1a36 37d8 33b8 ac4b 9937 b468 c9b6
00000130: 9bc1 38b8 1fca cb37 1c55 8a37 651a 4eb8
00000140: fc91 b3b7 6dd9 32b8 b001 4fb6 d9d0 93b8
00000150: 27ce 7c37 9934 2fb7 c255 2738 986c 4bb9
00000160: 06ba e5b6 7521 c736 dddd 7f38 9161 3f38
00000170: da62 4c38 4e8b 5eb7 da38 e237 174f e1b7
00000180: 27c1 4eb8 35af bdb6 e500 00b8 a17f 4338

bn1.weight f4 [64]
0.24841875 0.16424659 0.638519 0.4204224 0.030370481 0.74233484 0.30017897 0.08391052
0.9430559 0.43266442 0.56797826 0.6131649 0.6919226 0.2986431 0.9610459 0.32843983
0.033667784 0.43056244 0.8376043 0.8468673 0.4062536 0.30879256 0.9816833 0.7048038
0.26163286 0.9556704 0.88919514 0.645247 0.07635644 0.18141688 0.33905768 0.9287089
0.57340384 0.10166784 0.31187993 0.7675126 0.5972425 0.72699666 0.5051919 0.5762521
0.7636657 0.920379 0.55743706 0.30408797 0.5378009 0.9593892 0.32658967 0.02484767
0.21934111 0.7961157 0.609533 0.23421358 0.67354923 0.9807954 0.6788517 0.68578327
0.45124716 0.9796813 0.769902 0.377121 0.9295948 0.8791523 0.6024948 0.81518173
00000000: 7c61 7e3e 4230 283e fb75 233f 9b41 d73e
00000010: 84cb f83c a809 3e3f 0fb1 993e 47d9 ab3d
00000020: 1d6c 713f 3186 dd3e 0667 113f 60f8 1c3f
00000030: d721 313f c0e7 983e 1b07 763f 4429 a83e
00000040: 3be7 093d ae72 dc3e 3c6d 563f 4ccc 583f
00000050: 7900 d03e 0f1a 9e3e 994f 7b3f 066e 343f
00000060: bef4 853e d1a6 743f 4ba2 633f e82e 253f
00000070: c460 9c3d 59c5 393e f898 ad3e debf 6d3f
00000080: 98ca 123f 3a37 d03d baae 9f3e b57b 443f
00000090: e2e4 183f 741c 3a3f 4254 013f 4285 133f
000000a0: 987f 433f f59d 6b3f 32b4 0e3f 6bb1 9b3e
000000b0: 52ad 093f 889a 753f c336 a73e 578d cb3c
000000c0: f59a 603e 3dce 4b3f 5b0a 1c3f afd5 6f3e
000000d0: b96d 2c3f 6815 7b3f 3ac9 2d3f 7e8f 2f3f
000000e0: de09 e73e 65cc 7a3f 4c18 453f 0116 c13e
000000f0: edf9 6d3f 2010 613f 193d 1a3f c0af 503f

bn1.bias f4 [64]
0.014856979 -0.044582948 0.058870424 0.016358437 0.01211305 0.06837452 -0.029987538 -0.03460778
-0.062829174 -0.004124258 0.072552174 -0.04937333 -0.04361982 0.021368386 0.06457957 0.030355811
0.00401987 -0.042749114 -0.04099395 0.06024662 -0.008649229 0.027436819 0.012645122 -0.009966188
-0.037296705 0.022529652 -0.011570965 -0.019813119 -0.019212145 0.01716378 0.015730802 0.08663725
-0.032722626 -0.028838152 -0.026175179 0.033174664 -0.03248927 -0.04010188 -0.042639893 -0.005012488
-0.0133348415 -0.08944957 -0.030354802 0.09426942 0.03522043 -0.05790939 0.022979954 -0.011156792
-0.012103178 0.048437655 -0.019364648 0.025003642 0.013211143 0.0514489 0.059683684 0.05328846
0.062640086 0.023302505 0.012114236 0.003024645 0.026208716 0.016900511 0.05358112 0.021905635
00000000: b06a 733c 9c9c 36bd 1d22 713d 2102 863c
00000010: d075 463c f107 8c3d 6da8 f5bc e3c0 0dbd
00000020: 95ac 80bd c924 87bb 3c96 943d b03b 4abd
00000030: b2aa 32bd c10c af3c 4b42 843d c0ac f83c
00000040: 1db9 833b b219 2fbd 46e9 27bd 29c5 763d
00000050: 7fb5 0dbc 2ec3 e03c 7c2d 4f3c 3949 23bc
00000060: 6ec4 18bd 1b90 b83c 2594 3dbc 1f4f a2bc
00000070: ca62 9dbc 0e9b 8c3c e2dd 803c df6e b13d
00000080: 2908 06bd fd3d ecbc 546d d6bc 28e2 073d
00000090: 7813 05bd de41 24bd 2ba7 2ebd cc3f a4bb
000000a0: 617a 5abc 5631 b7bd a2aa f8bc 5310 c13d
000000b0: 4c43 103d 6632 6dbd 7540 bc3c faca 36bc
000000c0: 684c 46bc 9066 463d 9ca2 9ebc 70d4 cc3c
000000d0: 8d73 583c 15bc 523d e176 743d 0045 5a3d
000000e0: 7249 803d e5e4 be3c ca7a 463c 1f39 463b
000000f0: a9b3 d63c f172 8a3c e077 5b3d 7273 b33c

bn1.running_mean f4 [64]
-7.028435e-05 -1.7853643e-05 -0.00017336606 -7.2612376e-05 5.2109817e-06 7.200307e-06 -6.8341986e-05 -9.057699e-06
-2.2752978e-05 3.346894e-06 0.00015762975 1.6257818e-05 -5.9198595e-05 -7.668852e-05 8.6062064e-05 -8.692298e-08
8.3301484e-07 1.5251524e-05 -0.00015061052 -0.00016215457 6.24449e-05 -1.3456256e-05 -4.3145876e-05 -9.131796e-06
2.3477372e-05 -3.983442e-05 -2.552719e-05 -6.1850683e-06 -4.2168444e-06 4.5173183e-06 -7.881304e-05 0.000137305
-2.015156e-06 2.1837022e-05 4.8180777e-05 3.0761872e-05 -5.624951e-06 -4.4045202e-05 0.00027521935 -3.8932878e-05
-8.098324e-05 -0.00012328196 0.0009346184 3.6395977e-05 -3.4954992e-05 1.6278784e-06 6.876586e-05 2.7680558e-06
8.650694e-06 0.00019981676 -4.393184e-05 -5.095513e-06 -4.5888406e-05 6.8635316e-05 0.00027297172 1.0831835e-05
1.736615e-05 -0.00013128365 -0.00025061227 3.190399e-05 -0.00010670848 -0.00010284804 1.1934828e-05 -0.00030536592
00000000: a065 93b8 68c4 95b7 99c9 35b9 7947 98b8
00000010: fed9 ae36 2b9a f136 d352 8fb8 85f6 17b7
00000020: a6dd beb7 339b 6036 6a49 2539 6661 8837
00000030: 024c 78b8 d6d3 a0b8 387c b438 6aaa bab3
00000040: 589c 5f35 cce0 7f37 34ed 1db9 0908 2ab9
00000050: daf4 8238 2ec2 61b7 88f7 34b8 c434 19b7
00000060: 46f1 c437 e213 27b8 3923 d6b7 5589 cfb6
00000070: 6b7e 8db6 7893 9736 6e48 a5b8 88f9 0f39
00000080: 1e3c 07b6 a62e b737 b715 4a38 4f06 0138
00000090: f6bd bcb6 2dbd 38b8 514b 9039 dc4b 23b8
000000a0: 8cd5 a9b8 4045 01b9 2e01 753a e2a7 1838
000000b0: a39c 12b8 7a7d da35 6436 9038 d6c2 3936
000000c0: 7322 1137 e785 5139 7443 38b8 20fa aab6
000000d0: 4d78 40b8 4ef0 8f38 a51d 8f39 61ba 3537
000000e0: 86ad 9137 30a9 09b9 9c64 83b9 a6d0 0538
000000f0: aec8 dfb8 1fb0 d7b8 b23b 4837 8519 a0b9

bn1.running_var f4 [64]
0.031636953 0.07056593 0.076937445 0.065010674 0.011423649 0.07895099 0.06444691 0.03599336
0.059837442 0.049345188 0.027590703 0.046960883 0.058920827 0.034614958 0.085488066 0.060106028
0.043933496 0.029121641 0.01824479 0.043913744 0.06358692 0.07097135 0.045669597 0.04298252
0.027024198 0.06785599 0.06370885 0.072223544 0.09308322 0.110654354 0.083801396 0.020262243
0.054318674 0.0893212 0.021676902 0.06766362 0.069460385 0.038692653 0.020528069 0.09658052
0.053256303 0.050044414 0.004257742 0.11380055 0.07235804 0.07343135 0.047104824 0.061549556
0.04538572 0.057588078 0.04788612 0.055230815 0.0326408 0.044438668 0.03354248 0.04512777
0.084025845 0.053481426 0.06190452 0.06319742 0.04061857 0.0490674 0.06062141 0.06825136
00000000: c095 013d df84 903d 6191 9d3d 5124 853d
00000010: 422a 3b3c 0fb1 a13d befc 833d c66d 133d
00000020: 1b18 753d 2e1e 4a3d e605 e23c 0e5a 403d
00000030: f756 713d 6ac8 0d3d 5e14 af3d bd31 763d
00000040: 9cf3 333d 8290 ee3c 1976 953c e6de 333d
00000050: dc39 823d 6d59 913d 0b10 3b3d 700e 303d
00000060: da61 dd3c 15f8 8a3d c979 823d f0e9 933d
00000070: 6aa2 be3d c09e e23d 11a0 ab3d 01fd a53c
00000080: 427d 5e3d 09ee b63d c293 b13c 3993 8a3d
00000090: 3f41 8e3d 307c 1e3d 7b2a a83c 02cc c53d
000000a0: 4823 5a3d 5ffb 4c3d 8784 8b3b 4310 e93d
000000b0: 7430 943d 2d63 963d fdf0 403d 631b 7c3d
000000c0: 60e6 393d 7ae1 6b3d 3c24 443d b539 623d
000000d0: 5cb2 053d 5205 363d d763 093d e6d7 383d
000000e0: be15 ac3d 570f 5b3d 988f 7d3d a66d 813d
000000f0: a85f 263d e6fa 483d 284e 783d 5ec7 8b3d

bn2.weight f4 [128]
0.5412002 0.81399465 0.5763608 0.082222894 0.84307885 0.37936118 0.2599592 0.45790994
0.8929568 0.6033893 0.36579612 0.6991068 0.69218844 0.68392646 0.083571725 0.093521655
0.6111622 0.5139316 0.08767373 0.9371536 0.7346938 0.74727005 0.18329813 0.38763785
0.6987773 0.44926605 0.26893657 0.88525724 0.5597968 0.6791301 0.033088706 0.33883676
0.1593816 0.40003002 0.87943006 0.5854079 0.65225023 0.4330915 0.25193894 -0.00026990584
0.7184726 0.4635693 0.7329198 0.98761445 0.64591044 0.3750201 0.933547 0.24003693
0.7595256 0.5022485 0.7471561 0.8210995 0.8055348 0.8728058 0.24441788 0.26516932
0.49454153 0.11165651 0.5046991 0.1412739 0.77611727 0.06506004 0.83672374 0.4534791
0.17604409 0.8204451 0.46283147 0.32454678 0.46815664 0.55807155 0.23136014 0.43781316
0.46573177 0.52636486 0.7362794 0.9182612 0.4420248 0.08912349 0.407325 0.46080992
0.7435735 -0.00021959258 0.38904676 0.19777481 0.11931193 0.55952954 0.5716833 0.81659055
0.20736268 0.8036072 0.095093 0.95758605 0.9752447 0.81457776 0.48751107 0.028373156
0.7173561 0.5294241 0.3184182 0.8589052 0.075043954 0.5169341 0.91033334 0.8853507
0.1830311 0.19297242 0.5734675 0.6286864 0.37167895 0.6339047 0.37597626 0.96969795
0.33784884 0.95713073 0.2927212 0.9489252 0.46784958 0.68899494 0.31673607 0.3754376
0.26695493 0.8376118 0.7442069 0.66443205 0.22969635 0.6513658 0.6762023 0.0014772498
00000000: 198c 0a3f f461 503f 628c 133f 7a64 a83d
00000010: 04d4 573f a13b c23e 5f19 853e 2c73 ea3e
00000020: d198 643f b977 1a3f a149 bb3e aaf8 323f
00000030: 4333 313f ce15 2f3f a727 ab3d 4888 bf3d
00000040: 2075 1c3f 0591 033f 498e b33d 4ce9 6f3f
00000050: e514 3c3f 174d 3f3f 81b2 3b3e 7878 c63e
00000060: 12e3 323f 3306 e63e 0eb2 893e 38a0 623f
00000070: d84e 0f3f 78db 2d3f 0688 073d 037c ad3e
00000080: ee34 233e bcd0 cc3e 5422 613f 4bdd 153f
00000090: dff9 263f 2bbe dd3e 24fe 803e 2682 8db9
000000a0: d2ed 373f f558 ed3e a2a0 3b3f 4dd4 7c3f
000000b0: 635a 253f a202 c03e f0fc 6e3f 3ecc 753e
000000c0: 4570 423f 5c93 003f 9f45 3f3f 9433 523f
000000d0: 8737 4e3f 3370 5f3f ae48 7a3e 46c4 873e
000000e0: 8c34 fd3e 2bac e43d f633 013f 1baa 103e
000000f0: 9faf 463f 333e 853d 8733 563f 6a2e e83e
00000100: e744 343e b108 523f 3ff8 ec3e ff2a a63e
00000110: 3ab2 ef3e c7dd 0e3f ace9 6c3e 0c29 e03e
00000120: 6574 ee3e d9bf 063f cf7c 3c3f 2a13 6b3f
00000130: 1351 e23e 6086 b63d e78c d03e 47ef eb3e
00000140: d55a 3e3f 6f42 66b9 2331 c73e 7b85 4a3e
00000150: d059 f43d 543d 0f3f d659 123f 140c 513f
00000160: e256 543e 34b9 4d3f 1ec0 c23d 5c24 753f
00000170: a3a9 793f 2b88 503f 0d9b f93e d26e e83c
00000180: a6a4 373f 5688 073f b607 a33e 36e1 5b3f
00000190: a5b0 993d cb55 043f 9b0b 693f 58a6 623f
000001a0: 816c 3b3e 909a 453e c4ce 123f 98f1 203f
000001b0: b44c be3e 9447 223f f67f c03e 203e 783f
000001c0: 86fa ac3e 8506 753f 8edf 953e c3ec 723f
000001d0: fb89 ef3e f961 303f 3b2b a23e 5b39 c03e
000001e0: 51ae 883e ba6d 563f 5884 3e3f 3818 2a3f
000001f0: 8535 6b3e e9bf 263f 981b 2d3f 47a0 c13a

bn2.bias f4 [128]
-0.03487395 -0.00707814 0.04500052 -0.030266546 -0.032358352 -0.015132983 -0.05136332 -0.017119152
-0.05069535 -0.033814643 -0.06864125 -0.032689456 -0.012000937 0.010696992 -0.02293351 0.0012707298
0.0028428882 -0.057751052 0.0043071685 -0.102404304 0.003231146 0.020145256 -0.008997617 -0.06773735
-0.05352808 -0.020790117 -0.03694609 -0.07834957 -0.022882363 -0.024933394 -0.05523937 0.06334422
0.02851352 -0.011101322 -0.022414707 -0.009821874 -0.007108035 -0.035994124 0.028970221 -0.0033856132
-0.010793132 -0.05803705 -0.008101317 -0.06872249 -0.028893499 0.027682599 -0.014765219 -0.014590797
-0.063570894 0.03017541 -0.022283066 -0.018114662 0.003516295 -0.020763721 -0.015945021 -0.045585144
0.013831871 -0.03239423 -0.016995827 -0.008459375 -0.032911487 -0.027235227 0.0122527275 0.004907466
-0.007172121 -0.030724244 -0.06918716 -0.03582771 -7.263271e-05 -0.0113599235 -0.062884696 -0.06478546
-0.034571927 -0.01554125 -0.021932391 -0.02363216 -0.026046969 -0.008356068 -0.061980907 -0.019834846
-0.02875071 0.009985969 -0.0019460324 -0.02507119 -0.018512845 -0.05013308 -0.077063106 0.0040264656
-0.021899676 -0.033145588 -0.021908537 -0.03482672 -0.02069996 0.012610918 -0.044362042 -0.011049813
-0.012808556 -0.015354009 0.003591861 -0.03347674 -0.06991377 -0.02157367 -0.066013 -0.019487988
-0.033180363 0.006348886 -0.02903373 0.033510953 -0.002959404 -0.046228122 -0.01690494 -0.08929627
-0.023940116 -0.041220672 0.013921725 0.041078884 -0.047286768 -0.04785893 -0.042053413 -0.0010808338
-0.026253624 -0.049049456 -0.017164122 0.0013841345 -0.057295542 -0.05366037 -0.024487846 -0.008950052
00000000: fdd7 0ebd beef e7bb 7752 383d 8cf1 f7bc
00000010: 318a 04bd 55f0 77bc 5862 52bd 773d 8cbc
00000020: eda5 4fbd 3981 0abd c993 8cbd 61e5 05bd
00000030: 949f 44bc 7042 2f3c 0edf bbbc 9e8e a63a
00000040: c04f 3a3b 5e8c 6cbd 2623 8d3b 59b9 d1bd
00000050: a2c1 533b aa07 a53c be6a 13bc e1b9 8abd
00000060: 4340 5bbd 0950 aabc c954 17bd bd75 a0bd
00000070: cb73 bbbc 1e41 ccbc ad42 62bd 9dba 813d
00000080: 2f95 e93c 52e2 35bc 0c9f b7bc edeb 20bc
00000090: 85ea e8bb 936e 13bd f552 ed3c 2ae1 5dbb
000000a0: add5 30bc 42b8 6dbd 63bb 04bc 60be 8cbd
000000b0: 0fb2 ecbc 9ec6 e23c d1e9 71bc 3d0e 6fbc
000000c0: 7531 82bd 6c32 f73c fa8a b6bc 3365 94bc
000000d0: a471 663b ae18 aabc 229f 82bc 7db7 3abd
000000e0: 129f 623c d0af 04bd d53a 8bbc 3199 0abc
000000f0: 32ce 06bd 691c dfbc aabf 483c cfce a03b
00000100: 1d04 ebbb 69b1 fbbc ffb1 8dbd 14c0 12bd
00000110: 6452 98b8 f91e 3abc b1c9 80bd 3dae 84bd
00000120: 4b9b 0dbd baa0 7ebc 8fab b3bc 3b98 c1bc
00000130: 7460 d5bc e4e7 08bc b1df 7dbd b07c a2bc
00000140: 9c86 ebbc 319c 233c 0312 ffba 1962 cdbc
00000150: 40a8 97bc 5858 4dbd 43d3 9dbd 71f0 833b
00000160: f366 b3bc abc3 07bd 8879 b3bc 76a6 0ebd
00000170: f692 a9bc 069e 4e3c f9b4 35bd 460a 35bc
00000180: fada 51bc 628f 7bbc 6e65 6b3b e81e 09bd
00000190: f32e 8fbd 44bb b0bc d331 87bd 46a5 9fbc
000001a0: 22e8 07bd 510a d03b 25d8 edbc c842 093d
000001b0: 8ff2 41bb b359 3dbd 3b7c 8abc f6e0 b6bd
000001c0: 101e c4bc 02d7 28bd f217 643c 5542 283d
000001d0: c5af 41bd ba07 44bd 3340 2cbd c4aa 8dba
000001e0: d711 d7bc 15e8 48bd c69b 8cbc d96b b53a
000001f0: bbae 6abd faca 5bbd bc9a c8bc 3da3 12bc
