part_pc_ae_chair/194_net_part_pc_encoder.pth (torch_old, 243876 bytes, 28 tensors)

conv1.weight f4 [64, 3, 1]
00000000: 5623 823e 597b cfbd 9047 cbbe e467 d93e
00000010: 1d7e 643e e690 053f 60f1 c33e 9dea b7be
00000020: a716 033f 5be0 163e d027 b9be beb6 0cbf
00000030: fecc 853e 984d 653d 31ad c9bd 9e48 debe
00000040: 7e80 01bf fb1a 8bbe 0023 a3be 2988 c43e
00000050: 6c3d dfbe 28a4 313e 0d99 76be be58 ccbe
00000060: dfc8 97be 309d e4be 533b a83e af23 163d
00000070: 0308 f13d e99a 163f a9ad a5be d7e0 303e
00000080: 7545 73be 5b45 ba3c 1fca 04bf 0884 60bd
00000090: 8231 fcbe edce cd3e 3c03 b03b fe61 8bbe
000000a0: 6384 a2be b21a 6cbe 7fbf 0cbf a5a1 8ebe
000000b0: 2f9f f73e 50d7 96bd 20fc bc3e 8981 023f
000000c0: 2026 37be 0261 e7be 298b 36be ff19 c03e
000000d0: 528d 313e bcb0 4e3e 9d51 673d 5320 9ebe
000000e0: fc37 153d f299 903e cc8c e1be d3ee e5bd
000000f0: 8f22 a7be 4196 d03e 78ff c93e dfa0 4e3d
00000100: eaaa debe 0f55 063f 7dbf d2be a12b 9f3e
00000110: 038a 613e 1613 a93e df8b c8be dafa c3bc
00000120: 252e bdbe 5c6a 1bbe b4e9 4f3e 6864 c9be
00000130: e00e 07bf 5957 963d aad0 afbe 8c3c fabe
00000140: 513c 5b3e 3f9d 093f 05eb a73e 9dd8 9fbe
00000150: 915e bfbe aa41 fabe b05b fd3e 8441 0cbf
00000160: d01d 0bbf 3cf7 c3be 6445 9abe 00ac 0c3f
00000170: 36b1 ce3e 810e fbbd ed88 a6be a085 c43d
00000180: a2ea 52bb f17a 523e e2c5 15bf 484c 523d
00000190: 101f 17bf cb8d f2be fe1d 103e 9013 78be
000001a0: d769 7bbe 36a3 ddbe 0b25 1d3e de3c 093f
000001b0: b90b 153e fe41 f73e bb65 e2be 5e23 71be
000001c0: 9170 803e ed93 c4be 8661 64be c2c3 933e
000001d0: 8357 1abd 2aba b53e 3504 023f 7b87 043f
000001e0: 43b6 f53e 5c3c 68be aab5 a03e 3167 803e
000001f0: 2e77 d73e 90ab 873e 0d44 093e 3fce 743d
00000200: f146 c9bd 0a53 f2be 6735 09bf 18a3 003f
00000210: a878 a63e f298 06bf b1d9 8a3e eeb9 3cbe
00000220: bcbc cf3e 02d5 0abf 7592 413e 2bc9 dbbe
00000230: 0bf3 963e a69a b2bd 9bf1 fc3e 0ecc ccbe
00000240: 9b81 b9be d76e ba3e 71f6 4a3e 7797 f0be
00000250: 6182 7fbe eff7 ba3e 8108 0ebf 105b 54be
00000260: 8fa7 00bc 6e3d 06bf 54ef a4be 88c6 d7bd
00000270: 3b4a d0be b5df 6bbe e4e1 0ebe 3644 163f
00000280: 3ce3 d93c d127 d3bd 32e3 35be 15bb adbe
00000290: 71a5 76be 4444 7b3d 0133 02bf 5929 133e
000002a0: f753 ff3e 9279 87be a54c 093f f9d7 e33e
000002b0: 6996 66be 257e bd3e 1599 b93e af6c 99be
000002c0: 8f27 e8be a3d9 883e 5cc9 983e bfcb 08bf
000002d0: fa0f 613d edeb e93e fda8 39be ff9b cebe
000002e0: deba a33e 8aa0 893e 4edc c0be c4de e63e
000002f0: 3efd 7a3e 6a2a 2f3c 1150 d13e e3c6 083f
0.25417584 -0.101309486 -0.39703035 0.42462075 0.22313733 0.5217422 0.38270092 -0.35921183
0.5120644 0.14734022 -0.36163187 -0.5496634 0.2613296 0.055982202 -0.09847487 -0.43414778
-0.5058669 -0.27169022 -0.3186264 0.38385132 -0.4360155 0.17347777 -0.24081822 -0.39911455
-0.2964544 -0.44651175 0.3285776 0.036655124 0.11769106 0.58830124 -0.32359055 0.1727327
-0.23756965 0.02273815 -0.5187091 -0.054813415 -0.4925652 0.40196934 0.0053714793 -0.272232
-0.31741628 -0.23057058 -0.549797 -0.278577 0.48363635 -0.07365286 0.36911106 0.50978905
-0.17885637 -0.451912 -0.17826523 0.37519833 0.17339066 0.20184606 0.056474317 -0.30884036
0.036430344 0.2824245 -0.44052732 -0.11227193 -0.32643554 0.40739635 0.3945272 0.050446387
-0.43489772 0.5247354 -0.4116172 0.31087974 0.22025304 0.33022374 -0.39169213 -0.023923326
-0.36949268 -0.15177292 0.20303994 -0.39334416 -0.5275707 0.07340879 -0.34338886 -0.4887432
0.21409728 0.53755563 0.32796493 -0.3121995 -0.37376836 -0.48878223 0.49484015 -0.5478747
-0.54342365 -0.38274562 -0.30131066 0.5494995 0.40369576 -0.12258626 -0.3252634 0.095957994
-0.003218331 0.20554711 -0.5850507 0.05134228 -0.5903177 -0.47373804 0.14073941 -0.24226213
-0.24552093 -0.43288583 0.15346162 0.536085 0.14555253 0.48292536 -0.4421824 -0.23548648
0.2508588 -0.38394108 -0.22302827 0.2886029 -0.037681114 0.35493594 0.5078767 0.51769227
0.47990617 -0.22679275 0.313886 0.2507873 0.42083114 0.2649808 0.13404866 0.059767004
-0.09827984 -0.4732898 -0.5359711 0.5024886 0.32513928 -0.52577126 0.2711921 -0.18430302
0.4057368 -0.54231274 0.18903525 -0.42926916 0.29482302 -0.08720903 0.4940308 -0.3999943
-0.36231694 0.3641269 0.19820572 -0.46990559 -0.2495208 0.36517283 -0.55481726 -0.20737863
-0.007852449 -0.52437484 -0.32213843 -0.10535914 -0.40681633 -0.23034556 -0.13953358 0.5869783
0.026597612 -0.10310329 -0.1776245 -0.33931795 -0.24086548 0.0613444 -0.50859076 0.14371242
0.49868748 -0.26459938 0.53632575 0.44500712 -0.22518314 0.37010303 0.36249605 -0.29965732
-0.4534268 0.26728544 0.29841125 -0.5343589 0.054946877 0.4568781 -0.1813087 -0.4035339
0.31978506 0.26880294 -0.3766808 0.45091832 0.24510667 0.010691265 0.40881398 0.5342848

conv1.bias f4 [64]
00000000: 7ab9 0939 7223 3a38 a76b a1b8 4b16 0439
00000010: ad90 3bb6 a93c 9d35 cb43 d038 ae8a 04b8
00000020: fab3 aab8 d45e 0839 da58 8539 dd42 12ba
00000030: 273a 8a39 1003 17b9 5d69 3d37 3802 0cb9
00000040: 71b7 4db7 19da 053a 9ee9 abb9 1661 44b9
00000050: 5058 31b8 a54f 30b9 1aad 5e3a 962e 1539
00000060: a5cc 3738 324a 1fb8 ed1a 0c39 69bb 7639
00000070: e3b8 8337 601e 19b7 7e9c a838 8a43 a339
00000080: ef76 e636 99c7 35b8 4cc1 a039 7632 06ba
00000090: 2805 3938 9dea 2ab9 ec33 05ba 562e 9939
000000a0: 30fc dd38 59d9 b539 c8b6 6eba bf39 97b9
000000b0: d9f0 8db8 7282 e238 2970 3238 c6bb 8a37
000000c0: d4dc 7c38 0ec7 8737 72e4 86b9 bc31 d137
000000d0: c0c7 4fb9 a31a fd38 47ed 3f3a e1e0 beb8
000000e0: c692 23b9 c519 7a3a 8c90 e638 d1ed 11b8
000000f0: ee9f ab39 0ace 1839 3fca 0d39 761a 7039
0.00013134434 4.4378867e-05 -7.69713e-05 0.00012596806 -2.7949384e-06 1.1715066e-06 9.93084e-05 -3.1600408e-05
-8.139755e-05 0.00013005297 0.00025433936 -0.00055794214 0.00026364738 -0.00014401623 1.128981e-05 -0.00013352267
-1.2261663e-05 0.00051060464 -0.0003278972 -0.00018728184 -4.2282336e-05 -0.00016814338 0.0008494422 0.00014227102
4.382119e-05 -3.7977654e-05 0.00013361471 0.00023530204 1.5702512e-05 -9.126583e-06 8.040013e-05 0.00031140103
6.86838e-06 -4.3339653e-05 0.00030661596 -0.00051192136 4.411224e-05 -0.00016299864 -0.00050812843 0.00029216957
0.00010585075 0.00034684947 -0.0009106216 -0.0002884399 -6.768265e-05 0.00010800817 4.2542964e-05 1.653832e-05
6.0287144e-05 1.6185946e-05 -0.00025728677 2.49379e-05 -0.00019815471 0.000120689416 0.0007321429 -9.101793e-05
-0.00015599569 0.0009540583 0.000109941786 -3.4792178e-05 0.00032734819 0.00014572605 0.0001352215 0.00022898041

conv2.weight f4 [128, 64, 1]
00000000: 30f1 1ebc 7a84 d0bd cb6a df3c 37a3 a33d
00000010: c7fb a53c 2b31 883d a9f9 9ebd 98a8 873b
00000020: 3717 f1bb 8be0 e0bd 13d3 e4bd 03d9 64bd
00000030: b4a4 fcbd fe2c 66bc fd8f 4a3c eefe 3cbd
00000040: 5170 2c3d c66f 08be 3f1a 14bd 3951 0abd
00000050: 2755 41bd 355c ef3d fbbd d9bd a4bc 833c
00000060: 797a 113e 5c2a 523d 4e05 f23d 9d57 bfbd
00000070: 5a93 133e d2dc 1fbd 6fe6 b43c 2de8 263d
00000080: 5977 b23d 713d 4fbd 8db0 9cbd 28c7 d2bd
00000090: 7a6f 97bd ea01 c73d 07bd 483d da5c aebc
000000a0: d4e8 5abd af0b b43d 770f 783d 410c 0b3e
000000b0: 4430 86bd db5e a1bc 1220 c33d dfcf bebd
000000c0: 12b9 86bc 0b54 d53d 5262 98bd 9262 a6bc
000000d0: 4f65 ae3c 4d0a 5ebd 21b3 64bc 5c81 b63d
000000e0: e492 88bd 506b 673d 6492 b6bc d886 cbbc
000000f0: 3dd4 773d 606d fd3c e26f 673d 9624 363d
00000100: 4db9 a0bd 7a9b f6bd 5506 eb3d 7b0a c63d
00000110: 6bf2 aa3b 68b2 9e3d 1d9f 05bd 4bd9 923b
00000120: 024c cebd 5de0 ddbd 9b51 b8bb 73fd c5bc
00000130: 5352 903d 36ac 02be cd1b 1d3c 430b ee3d
00000140: 0c61 d5bd 0fd1 bcbd 6869 e33c 7007 c33d
00000150: 1053 b63d 21cd 063e 3f5d d93c c098 903c
00000160: e9b0 b93d b7a1 e5bd 4d24 fdbc 4507 bbbd
00000170: 4d06 85bd 5b75 c33c d87d 813d 7306 02ba
00000180: 8ba5 8cbd c063 e2bd f454 e83c 7419 1cbd
00000190: bf0a e23d 5447 473d 613c 21bd 4eaf 3a3d
000001a0: b17c d43d d2cc 21bd 7383 d3bd 6cc6 393c
000001b0: 4a01 5c3d d9e8 56bd 0169 023e 4f11 7dbc
000001c0: ddcf 243d d958 8d3d 9680 5b3c 5073 a13d
000001d0: a96c f2bd 6b45 fdbb f1c3 783c 38ff 713d
000001e0: c2cd f8bc 0bbe 0fbc dcf4 c03d 6d5c d03d
000001f0: 13a6 01be 920c 353d 520f d6bb 1a43 013d
00000200: 6c97 95bd 6385 f43c 0874 a33d f05b 06be
00000210: b519 bb3b 6d17 193d 8228 a0bd 8afe 25be
00000220: 0489 1a3d 5af2 a4bc 5479 4f3d 8ba0 01be
00000230: 8503 ea3d 36c2 debd 9325 38bd 9cb2 5dbd
00000240: 2481 5cbc b085 45bd 5f72 dabd e160 1a3d
00000250: bdbb c23d 6ef2 bdb9 4f35 593d f5f6 f9bd
00000260: 14cf 2cbd 2372 c3bd d9be b3bd 5c4d 993d
00000270: daf0 a8bd ca05 0fbe 0d11 d5bd 1178 be3d
00000280: 1eee 2fbc 1504 d0bd 705a 933b 38eb 773d
00000290: 39f2 da3c 586a 60bd e491 fb3d f59e 023d
000002a0: 29f4 993d 8432 b03d 35f4 03be 35db 8ebd
000002b0: 3f93 43bd b43a 7bbd 16ec 1bbb 0d08 ad3c
000002c0: d71b 4a3d 1049 4f3d 8874 af3d d7a4 9abb
000002d0: 923d 813d 4618 bd3d f67b c2bd 3e13 a5bd
000002e0: b003 623d accb 57bc 412e 35bd d68f c63d
000002f0: 7177 bd3d b043 f83d 8bbf 44bc f150 dbbc
00000300: f699 babd 42cf dcbd 9e6d 9ebd 3337 f5bd
00000310: 00fe cfbb 60b1 3c3d e5e7 e1bd 0edd ec3c
00000320: 98a9 92bc d97a 443d 8ee4 d43d bc41 c8bd
00000330: 2009 573d 0502 e0bc 6b3c 963d 9d25 5e3d
00000340: c61e 08bc 2207 a63c 8e48 af3d b189 903c
00000350: c135 22bd c6c5 43bd d0c6 98bc a62a eebd
00000360: 2e32 4b3c 95df 743d 434d 26bd 2ac3 f1bc
00000370: 3ec8 a0bd e53d 1f3d 4cad 60bd 7627 e73d
00000380: 8f16 b9bc 5a5d d03c 777b 563d 7b98 693d
00000390: 5379 7fbd bf3a c83d a1d5 5cbd f2a5 893d
000003a0: 4090 b6bd 1df9 c53d 0587 003e bbff a53d
000003b0: 37cf 62bd 2af7 9e3c 3789 a23d e0ca 12bd
000003c0: 357e 86bc a834 abbd 9302 95bd 28de ab3d
000003d0: 1b1c 863d 0c1b 64bd d894 75bd f0b2 5abd
000003e0: a75c 2abe de08 c7bd 3696 5dbd 66c3 d6bd
000003f0: 4b90 033d fa9f 343d 311b c63d dc59 0cbd
-0.009701058 -0.10181518 0.027272603 0.07990115 0.020261658 0.06650003 -0.07762463 0.004139971
-0.0073575038 -0.10980328 -0.11173072 -0.05587102 -0.12336102 -0.014048813 0.012363431 -0.046141557
0.0420993 -0.13323888 -0.036157843 -0.033768866 -0.04720035 0.11687509 -0.10631939 0.016081162
0.14206876 0.05130993 0.11817418 -0.09342883 0.14411679 -0.03902895 0.022082536 0.040748764
0.0871417 -0.050595704 -0.07650862 -0.10291892 -0.07394309 0.09717162 0.049008396 -0.02128451
-0.0534447 0.08791291 0.060561623 0.13578893 -0.06552175 -0.01969855 0.09527601 -0.09316992
-0.01644567 0.104164205 -0.07440628 -0.020310674 0.021288542 -0.054209042 -0.013958723 0.08911392
-0.06668642 0.056498826 -0.022286601 -0.024844572 0.06050514 0.030935943 0.056503184 0.044468485
-0.07847843 -0.120413736 0.11475817 0.09669968 0.0052168868 0.07748872 -0.032622445 0.0044814697
-0.10073091 -0.108338095 -0.0056249625 -0.024168706 0.07046952 -0.12761006 0.009589148 0.11623242
-0.10418901 -0.09219562 0.027760223 0.09522903 0.08902562 0.13164188 0.026533721 0.017650962
0.09066946 -0.11212485 -0.030901099 -0.09132246 -0.064953424 0.02385967 0.06322831 -0.00049600675
-0.06867512 -0.11054182 0.028360821 -0.03811021 0.11037206 0.04865201 -0.039364222 0.04557734
0.103753455 -0.039501972 -0.10327806 0.011338811 0.053712167 -0.052468155 0.12735368 -0.015446021
0.040237296 0.06901712 0.0133973565 0.07883322 -0.118371315 -0.0077292225 0.015183435 0.059081286
-0.03037155 -0.008773337 0.09421703 0.10173879 -0.12661009 0.04420144 -0.006532588 0.031558134
-0.07304272 0.02984876 0.079811156 -0.13121009 0.0057098516 0.037375856 -0.07820226 -0.1621038
0.037728325 -0.020135093 0.050652817 -0.12658899 0.114264525 -0.108768865 -0.04495771 -0.054125413
-0.013458524 -0.048223197 -0.10666346 0.037690047 0.095084645 -0.00036229513 0.053029355 -0.122053064
-0.042189673 -0.09543254 -0.08776636 0.07485458 -0.08249064 -0.13967052 -0.10403643 0.093002446
-0.010737924 -0.101570286 0.004496865 0.060527056 0.026726829 -0.054788917 0.12283686 0.031889874
0.07517273 0.08603385 -0.12886126 -0.06975404 -0.047747847 -0.06133528 -0.0023791841 0.021122003
0.049342956 0.050606787 0.085671484 -0.0047193575 0.06310572 0.092331454 -0.094963 -0.08060311
0.055179298 -0.013171118 -0.044233564 0.09695403 0.09251297 0.12122285 -0.012008558 -0.026771994
-0.09111397 -0.10781719 -0.077357516 -0.11973419 -0.006347418 0.046067595 -0.110305585 0.028914
-0.017903134 0.04796872 0.10395156 -0.09778163 0.052498937 -0.027344713 0.073357426 0.05423509
-0.008308118 0.020267073 0.085587606 0.017643781 -0.039602045 -0.047796033 -0.018649489 -0.11629228
0.0124021005 0.059783537 -0.040601026 -0.029512007 -0.07850693 0.038877387 -0.05485277 0.112868235
-0.022593765 0.025435138 0.05236384 0.057030182 -0.062371563 0.0977683 -0.05391467 0.06721105
-0.08914232 0.09666655 0.12551506 0.08105417 -0.055373397 0.019404966 0.07936328 -0.035838008
-0.016417602 -0.08359653 -0.072758816 0.08391982 0.065483294 -0.055689856 -0.0599564 -0.053393304
-0.16636907 -0.09718488 -0.05409833 -0.10486488 0.03212003 0.044097878 0.09673155 -0.034265384

conv2.bias f4 [128]
00000000: 3a78 f4b5 7c68 3939 bd9e a538 b70b 7ab8
00000010: 216f dab8 23b8 b438 67aa 2ab8 441d 3a38
00000020: 6a65 9db7 0b08 82b9 91a2 1639 481e 4fb9
00000030: f232 43b8 a8ef 46b9 6853 f0b8 caa9 1e39
00000040: 386d f4b8 1e61 d437 4b58 3a37 082a 21ba
00000050: 0199 2bb8 e68f d238 3a3b 3fb8 e55d 2ab8
00000060: efb7 00b8 4140 acb8 7776 c7b8 ef68 87b9
00000070: 46bd c138 4552 8138 3ae2 b7b7 6859 45b8
00000080: 3e84 db37 5e0c 18b8 956f ad39 54e5 99b8
00000090: d570 e538 2214 6938 720b 0739 1e53 7b37
000000a0: 97de df37 1910 ccb6 3a23 3238 c7bc ceb9
000000b0: 6048 ebb9 cea7 cfb9 599b 9f39 340c 2638
000000c0: afe8 ca38 d4ab ea37 a6ad 9a37 bdcf d837
000000d0: ee45 2938 423c 18b9 6411 f438 559e 07b9
000000e0: a789 e238 8f96 cc38 b51f 6938 2924 15b7
000000f0: ac49 b237 eddc dab6 7314 afb8 0257 82b9
00000100: 914f a038 404f 74b7 1690 2e39 b71a 8cb9
00000110: 199d b3b8 0596 8939 6fa6 f237 913b c2b6
00000120: e556 acb6 1c1c 0db9 f845 f038 4c70 b3b8
00000130: bac8 2bb7 dd5c e036 47a8 8f39 529f b6b9
00000140: 5fdb 37b8 10bd 0200 ae77 b338 5158 a1b8
00000150: 36ab 9e38 67f9 24b9 de4a 123a f47b cab7
00000160: 4db3 86b9 fa26 8438 5a66 1c34 6f33 06ba
00000170: a279 d137 3940 34b7 94f7 5cb4 92fd 4db6
00000180: 6778 c5b8 cd84 ebb8 d32c fcb8 a72d 26b8
00000190: 4efa a636 82eb cab9 a6b0 8737 2fdd d637
000001a0: 514e 0237 71ce 0bb7 6de0 3eb9 a75f 50b7
000001b0: cedb 8f39 bd6f be39 c9ed 46b9 8e2d 6239
000001c0: f452 c238 3490 a238 6f40 2b38 e149 6f39
000001d0: 51a3 9c39 a2a3 64b8 4e78 8bb7 8045 3cb8
000001e0: 23af 2fb8 8cbf b738 21ea 8c38 6f23 2239
000001f0: b9e8 3038 98c6 9938 edf7 18b7 bb15 0400
-1.8214407e-06 0.00017681898 7.8973804e-05 -5.9615555e-05 -0.000104157494 8.617367e-05 -4.0689858e-05 4.437311e-05
-1.8763083e-05 -0.00024801525 0.00014365675 -0.00019752339 -4.653907e-05 -0.0001897203 -0.000114596274 0.00015131306
-0.0001165517 2.5317593e-05 1.1107021e-05 -0.0006147926 -4.0912073e-05 0.000100403835 -4.5593108e-05 -4.0618605e-05
-3.068888e-05 -8.213567e-05 -9.511125e-05 -0.00025827388 9.238212e-05 6.166523e-05 -2.1920645e-05 -4.7051726e-05
2.6168414e-05 -3.6251142e-05 0.00033080266 -7.338324e-05 0.000109405875 5.557028e-05 0.00012878867 1.4980118e-05
2.6687323e-05 -6.081548e-06 4.2471314e-05 -0.00039432032 -0.00044876616 -0.0003960714 0.00030442586 3.958885e-05
9.675451e-05 2.7974987e-05 1.8439092e-05 2.5845942e-05 4.0357867e-05 -0.00014518297 0.00011638066 -0.00012933587
0.000108021595 9.755522e-05 5.558106e-05 -8.889511e-06 2.125356e-05 -6.5226254e-06 -8.348459e-05 -0.00024860358
7.644215e-05 -1.4561985e-05 0.0001664761 -0.00026722785 -8.564647e-05 0.0002624245 2.892615e-05 -5.788585e-06
-5.1361153e-06 -0.0001345728 0.000114571245 -8.556302e-05 -1.023913e-05 6.686531e-06 0.00027400462 -0.00034832448
-4.3834905e-05 2.51494e-40 8.557677e-05 -7.6935285e-05 7.5659176e-05 -0.00015733168 0.0005580614 -2.4137997e-05
-0.0002569206 6.3015104e-05 1.4565867e-07 -0.00051193585 2.4971381e-05 -1.0743789e-05 -2.0579165e-07 -3.0694978e-06
-9.416119e-05 -0.00011230409 -0.000120246455 -3.962e-05 4.976325e-06 -0.0003870391 1.6175512e-05 2.5613785e-05
7.766838e-06 -8.3331115e-06 -0.00018203417 -1.2420037e-05 0.00027438853 0.00036322876 -0.00018971333 0.0002157001
9.266092e-05 7.751622e-05 4.0829585e-05 0.00022820338 0.0002987632 -5.451183e-05 -1.6626112e-05 -4.488742e-05
-4.188636e-05 8.7617984e-05 6.71933e-05 0.00015462724 4.217841e-05 7.3325995e-05 -9.117631e-06 3.75137e-40

conv3.weight f4 [128, 128, 1]
00000000: 6e9a bb3b e302 b73b f7cf 5d3d 5510 2c3d
00000010: 91f5 49bd c1c2 a33d cbb8 70bc 80b4 7e3d
00000020: 51b9 dc3d 0dab aebd 63d1 7f3c 0330 5dbd
00000030: b0bd ffbc 281b ea3b 3c87 0ebd efae 953c
00000040: 9391 aabd f0a9 52bd 67bf a23d a8da c9bd
00000050: 7538 adbc 675f e2ba d36f 9f3c 8045 90bc
00000060: 0ef7 bd3c 93c3 59bd 201d 44bc db3c 993d
00000070: 7e8c 5cbd 629b 893d ae78 9f3d a25c 5c3d
00000080: c9c1 af3b b5d4 77bd 75be 64bd 2ccb 96bd
00000090: 3098 b1bd 92ab 87bb 13dc 26bd 8e21 213c
000000a0: 82b1 8e3d 40b4 7a3b d1b5 3c3d 187a 8abc
000000b0: 2d8f 1bbd 1534 72bd c4b4 a5bd c6fd 56bd
000000c0: 56f1 eabd 90e8 8e3a d637 7e3d 2321 073d
000000d0: 8df9 d93c f1d7 c33d 6a29 0bbc d21a 57bd
000000e0: 35a2 4038 5099 eb3b 730f adbd c267 85bd
000000f0: da36 f9bd b350 3d3b 3b78 5abd 71b4 1dbd
00000100: 4939 aabc 52bf 64bc ea85 1bbd b8bf 35bd
00000110: 9add 043d b63f 453d 214e 403d 7a33 28bd
00000120: 4a64 1d3d 37c0 333d f4cb ce3c 640c 59bd
00000130: 9484 863d 83df acbb 6f49 23bc b2ae 533d
00000140: c362 053d 8104 9294 03cc 81bd 0f46 62bc
00000150: f25d 373d 756c 7c3d aaf6 a03d 0456 403d
00000160: fe9b d63c 53df 883d f2df 54bd 0a65 27bd
00000170: 16e8 8fbc 5898 f03c 24ee e0bd 1d37 eb3c
00000180: 0579 0cbd c38c b9bd 491f 2bbd 2ef0 713c
00000190: 92e6 3c3d eaf4 e33c bc41 cb3c 43db d1bd
000001a0: b7f2 b43c 0bcb 4dbd 18dd 983d 4487 a43d
000001b0: 78f1 a1bd 2c33 97bd eab4 c23d 1980 c33c
000001c0: b389 693d 96c4 803d 0205 283d f4bb 95bd
000001d0: bf8c 0e3d 5a5e fdbc a835 2bbd 5f06 b53c
000001e0: e135 49bd 2edb 8f3c c0a9 b2bd 8802 203d
000001f0: 9750 3bbd e4d8 783d 89bd 8abd 9e40 95b8
00000200: d288 8ebd 2668 0d3d 8a28 b53c b716 62bd
00000210: 7f55 48bc 9fdb 293d 988d be3c c78f b43b
00000220: fd99 573d fe9f 043d 6674 34bd 366f 8abd
00000230: 0f67 3a3a 6f20 8b3c c42e 7cbd ad7a abbd
00000240: 2129 893d b258 c3bd 074d 21bd 9ec2 b4bc
00000250: b099 b4bd 96f3 58bd 3242 d7bc 912f 153c
00000260: dc9b 493d 0bae 0dbd 1c27 28bd ef61 1abc
00000270: c80c 123b f13d 3bbd 6d5e 893d de39 023b
00000280: eb56 4a3d 1735 673b 5c5c 9dbc 7921 89bd
00000290: 542d 42bd 62ec ecbd 45b5 623d 384a c8bd
000002a0: c5ac 133c a080 93bd e88f 493d 641b ac3d
000002b0: 5284 24bc 4a51 453d 18f9 163d 6ab2 46bb
000002c0: 30d5 733d 2cd6 16bd 2028 7b3d c2b5 a23c
000002d0: 893f 6d3d f311 db3c dbd0 4ebd 2def 9cbb
000002e0: 7d9c a3bd 2138 513d cc55 033d cd9e b0bd
000002f0: c77a 213d a1c2 12bd 456e b73d c42c 85bc
00000300: 1bb1 923d 2dba 6a3d bed4 ecbd a6f7 b03d
00000310: 873c d3bd 6586 a43a 0bfd ab3d a761 e3bc
00000320: 7e11 a23d 1c13 5b39 3d44 6fbc 26a1 823d
00000330: ff27 483d 175e 5abc 00f2 aabd ed91 94bd
00000340: 16c3 0dbd e933 9fbb df4d b5bd 15ca 67bd
00000350: e812 813c 0c4d 6ebd e059 a1bd 963d a4bc
00000360: c470 653c 337d a73d 946f c9bc af6e 82bd
00000370: ad57 88bd 866c 853d 1a0b a6bb bd38 6c3d
00000380: 95af ad3c 7c33 16bd 7f86 95bd 3e77 eebc
00000390: 904e f8bb 1fa3 b0bc 91e7 b1bc e908 253d
000003a0: 8176 3ebd ba1b 35bd f8c6 b3bb 916c adbb
000003b0: a5a4 c9bd 450e e7bb b5ad 783c 22ab b8bd
000003c0: f92b 99bd b053 8d3d f7bc 2f3d d484 debc
000003d0: bb9b 7dbd a731 953c 3ef3 763d a9ff 123d
000003e0: f78b bcbd 7941 20ba ff35 853d 1bf2 a7bd
000003f0: 5f96 89bd 2f05 98bb 51f9 893d 6e55 3dba
0.0057251966 0.005585061 0.05415341 0.042007763 -0.049306456 0.07996131 -0.014692496 0.062183857
0.10777534 -0.08528719 0.0156138865 -0.054000866 -0.03121838 0.0071443506 -0.03479694 0.018271891
-0.08328547 -0.051431596 0.07946663 -0.098561585 -0.021145085 -0.0017270864 0.019462502 -0.017611265
0.023189094 -0.05316503 -0.011969835 0.074823104 -0.05384492 0.0671909 0.0778669 0.05379928
0.005363677 -0.060505588 -0.055845696 -0.07362971 -0.086716056 -0.004140326 -0.040737223 0.00983466
0.06967451 0.003825441 0.04607183 -0.016903922 -0.03797834 -0.0591317 -0.08091119 -0.05248811
-0.114718124 0.0010903049 0.062064968 0.032990586 0.026608253 0.09562672 -0.008493761 -0.052515812
4.5927434e-05 0.007189907 -0.08450212 -0.06513931 -0.12168665 0.0028887212 -0.053337317 -0.03850216
-0.020779269 -0.01396163 -0.037969507 -0.04437229 0.0324379 0.048156463 0.04694951 -0.041064717
0.03842572 0.043884482 0.025243737 -0.052990332 0.06568256 -0.005275668 -0.009966238 0.051680274
0.03256489 -1.4744009e-26 -0.0633774 -0.013810649 0.044767328 0.06162687 0.078595474 0.04695703
0.02619743 0.06683221 -0.051971383 -0.040867843 -0.017566722 0.029369518 -0.10982922 0.028712803
-0.0342951 -0.09060051 -0.041777883 0.014766736 0.046118326 0.027826745 0.024811618 -0.10246899
0.022088392 -0.050242465 0.07464045 0.08033612 -0.07907385 -0.07382807 0.09507163 0.023864793
0.057016086 0.06287496 0.0410204 -0.0731124 0.034802195 -0.03092878 -0.041799217 0.022097765
-0.04912365 0.017560568 -0.087237835 0.039064914 -0.045731153 0.060753718 -0.06774432 -7.1169095e-05
-0.0695969 0.03452315 0.022114057 -0.055197444 -0.012227415 0.041469213 0.023260877 0.0055103037
0.05263709 0.032379143 -0.04405632 -0.06759493 0.0007110694 0.016983239 -0.061568037 -0.08373008
0.06697298 -0.09538402 -0.0393801 -0.022065457 -0.08818376 -0.052966677 -0.026276682 0.009105579
0.049220905 -0.03458981 -0.041052923 -0.009422763 0.002228545 -0.04571337 0.067074634 0.0019870917
0.049399298 0.0035279447 -0.01920908 -0.066958375 -0.04740651 -0.11568524 0.055348653 -0.09779781
0.009013359 -0.07202268 0.049209505 0.08403662 -0.010041313 0.048173226 0.036858648 -0.0030318745
0.059529483 -0.036825344 0.061317563 0.01986206 0.05792192 0.026741957 -0.05049215 -0.004789254
-0.07988832 0.05107892 0.032064244 -0.08624039 0.03942373 -0.035830144 0.08956579 -0.016256697
0.071626864 0.057306457 -0.11564015 0.08640985 -0.10314279 0.001255226 0.083978735 -0.027756525
0.079134926 0.00020892586 -0.014603672 0.06378393 0.04886627 -0.013328097 -0.08346939 -0.07254396
-0.034609877 -0.004858483 -0.08852743 -0.056589205 0.015756086 -0.058178946 -0.078784704 -0.020048898
0.014003936 0.08178177 -0.024589337 -0.063687675 -0.06657348 0.0651484 -0.0050672414 0.057671297
0.021201888 -0.036670193 -0.07301044 -0.029109593 -0.0075777248 -0.021562157 -0.021716865 0.0402917
-0.046499733 -0.044215895 -0.0054863654 -0.005292483 -0.098458566 -0.0070512616 0.015178134 -0.09017016
-0.0747909 0.06900728 0.04290482 -0.027162947 -0.061916094 0.018212153 0.060290568 0.035888348
-0.09206384 -0.0006113272 0.065044396 -0.08200475 -0.06718134 -0.00463929 0.067370065 -0.0007222508

conv3.bias f4 [128]
00000000: 44c9 3c38 bb49 8736 bfdb 2037 c38c 0739
00000010: 1f7d acb8 4819 02b8 9b4a 5539 5066 ec35
00000020: 8b7f 51b9 c565 55b8 9ca3 5f38 562f 85b9
00000030: 5a68 7b38 2e3b d5b8 b109 dd36 73bb 2d39
00000040: 50c1 7eb9 85b1 6b37 76c5 2439 611d c539
00000050: 99e5 c0b8 e1d8 ebb7 b82b fc38 c7bc 06b9
00000060: 381f d238 06bf 7839 9bca cdb8 08d3 0680
00000070: f909 1539 87c0 ac39 9418 bfb6 c32f a6b9
00000080: b651 4a38 15fa 0db7 8fb5 eb38 8608 4eb8
00000090: 1db8 0039 64d7 7ab9 0df0 ddb7 a445 4b38
000000a0: fcbb 6538 dfd4 ec37 86b3 4639 96aa 6cb6
000000b0: 41e7 1438 14b7 2bb7 205b 4939 55b1 10b9
000000c0: eb4d e238 acfb 15b9 bfad 30b8 c9fa db38
000000d0: 4c80 a4b8 55c1 7139 2981 7db7 84be 93b8
000000e0: 02ed 2636 ed1e 5839 f33d 0f39 8b54 0eb9
000000f0: 12ce 2339 fbe6 edb8 c70b b7b6 8d5f af39
00000100: c591 3a39 3717 c139 790b 0a39 402e 2bb9
00000110: a07d cf38 aba9 9cb8 8c92 52b9 5790 38b9
00000120: 03b3 1639 57f2 ac37 f32f 8238 16df 20b9
00000130: 1e4a 1eb9 0b43 ff38 a033 5238 b57c f738
00000140: d23c 5eb9 c166 08b7 a9ba 5fb9 c12e a2b8
00000150: 9870 cab8 5e9e dbb8 877a 0100 7d6d 7337
00000160: 0e3f f038 2204 42b8 f02e 24b9 f311 5b39
00000170: 4e2f 0a39 51bf f2b8 4c6a 1037 9bc4 0539
00000180: 33fc 7237 7ed1 d9b7 3b1d 1839 eafc a2b9
00000190: 08ac 7138 583d 0e3a f290 a838 2250 d3b7
000001a0: 9998 49b9 a5c3 6f39 e0b5 a838 8ff0 ca39
000001b0: 88c7 3db9 8f1a 4a39 987c 8eb8 80a8 bdb9
000001c0: e2d4 bbb9 849d 69b8 9dbd fbb7 be63 a5b9
000001d0: de21 86b8 cb78 5639 49c2 c5b8 e6d7 cbb9
000001e0: d0bd 32b9 eec6 6238 12fc 76b9 4614 1039
000001f0: 957c f638 5509 83b2 3d2e 07b9 5741 0e39
4.5010136e-05 4.031897e-06 9.587907e-06 0.00012927041 -8.224905e-05 -3.101796e-05 0.00020341056 1.7613147e-06
-0.00019979307 -5.0877938e-05 5.3319716e-05 -0.00025403005 5.994025e-05 -0.000101676545 6.5874415e-06 0.00016568396
-0.00024295342 1.40484235e-05 0.00015713819 0.00037596657 -9.198039e-05 -2.8115175e-05 0.0001202444 -0.00012849561
0.00010019395 0.00023722285 -9.8129e-05 -6.26717e-40 0.00014213462 0.0003294984 -5.695105e-06 -0.00031697573
4.8236652e-05 -8.462482e-06 0.00011239491 -4.9122165e-05 0.00012275619 -0.00023922097 -2.6457035e-05 4.846383e-05
5.477293e-05 2.8232518e-05 0.00018949629 -3.5266035e-06 3.550132e-05 -1.023502e-05 0.000192028 -0.00013798971
0.00010791033 -0.00014303502 -4.2123484e-05 0.00010489446 -7.8440265e-05 0.00023055573 -1.5110048e-05 -7.0449925e-05
2.4873884e-06 0.00020610886 0.0001366062 -0.0001357367 0.00015621659 -0.00011344064 -5.455196e-06 0.00033449792
0.00017792646 0.00036829125 0.0001316498 -0.0001632506 9.893929e-05 -7.470263e-05 -0.00020081754 -0.00017601378
0.00014371802 2.0616846e-05 6.207814e-05 -0.00015341895 -0.00015095665 0.00012171835 5.011598e-05 0.00011801106
-0.00021194227 -8.130156e-06 -0.00021336474 -7.7334706e-05 -9.653083e-05 -0.00010472232 1.3579e-40 1.4509421e-05
0.00011455837 -4.6257053e-05 -0.00015657744 0.00020892154 0.00013178328 -0.00011575095 8.607818e-06 0.0001275711
1.4483044e-05 -2.5965968e-05 0.00014506739 -0.00031087484 5.7619094e-05 0.0005426011 8.0378624e-05 -2.5190475e-05
-0.00019225701 0.000228657 8.044741e-05 0.00038707673 -0.00018098776 0.00019274115 -6.794295e-05 -0.0003617443
-0.0003582603 -5.5698227e-05 -3.0009827e-05 -0.00031545566 -6.395926e-05 0.00020453629 -9.4298804e-05 -0.00038880034
-0.00017046113 5.4067867e-05 -0.00023554292 0.00013740463 0.00011753399 -1.525465e-08 -0.00012891828 0.00013566516

conv4.weight f4 [100, 128, 1]
00000000: 8253 233d d5c8 92bd b75e 0dbd b1dc 25bd
00000010: 8e63 b3bc 3795 2bbe 3275 313c 3c87 863d
00000020: 47f9 413d f676 03be ddcb 523c 7230 9abd
00000030: 2689 fe3c 7977 babd 7be5 f0b8 38cf 1dbd
00000040: 9fa8 1ebd bf0c 58bd 29c6 d2bc 0402 82bd
00000050: c1fd a7bd 63ed 933d e9af 28bd 8c9e 5abc
00000060: 57ad d03d 8a3a 28bd 7999 3e3d de33 133d
00000070: de48 01bd b85f a1bb c82c a2bc e8b3 523c
00000080: ec09 11bd 5a78 83bc 5e6c 493d 5f2a d0bc
00000090: 1131 a53c da18 8fbd c65a 77bc 1c1c d0bc
000000a0: 0ab8 7cbd b5a8 b6bd 60ef a7bd 8bd8 77bc
000000b0: 0071 b3bd 6242 8abd 849f 583d dd17 6e3d
000000c0: 4136 f5bc 6dd0 3bbd 5588 58bc 5f8b 8bbc
000000d0: a1c2 383d d75d b33c 0238 a3bd 6880 abbd
000000e0: 2de1 84bd 0bec 84bc f970 72bd 86c1 7f3d
000000f0: 4547 263d 97df da3d 79bd 593d 8628 d43c
00000100: a323 51bd 0a9a c2bc 7786 c5bc dc29 5abd
00000110: 3642 05bd c0bf a63d 93dd 8e3d 9540 4fbd
00000120: 1b02 31bd a0f2 46bd 4aeb 78bc af96 e3bc
00000130: 4f71 283d 8b5c 853d dfb8 cd3c 7794 ccbd
00000140: 334c 893c 2c07 683d 6e66 b8bd f9d9 8fbb
00000150: 6197 69bc 7570 68bd d897 f7b8 ca3d cebb
00000160: 7ea3 ac3b 790b 09bd 0144 50bd 8331 513c
00000170: 36bf 8c3c 6c2b 16be 6f65 0fbd e8ce 64bd
00000180: bd24 2bbd 0036 bd3b 1629 a6bd 441c 9cbd
00000190: 7c36 253d 3c26 1fbd 561d 333d 60f0 83bd
000001a0: 3246 d5bd 6d75 b13d dc73 73bd 99b2 babd
000001b0: 8b87 bfbd e732 8d3d 4999 803d 7db9 9fbd
000001c0: 42ad 0e3d e9d6 ef3b 8a7d 9c3d 8938 8c3c
000001d0: 79de b9bd 1902 15bc 0cce c5bd b4ca 2b3d
000001e0: 635c 023e 6f04 35bd 309b 2a3d 3247 8e3c
000001f0: b4e0 3fbd 6758 bd3d 3048 9cbd c59a c63c
00000200: bb7f 47bd 211f 473d 8cf8 fb3c 482b 1bbd
00000210: c2c5 e8bd ada8 a9bd c36f 413d fbf7 bcbd
00000220: 7893 3cbd 9912 8fbd 6b97 1abd 6bc0 e43c
00000230: fa76 18bd 943c 28bd 661d 54bd 9ed3 9f3d
00000240: eb82 a93b 512c 4e3b d93c 10be b30f e9bb
00000250: b842 b93d 1503 a1bd f5c1 f53b d1dc f23c
00000260: 1aa9 033d f71e 543c 6566 89bd 0f30 3ebd
00000270: 7d27 8cbd a7ef b8bc 6d3f b83c b903 83ba
00000280: bd49 253d 9f1e 3dbd 02b4 02be 1461 bfbd
00000290: 313e 55bd 7bf4 943d 4394 283c 5dda 8bbc
000002a0: 6e65 65bd 5ff6 7ebd 399e c7bc 03e5 963d
000002b0: 033e ccbc d1cb 243d 467b 043d fa3a a13c
000002c0: 94d5 283d 1394 a33d 3ed7 953d 0999 a1bc
000002d0: b095 d8bd 44e4 913c 3205 5dbd 0756 bfbd
000002e0: 7948 893d 4f0f 22bd 9a3d 2abd 01d1 163d
000002f0: 64ef 533d d961 c3bd 0807 8cbc 3669 85bd
00000300: 130e 083d a949 823c fbcb c73b 8d1f 89bd
00000310: 0fa9 6a3c b088 aebd 6a79 0abb deb1 2ebd
00000320: 0ad8 ecbb 66a6 efbd f412 a3bc cc8b 523d
00000330: bfa3 af3d 7e80 6d3d 7a27 0c3d 4ee5 223d
00000340: bf62 663d 668c 1ebd 996e f13c 30c3 45bd
00000350: fc3b 36bd ccb8 90bc 5916 103a 2f0b 833d
00000360: 570b 7bbd 8acf 333d 9a2d 05bd f9a1 e0bd
00000370: 7fde 8d3b 507a c93c 659e cb3d a870 163d
00000380: 5b33 5abc bb12 b5bc bbe1 7fbd 2595 b03c
00000390: e267 7f3d cafb fa3b 15ee 15bd 2404 c83d
000003a0: 1882 03bd c9d4 51bd da82 163b 48ca 893d
000003b0: 7039 553d f4d1 03bd cf74 48bd 4be1 a33d
000003c0: 7e4c 12bd 9867 90bd d7ac c73d 34e5 52bd
000003d0: d2f2 86bd 5122 b9bd 924f 9b3d 7030 f13c
000003e0: 32d6 ffbc a604 9f3b 0999 e1b7 892c 56bb
000003f0: 29ef c7bd 13d2 a13d 028a afbd ab55 353d
0.03987456 -0.07167212 -0.034514155 -0.04049367 -0.021898057 -0.1675614 0.010831164 0.06568763
0.04735687 -0.12838349 0.012865988 -0.075287715 0.031071257 -0.09104819 -0.00011486836 -0.038527697
-0.03873503 -0.05274653 -0.025729256 -0.06348041 -0.082026966 0.07223012 -0.041183386 -0.013343465
0.10189312 -0.041071452 0.04653308 0.035938136 -0.031563632 -0.0049247406 -0.019796744 0.012860276
-0.035409853 -0.016048599 0.049175613 -0.02541083 0.020164998 -0.06987162 -0.015097326 -0.025404029
-0.06169895 -0.08918897 -0.08199954 -0.015127311 -0.087617874 -0.06750943 0.0528865 0.058128227
-0.029933097 -0.045853067 -0.013216098 -0.01703423 0.045107488 0.021895332 -0.07969667 -0.08374101
-0.06488261 -0.016225835 -0.05918977 0.062440418 0.04059531 0.10687178 0.05315921 0.02589823
-0.051059376 -0.023755092 -0.02411197 -0.053262576 -0.032533847 0.08142042 0.06975856 -0.0505987
-0.0432149 -0.04857123 -0.015192816 -0.027781812 0.041123684 0.06511792 0.025112567 -0.09989255
0.016759967 0.056647465 -0.09003912 -0.004389998 -0.014257283 -0.056747872 -0.00011806161 -0.006293987
0.005268513 -0.033458207 -0.050846104 0.012768152 0.01718102 -0.14665002 -0.035008844 -0.055861384
-0.041783083 0.0057742596 -0.08113305 -0.07622579 0.040335163 -0.038854823 0.04372915 -0.06442332
-0.10413779 0.08664975 -0.059436664 -0.09116096 -0.09352025 0.068944745 0.06279237 -0.07799051
0.0348332 0.0073193205 0.07641132 0.017116802 -0.090756364 -0.009094738 -0.09658441 0.04194136
0.12730555 -0.04419368 0.041651905 0.017367933 -0.046845153 0.09245377 -0.07630956 0.024243722
-0.048705798 0.04861367 0.030758165 -0.037883073 -0.11365844 -0.082841255 0.047225725 -0.09226986
-0.046039075 -0.06985969 -0.03774206 0.027923783 -0.03722284 -0.041073397 -0.05178585 0.07804035
0.0051730773 0.003145952 -0.14085712 -0.007112467 0.09045929 -0.07861916 0.007499928 0.02964631
0.03214369 0.012946836 -0.06708983 -0.04643255 -0.06843469 -0.022575213 0.022491181 -0.0009995616
0.040353525 -0.04617178 -0.1276398 -0.09344688 -0.052061263 0.072731934 0.010289255 -0.017071897
-0.056004934 -0.062246677 -0.024367439 0.07367899 -0.024931913 0.040233437 0.032344125 0.019681443
0.04121931 0.07987227 0.07316445 -0.019726293 -0.105754256 0.01780904 -0.053960033 -0.0934258
0.06703276 -0.03956538 -0.041562654 0.036820415 0.051741973 -0.09540147 -0.017093197 -0.06514208
0.033216547 0.015904265 0.0060973144 -0.06695471 0.014322533 -0.08522165 -0.0021129497 -0.042650096
-0.0072279023 -0.1170166 -0.019906498 0.051402852 0.08576154 0.057983868 0.034217335 0.039769463
0.056246515 -0.038708113 0.029471682 -0.04828185 -0.0444908 -0.017666243 0.0005496494 0.063986175
-0.06129011 0.043899097 -0.032514192 -0.10968394 0.004329502 0.024594456 0.09942321 0.03672853
-0.013317908 -0.022103658 -0.062471133 0.021555493 0.06235493 0.00765941 -0.036604006 0.09766415
-0.03210649 -0.05122832 0.0022966177 0.06728035 0.05205673 -0.03218265 -0.048939522 0.080019556
-0.03571748 -0.07051009 0.097497635 -0.051488116 -0.06589283 -0.090397485 0.07583536 0.029442042
-0.031230066 0.004852849 -2.6893353e-05 -0.0032680354 -0.09762413 0.079013966 -0.08571245 0.044271152

conv4.bias f4 [100]
00000000: c2b1 c6b8 2f2f fe38 40a7 0039 1d2c 9039
00000010: 9aa9 0139 7c41 4438 9f03 0639 5568 bab9
00000020: 91b3 1a39 8ae5 77b7 ca27 4e38 9dbd 10b9
00000030: 7faa 8b38 64d1 1639 bf4a 66b9 6474 75b7
00000040: 0f6c 8339 3e18 1c39 f64e 0f39 3875 9d38
00000050: 49d8 aeb9 ae94 85b8 c349 90b8 3352 acb9
00000060: e0c4 9339 1d76 98b7 880f 8038 0918 3eb8
00000070: 82cf 9db9 d6df 4b39 ba07 24b8 c78b bfb9
00000080: cc11 59b9 efee 8fb9 9dd2 f038 fd5e dd38
00000090: 7033 0cb9 5f3c 95b8 9c12 28b9 3c80 3939
000000a0: 4725 9d39 7e0e 44b9 e8c2 edb7 874d 13ba
000000b0: 3e87 88b9 0beb afb5 6908 f137 7e8c 02b8
000000c0: 6cfd ee37 c916 feb8 38db 0538 2455 f6b8
000000d0: bbc3 0cba 46ad 6bb8 55e0 8eb9 8c2c 8139
000000e0: 44ee 1438 1d65 7f39 fc89 9739 54f8 1338
000000f0: 9437 a838 e7f9 d136 d620 bd39 0a7f dc38
00000100: dba9 ac39 b71c 25b7 6481 b2b9 5bb5 9739
00000110: d251 57b8 975a 6bb8 9845 1fb7 28be 1239
00000120: 4275 36b9 c9d6 4937 8a9b 4ab9 aa2b d4b8
00000130: 0e9b b939 3794 5cb8 8771 72b8 fddd dd37
00000140: ee12 b937 8602 a038 15e2 58b9 089c 6d38
00000150: 6ab9 c438 55e9 03b9 3b29 00b8 5b24 1638
00000160: a752 23b9 a97f 2bb9 832b 89b8 91a9 d5b8
00000170: e948 1239 7e5b 44b9 fd30 9637 0980 2339
00000180: b07d 9bb7 f454 c9b8 65e0 e339 40d8 7637
-9.474486e-05 0.000121204524 0.00012269337 0.00027498687 0.0001236558 4.679103e-05 0.00012780585 -0.00035554418
0.00014753478 -1.4775791e-05 4.9151284e-05 -0.00013803547 6.659794e-05 0.00014383119 -0.00021962354 -1.4630237e-05
0.00025066777 0.0001488635 0.00013666958 7.508177e-05 -0.0003334901 -6.369628e-05 -6.880194e-05 -0.0003286764
0.00028184708 -1.8174813e-05 6.1064085e-05 -4.5321915e-05 -0.0003009998 0.00019442974 -3.9107843e-05 -0.000365345
-0.00020701363 -0.00027453105 0.000114833216 0.00010555794 -0.00013370602 -7.116119e-05 -0.00016028661 0.00017690746
0.00029973147 -0.00018697415 -2.8343362e-05 -0.00056191575 -0.00026040705 -1.3106923e-06 2.8733355e-05 -3.112526e-05
2.848982e-05 -0.00012115908 3.1913834e-05 -0.00011746053 -0.0005369742 -5.618974e-05 -0.0002725149 0.00024637987
3.5507852e-05 0.00024356363 0.0002890377 3.5278805e-05 8.0212165e-05 6.257778e-06 0.00036073354 0.0001051408
0.0003293295 -9.841452e-06 -0.0003404721 0.00028936085 -5.1336196e-05 -5.6112734e-05 -9.493342e-06 0.00013994484
-0.00017400554 1.2030542e-05 -0.00019322164 -0.00010117081 0.00035401474 -5.2590123e-05 -5.7803027e-05 2.6448624e-05
2.2062533e-05 7.6298646e-05 -0.00020683587 5.665052e-05 9.380544e-05 -0.00012580057 -3.0555977e-05 3.5796646e-05
-0.00015575682 -0.00016355388 -6.540774e-05 -0.00010188216 0.00013950806 -0.000187261 1.7904205e-05 0.00015592588
-1.8535968e-05 -9.6002506e-05 0.00043464 1.4713092e-05

bn1.weight f4 [64]
00000000: 7118 803e 1d11 4a3e fa31 243f 782f e93e
00000010: 8c02 a23c d676 3b3f 4867 a73e c15e be3d
00000020: 9a68 6e3f edc7 e53e 3aea 0c3f fcb8 1c3f
00000030: f007 323f ef97 a23e 6584 753f c2a6 a23e
00000040: 8500 083d 19df e23e 5586 583f d459 613f
00000050: fef4 d73e 49e3 8d3e 0181 7b3f c65d 273f
00000060: b645 983e 3396 763f bf1b 5d3f fc1f 263f
00000070: 152d 893d 982b 3b3e 1ec8 973e af47 6f3f
00000080: 653f 1d3f 4f56 aa3d 7f85 9a3e a243 463f
00000090: e7bb 1e3f b2fe 433f 8ea4 f33e b31f 163f
000000a0: 981b 473f 0c9e 693f 6dc6 0a3f 1f28 b53e
000000b0: fc18 083f 5669 783f 189e a63e b0b1 483d
000000c0: 99c2 803e 77d2 473f c5c0 1c3f 5f76 5d3e
000000d0: 34a6 2b3f 950f 7c3f 8a18 283f eada 2b3f
000000e0: 0a32 d63e 360c 763f 0e10 463f 45f1 d13e
000000f0: 3133 6d3f 671d 603f fa1f 163f 9672 4c3f
0.25018647 0.1973309 0.6413876 0.45544028 0.019776605 0.73228204 0.32695985 0.092954166
0.9312836 0.44879094 0.550449 0.61219764 0.6954336 0.3175654 0.95905143 0.3176785
0.03320362 0.44310835 0.84579974 0.8802769 0.42179102 0.27712467 0.9824372 0.6537746
0.29740685 0.96322936 0.8637046 0.64892554 0.06698052 0.18278348 0.29644865 0.93468755
0.6142486 0.08317243 0.30179974 0.7744695 0.62005466 0.7656051 0.47586483 0.5864212
0.7777648 0.91256785 0.54209024 0.35382172 0.53163123 0.9703573 0.3254249 0.04899758
0.25148466 0.7805552 0.6123164 0.21627186 0.6705048 0.98461276 0.65662444 0.6713091
0.41835052 0.9611238 0.7736825 0.41004387 0.92656237 0.87544864 0.5864254 0.79862344

bn1.bias f4 [64]
00000000: bd6f 033d 727e a7bb 9997 c0bc ca33 343d
00000010: 6cb1 b8bc d20c 863c d52d 9ebb b0ef 53bb
00000020: 84e3 2e3d 7745 39bc b05e 213c 87f7 d53c
00000030: 3ad5 55bb 2dc1 953b 2b0b 243d 4e45 dc3c
00000040: 07be 223d 33c6 a43c 3ea6 0cbc 42f9 d43c
00000050: 8382 03bc 71f1 293d 861b b439 cde2 53bc
00000060: 4c99 063d d470 1b3d 3015 4ebd 1dec df3c
00000070: 5129 043d e85e ba3a 1c8e 25bb 5825 043c
00000080: fae1 113c 8252 fe3c 715a 1abc 8a3b 70bb
00000090: 3ac5 d63a cdec a53c 4d15 18bc aa94 20bb
000000a0: 7498 52bd 98fd 43bd c203 743b 818d 223d
000000b0: b4c0 963b 51ab 393d 4654 bcbc b0c0 0cb9
000000c0: 9787 92bc 08a0 923c 8e08 033c 0ad8 223c
000000d0: 4f30 d6bb 00b7 923c 602d 4b3d e8dc c3bc
000000e0: dc02 e0bc 4f0d 323d b931 a53c fb9e 883c
000000f0: 9069 15bc cbde 25bc b6b1 ebbc 9cc2 a53c
0.032088984 -0.005111509 -0.023509787 0.043994702 -0.022545539 0.016363535 -0.004827241 -0.003233891
0.042697445 -0.011308066 0.009849235 0.026119007 -0.0032628314 0.0045701475 0.040049713 0.026888516
0.039732005 0.02011404 -0.008584557 0.025997762 -0.008026722 0.041490022 0.00034352782 -0.0129324915
0.03286104 0.0379494 -0.050313175 0.027334267 0.032265965 0.0014218958 -0.0025261706 0.008065544
0.008903975 0.031045202 -0.009420977 -0.0036656582 0.0016385682 0.020254517 -0.009282422 -0.0024502673
-0.051414922 -0.047849268 0.0037233685 0.03968573 0.0046006087 0.045329396 -0.022989403 -0.00013423222
-0.01788692 0.017898574 0.007997645 0.009939203 -0.0065365206 0.017909527 0.04960382 -0.023909047
-0.027345113 0.043469723 0.020165311 0.01667737 -0.009119406 -0.010123919 -0.028771263 0.020234399

bn1.running_mean f4 [64]
00000000: bed9 ee38 ef2b ce37 5272 86b8 d8ce dd38
00000010: 2448 4434 9829 7fb8 7887 9b38 46fb f9b5
00000020: be04 2db8 5554 a538 6c0a 6c39 d3b5 0dba
00000030: ee49 9939 ecfc 44b9 5719 51b8 bdc0 32b9
00000040: 35f0 17b7 9e58 093a 7ab3 bfb9 b6ff 84b9
00000050: 615f a4b8 5578 4fb9 e344 5b3a 7fe2 0839
00000060: 8e84 0139 5ca4 5e37 58ea e738 8382 5639
00000070: 59c4 ca36 c39a fc36 c724 e938 7ba1 aa39
00000080: 1e0e 01b8 e2f4 18b8 3c7f 8739 c414 0bba
00000090: f7a2 a038 a43f 3db9 7dbc 0aba 7028 9f39
000000a0: 81ae 4e39 8925 b939 95e8 74ba 2cf5 9bb9
000000b0: 3e8b acb8 66da 2539 fb11 2336 3b16 7e37
000000c0: a42a 7a38 0d6b ad37 3e4d 80b9 24fc 2337
000000d0: d179 75b9 ebe8 ee38 5a72 413a d457 edb8
000000e0: b0c8 3db9 5f0a 703a 8b07 e238 a01b adb8
000000f0: f298 b039 9589 1a39 9ddd 1739 0d6b 5939
0.00011389282 2.4577572e-05 -6.410912e-05 0.00010576629 1.8280167e-07 -6.0835475e-05 7.416209e-05 -1.8625076e-06
-4.125083e-05 7.883521e-05 0.00022510596 -0.0005405817 0.00029237516 -0.00018786237 -4.9853083e-05 -0.00017047203
-9.056229e-06 0.000523934 -0.0003656408 -0.0002536752 -7.837895e-05 -0.00019785886 0.0008364452 0.00013054347
0.00012351779 1.3270499e-05 0.00011058588 0.0002045725 6.042927e-06 7.528202e-06 0.00011117156 0.0003254524
-3.0769144e-05 -3.646769e-05 0.00025844004 -0.00053055235 7.659749e-05 -0.00018048153 -0.0005292369 0.00030356972
0.00019710699 0.00035313916 -0.0009342519 -0.0002974657 -8.227535e-05 0.00015816986 2.4299359e-06 1.5144756e-05
5.9644357e-05 2.0673056e-05 -0.00024471612 9.774263e-06 -0.00023410401 0.00011392109 0.00073794054 -0.000113174
-0.00018099206 0.0009156819 0.00010777925 -8.2544284e-05 0.0003368329 0.00014737838 0.0001448304 0.00020734612

bn1.running_var f4 [64]
00000000: 6c12 d83c dfed 6f3d 6e00 893d b856 4b3d
00000010: df3d 313c 1db5 853d 6284 623d 655d e03c
00000020: 6c18 523d 8438 1b3d aafd c93c c1f6 0f3d
00000030: 0c8a 5d3d a67f e53c 6967 9f3d e65d 333d
00000040: 05e1 083d 9d58 dd3c dd91 573c dd27 173d
00000050: 34a6 4f3d 96cf 693d 9fc1 233d 9e8e 0e3d
00000060: c30c d83c c8a2 6f3d 20e2 5a3d 823b 853d
00000070: 8a43 a23d 8e7b bd3d 8ecc 873d e52b 8d3c
00000080: dd8f 313d 5a9d 873d 4639 833c 6bea 6d3d
00000090: fa62 683d f68c 053d d9d5 923c 06de 9b3d
000000a0: ec70 4a3d a0cf 1a3d 8279 833b 7e18 c93d
000000b0: cade 753d 6bf9 753d 739b 223d ea45 563d
000000c0: 6779 1d3d a02e 5b3d 56e0 423d b140 543d
000000d0: 7a5e ff3c 1381 453d 66ad c83c 3e0e 193d
000000e0: 1e3e 9a3d 1464 493d 65c7 4b3d d6c6 5b3d
000000f0: 2cca 033d 0f82 2c3d 5b4a 503d a88e 4a3d
0.026375972 0.05857646 0.06689535 0.04964325 0.010817974 0.06528685 0.05530203 0.027388284
0.05129282 0.037895694 0.02465709 0.035147432 0.05408673 0.02801497 0.07783396 0.04379072
0.03341772 0.027019793 0.013157335 0.03690325 0.050695613 0.057082735 0.039979573 0.03480398
0.026373273 0.05850485 0.053438306 0.06505491 0.07923038 0.09252082 0.066308126 0.017232845
0.04335009 0.06621809 0.016018521 0.058084887 0.056735016 0.032605134 0.017924236 0.07610707
0.049424097 0.037795663 0.0040122876 0.09819125 0.06002692 0.060052317 0.03969903 0.05231277
0.038445856 0.053511262 0.047577225 0.051819507 0.03117298 0.048218798 0.024496745 0.037367098
0.07531379 0.049167708 0.049750704 0.05365642 0.032175228 0.04211622 0.05085216 0.049452454

bn2.weight f4 [128]
00000000: 20f0 093f af62 4b3f 91c9 143f f990 c33d
00000010: 45e2 553f ba3e c63e cd3f 913e 93a4 f33e
00000020: db9c 693f 04e9 2a3f 2a62 d73e 65da 303f
00000030: 53c5 373f 8c37 323f d298 fb3d 224b 043e
00000040: 6717 0f3f 8fce 043f dae9 a03d 4e4e 6a3f
00000050: 94fc 3b3f ea31 3c3f 944c 4a3e 6b63 c43e
00000060: 6be8 2d3f 6f6c ed3e 08e0 913e 8828 653f
00000070: cba4 093f 3311 2f3f e78c fa3c b916 c43e
00000080: 9f9e fd3d 8ceb a53e bad7 5d3f ccc2 1c3f
00000090: ab8f 233f af2d e53e d96e 793e 937d 9c3d
000000a0: b5f0 313f a125 e03e df43 483f 3b4a 7d3f
000000b0: 622a 283f 059a c83e b496 7a3f ab0c a83e
000000c0: 4613 3d3f 3e9c ea3e a18a 3f3f a0b8 563f
000000d0: 8cbe 4c3f 9e0d 5f3f e978 413e 88b6 933e
000000e0: 35a6 043f 2857 243e 73f8 ff3e fdd2 1f3e
000000f0: a014 4b3f a93d 623d faf2 4f3f 124c d43e
00000100: 7d0e 4f3e bb17 473f 91b5 df3e 5409 ba3e
00000110: c16b 003f a4cd 0e3f 3a18 913e 7d4a e53e
00000120: 18a3 f13e 00a6 f53e 7276 333f 356b 6c3f
00000130: e30f ec3e 8f8d 623d abf0 e63e e80c f13e
00000140: 663f 3e3f a4be adb9 ce49 d73e 2923 4b3e
00000150: c0e3 253e 6f48 0d3f 1769 123f 8b49 573f
00000160: 1ae1 763e 7670 4d3f 97ce 5d3d 940d 743f
00000170: 710e 773f 3d7e 473f 88bf 033f 473e 093d
00000180: 2edf 353f 1572 0f3f fa94 953e fb1b 5e3f
00000190: efd2 d03d 9f1d 053f e091 623f f08c 663f
000001a0: e9c0 493e 4006 673e 37df 1e3f 3940 203f
000001b0: 04f9 b73e 3aee 223f 206e ba3e 84f6 763f
000001c0: 98ef a13e 3bb0 6f3f 62f6 9b3e 77d2 683f
000001d0: 7505 eb3e 3c86 313f 29d4 a93e 5613 ba3e
000001e0: e9da 883e ddf0 5b3f ef8c 443f 46f4 253f
000001f0: e8b5 623e fe83 333f 11d7 333f 46e4 2339
0.53882027 0.79447454 0.58120066 0.09549136 0.83548385 0.38719732 0.2836899 0.47586498
0.9125497 0.66761804 0.4206708 0.69083244 0.7178547 0.6961601 0.122850075 0.12919286
0.55895084 0.51877683 0.07857104 0.91525733 0.7343228 0.7351366 0.19755775 0.383571
0.67932767 0.4637179 0.28491235 0.8951497 0.5376708 0.6838562 0.030584766 0.38298586
0.1238377 0.3240627 0.866573 0.61234736 0.63891095 0.44761416 0.24358691 0.07641139
0.69507915 0.4377871 0.78228563 0.9894139 0.6568967 0.39180008 0.97886205 0.32822165
0.73857534 0.45822328 0.74820906 0.83875465 0.7997825 0.87130153 0.1889378 0.28850198
0.5181611 0.16048872 0.4999424 0.1560783 0.79328346 0.055234585 0.8123013 0.41464287
0.2022037 0.77770585 0.43693212 0.36335242 0.5016442 0.5578253 0.28338796 0.44783393
0.47194743 0.4797821 0.7010261 0.92351085 0.4610587 0.055310782 0.4510549 0.4708016
0.7431549 -0.0003313917 0.42048496 0.19837631 0.16200161 0.5518865 0.57191604 0.8409659
0.24109307 0.80249727 0.054152098 0.9533322 0.9650641 0.77927 0.5146413 0.033506658
0.7104367 0.5603345 0.29215223 0.86761445 0.101964824 0.51998323 0.8850384 0.90058804
0.19702496 0.22560978 0.6205935 0.62597996 0.3593217 0.63644755 0.36412144 0.96469903
0.31628108 0.9362828 0.30461413 0.90946144 0.459026 0.6934545 0.33169678 0.36342877
0.26729515 0.85914403 0.7677755 0.64825857 0.22139704 0.7012328 0.7025004 0.0001562993

bn2.bias f4 [128]
00000000: 6d46 fbbb 431b 2cbd 12f1 43bc d0e6 ba3c
00000010: a431 a3ba 2a26 2fbd 42d2 633c 8ed5 e73b
00000020: 3411 13bc 31cf bf3c ec59 253d 4e4f 173c
00000030: 8b3c a23c 2724 47bc 16bf 013c fbb5 05bc
00000040: 0c24 2d39 2b32 853d a5c4 fdbc 8229 84bb
00000050: 16b4 03bd e237 9a3c 5ea2 19bc d219 7fbd
00000060: ab79 89bc c98e ac3c 4846 06bd 8afd f83c
00000070: b0e9 373c 9dde 3fbc dfd7 4c3c 3e6b 883d
00000080: dbf6 f23c 8b0b b23b 8917 8c39 fb26 1dbd
00000090: 8d21 e93b ed87 f5bc 6095 503c 3863 cf3c
000000a0: e0f7 93bc 055d d3bb 9ddd 833a 8bf9 333b
000000b0: b07d 1cbc fa91 fcbc b3c2 f23c 5a4e 48bc
000000c0: 6041 b93c d4df fcbb 64f1 c5bd dd46 c23c
000000d0: bf90 aa3c e7d4 87bb f4ef b73c 8bf6 283c
000000e0: 95cc 4bbb 43b7 683c 1577 0f3c 1ac5 92bc
000000f0: b137 c33c ccc7 45bb dc81 e8bb ed17 14bb
00000100: 4e64 15bc 581a 2f3d d23c cebc 9e2b d83c
00000110: b55e 36bc 0b4b b1bc d436 233d 3ae8 42bd
00000120: 5d19 99bb 00f8 32bd 033a c6ba 38f2 6abc
00000130: ae6e 9ebc fe66 35bc d373 203c 29f7 0e3d
00000140: d88c 98bb 4339 34bb 96ef 223b c4ce 2ebd
00000150: 791b bbbb 8edd 053a bd8e eebb e8d9 1cbc
00000160: 8489 47bb 3801 dfbb 9a09 353d ddbd 043b
00000170: b3c3 613d a4e0 d73c f313 fbbb 13df bb3c
00000180: 466d 06bd 330b 02bd ce6f bf3c a95d ee3c
00000190: 8062 68bd 27fa e33c 35f4 20ba 8161 813c
000001a0: db35 273d 6142 343c bc9f 2c3d 4c3b b5bd
000001b0: 1cf7 0c3c e661 4abb 47b4 26bb 7e30 8bbc
000001c0: f097 20bc cc78 d9bb 9611 d63b 576a fabc
000001d0: fc43 27bd d1fb 793c 58ef 08bd 97b8 273d
000001e0: 7148 a7bc 025e 81bc 994c 253c 29e3 faba
000001f0: 5599 703b ef0f 0c3d 34aa 7cba df9c ecbb
-0.0076683075 -0.042018186 -0.011959331 0.022815138 -0.0012450707 -0.042761005 0.01390511 0.0070750182
-0.0089762695 0.023414226 0.04036896 0.009235216 0.01980426 -0.0121546155 0.007919094 -0.008161063
0.00016511994 0.065037094 -0.030977556 -0.0040332684 -0.032154165 0.018825475 -0.00937709 -0.062280484
-0.016781649 0.021064179 -0.03278187 0.030394334 0.011225149 -0.01171079 0.01250264 0.0666108
0.029658725 0.005433505 0.00026720416 -0.038367253 0.0071145953 -0.029972041 0.012730926 0.025315866
-0.018062532 -0.006450298 0.0010060553 0.0027461972 -0.009551451 -0.030831326 0.029633855 -0.012225712
0.022614181 -0.007717112 -0.09665182 0.02371543 0.020820973 -0.004145253 0.022453286 0.010312687
-0.0031097282 0.014203849 0.008756419 -0.017916251 0.023830267 -0.0030178903 -0.0070955586 -0.0022597269
-0.009118153 0.042749733 -0.025175486 0.026387986 -0.011130978 -0.021642229 0.03984721 -0.04758475
-0.004672213 -0.043693542 -0.001512349 -0.014339976 -0.019339886 -0.0110719185 0.00979324 0.03490368
-0.0046554618 -0.002749995 0.0024862043 -0.042677656 -0.005710062 0.00051065616 -0.0072801993 -0.009573437
-0.0030446956 -0.006805565 0.04419861 0.002025477 0.055118274 0.026352234 -0.0076622902 0.022933519
-0.032819055 -0.03174896 0.023368742 0.029097395 -0.056734562 0.027829243 -0.00061399053 0.015793564
0.040822845 0.011002154 0.042144522 -0.088492006 0.008603837 -0.0030881106 -0.0025437044 -0.016990896
-0.00980185 -0.0066367146 0.006532858 -0.030568285 -0.04083632 0.015257792 -0.03343138 0.040947523
-0.020420285 -0.015791897 0.010089063 -0.0019141185 0.0036712487 0.034194883 -0.00096383994 -0.007220849
