part_pc_vae_table/1754_net_part_pc_encoder.pth (torch_old, 244256 bytes, 28 tensors)

conv1.weight f4 [64, 3, 1]
0.31789884 -0.11323834 -0.32464716 0.35918927 0.25827357 0.55783844 0.44121057 -0.31212202
0.48435488 0.20368004 -0.3841888 -0.4980144 0.24565282 0.08837876 -0.10684274 -0.46827975
-0.4848734 -0.25975168 -0.30452073 0.378273 -0.44246036 0.123216994 -0.21415615 -0.44878605
-0.28549147 -0.4631437 0.31911552 0.032390963 0.09798553 0.6102707 -0.317282 0.15066804
-0.26232916 0.016691523 -0.49283266 -0.08827798 -0.5482296 0.3440077 -0.002694267 -0.23988478
-0.35335523 -0.212649 -0.58757806 -0.2404565 0.46933833 -0.021997752 0.37279084 0.5189736
-0.14128037 -0.49045378 -0.17486125 0.34512335 0.17488578 0.2506648 0.044909973 -0.32991806
0.022171043 0.26130638 -0.4669229 -0.10973524 -0.34489992 0.431851 0.34148994 0.05153399
-0.4173124 0.54273355 -0.43550214 0.2921414 0.21693388 0.33685833 -0.3844994 -0.032197587
-0.41758797 -0.11902281 0.15567808 -0.45320526 -0.47312796 0.059886463 -0.35876584 -0.48605645
0.1894361 0.50360584 0.36342192 -0.31878066 -0.39699918 -0.4278556 0.5330455 -0.55096394
-0.5854122 -0.3201434 -0.3061776 0.5309477 0.42003888 -0.08198823 -0.3815621 0.054412656
-0.050150894 0.16736953 -0.61350644 0.0506714 -0.54563355 -0.51790744 0.12972893 -0.23234901
-0.26279175 -0.47669682 0.12117144 0.5039228 0.17641053 0.4260631 -0.47342223 -0.1991061
0.26424152 -0.40880385 -0.22655356 0.28263128 -0.06433598 0.36164442 0.437746 0.5633135
0.42915165 -0.21213381 0.3784867 0.22581856 0.4704136 0.24103907 0.18443973 0.028838292
-0.0661797 -0.4872017 -0.52263665 0.48647264 0.29982722 -0.5289313 0.29452366 -0.2505835
0.40498832 -0.512371 0.2028152 -0.41041148 0.3212785 -0.13109082 0.43815076 -0.408147
-0.3799476 0.33111346 0.22586396 -0.4359359 -0.24266537 0.40505815 -0.5508357 -0.20902275
-0.046013225 -0.5082809 -0.33754626 -0.1165337 -0.41804987 -0.23017864 -0.12920009 0.5573621
0.01210845 -0.14277585 -0.17693152 -0.32899776 -0.26450357 0.06067156 -0.53011113 0.11944841
0.5211174 -0.1808914 0.5544398 0.4668727 -0.23050837 0.3350477 0.3193341 -0.28642428
-0.5066794 0.29385766 0.29808593 -0.5167551 0.04845027 0.5289671 -0.09515686 -0.44023594
0.3110082 0.22774912 -0.3795632 0.4704272 0.21493624 -0.00050028524 0.46890596 0.47415835
00000000: a3c3 a23e 81e9 e7bd 2738 a6be a8e7 b73e
00000010: 6f3c 843e 80ce 0e3f 5ae6 e13e 75ce 9fbe
00000020: 5dfd f73e 8091 503e 65b4 c4be befb febe
00000030: 6a8c 7b3e ecff b43d 5ed0 dabd 5dc2 efbe
00000040: 5441 f8be 2cfe 84be 24ea 9bbe 00ad c13e
00000050: 2a8a e2be 3159 fc3d c04b 5bbe 49c7 e5be
00000060: f02b 92be 2c21 edbe 1c63 a33e 63ac 043d
00000070: a3ac c83d b33a 1c3f c972 a2be b948 1a3e
00000080: 0250 86be a9bc 883c 9054 fcbe 16cb b4bd
00000090: c658 0cbf c721 b03e 4d92 30bb 5ba4 75be
000000a0: faea b4be a9c0 59be 846b 16bf 3b3a 76be
000000b0: 1d4d f03e a134 b4bc 71de be3e 74db 043f
000000c0: cdab 10be c21c fbbe d40e 33be 02b4 b03e
000000d0: 4215 333e 2357 803e 85f3 373d 05eb a8be
000000e0: 0ca0 b53c f3c9 853e 8510 efbe dfbc e0bd
000000f0: b996 b0be 931b dd3e c5d7 ae3e 4e15 533d
00000100: f9a9 d5be 96f0 0a3f 23fa debe 8f93 953e
00000110: ea23 5e3e b278 ac3e 1bdd c4be 9ee1 03bd
00000120: 17ce d5be 3bc2 f3bd 136a 1f3e 850a e8be
00000130: d43d f2be 824b 753d 28b0 b7be 64dc f8be
00000140: 89fb 413e 50ec 003f 7012 ba3e 3837 a3be
00000150: 7a43 cbbe e40f dbbe ab75 083f f90b 0dbf
00000160: 93dd 15bf d6e9 a3be 4fc3 9cbe 30ec 073f
00000170: 560f d73e 72e9 a7bd 1c5c c3be cedf 5e3d
00000180: 066b 4dbd eb62 2b3e c20e 1dbf d08c 4f3d
00000190: a4ae 0bbf 9595 04bf a9d7 043e e6ec 6dbe
000001a0: a48c 86be 9b11 f4be bb28 f83d 1601 013f
000001b0: f6a4 343e f124 da3e 6664 f2be 78e2 4bbe
000001c0: aa4a 873e bd4e d1be a8fd 67be 0cb5 903e
000001d0: 95c2 83bd 7529 b93e 3e20 e03e 5035 103f
000001e0: c4b9 db3e 9b39 59be 02c9 c13e fb3c 673e
000001f0: 0dda f03e f2d2 763e c5dd 3c3e 483e ec3c
00000200: 3989 87bd 8072 f9be 84cb 05bf f112 f93e
00000210: f482 993e 0b68 07bf cecb 963e 7b4c 80be
00000220: a15a cf3e bf2a 03bf caae 4f3e 7421 d2be
00000230: 9e7e a43e ac3c 06be 4c55 e03e a5f8 d0be
00000240: 7e88 c2be b487 a93e e248 673e fe32 dfbe
00000250: 457d 78be c863 cf3e 9203 0dbf 0f0a 56be
00000260: 5d78 3cbd b21e 02bf ddd2 acbe 38a9 eebd
00000270: a20a d6be f3b3 6bbe 074d 04be 48af 0e3f
00000280: 8562 463c d533 12be 892d 35be 6572 a8be
00000290: 036d 87be be82 783d 5db5 07bf 5ea1 f43d
000002a0: f367 053f 983b 39be c4ef 0d3f f009 ef3e
000002b0: 630a 6cbe 5f8b ab3e c27f a33e 34a6 92be
000002c0: beb5 01bf 8374 963e b89e 983e 104a 04bf
000002d0: ca73 463d 636a 073f 9ae1 c2bd 9b66 e1be
000002e0: 773c 9f3e 1137 693e 1c56 c2be d5db f03e
000002f0: 3f18 5c3e 9325 03ba 7114 f03e e2c4 f23e

conv1.bias f4 [64]
-2.6944568e-05 3.293385e-06 -6.0633683e-05 -4.6469493e-05 1.9755967e-06 1.7702587e-05 -7.4007796e-05 1.2082588e-05
-0.00023949992 1.2651726e-05 -7.812504e-05 3.9249142e-05 5.9120568e-05 -4.6044504e-05 0.00010451038 -3.0215358e-05
3.9170923e-06 5.487798e-05 -0.00031106183 -0.00022678763 3.0442656e-05 1.7451155e-05 1.672515e-05 0.00014320148
1.7667242e-05 5.6999674e-05 -1.3301034e-05 -5.0323055e-05 2.6627725e-07 1.68272e-05 1.2025661e-05 -0.00015180335
-3.4683468e-05 -2.2284185e-07 -2.3577027e-06 -1.2236854e-05 7.446593e-05 -9.130091e-06 -0.00012941103 -1.6929653e-06
2.0750518e-05 2.1432113e-06 -0.00016644388 -1.888515e-05 -7.520922e-05 3.8814225e-05 7.222143e-05 -1.1180064e-06
-1.3305954e-05 1.8148081e-05 5.3112366e-05 -1.5358326e-05 7.0708746e-05 0.00017161036 -0.00019236926 4.1300038e-05
2.9159117e-05 7.359932e-05 -3.116778e-05 4.5433882e-07 0.00022819104 8.4535845e-05 4.0567887e-05 -2.3282768e-05
00000000: 0507 e2b7 ec03 5d36 ec50 7eb8 3de8 42b8
00000010: 7e94 0436 0480 9437 a234 9bb8 52b6 4a37
00000020: 4522 7bb9 c042 5437 10d7 a3b8 729f 2438
00000030: 3af8 7738 e91f 41b8 952c db38 fd76 fdb7
00000040: 916f 8336 c82c 6638 0316 a3b9 d7cd 6db9
00000050: 1b5f ff37 1264 9237 fc4c 8c37 5b28 1639
00000060: 1d34 9437 ef12 6f38 8227 5fb7 f811 53b8
00000070: def4 8e34 2328 8d37 d2c1 4937 672d 1fb9
00000080: 1779 11b8 4d46 6fb4 0639 1eb6 e34c 4db7
00000090: 972a 9c38 712d 19b7 82b2 07b9 d839 e3b5
000000a0: 6611 ae37 17d4 0f36 7087 2eb9 8d6b 9eb7
000000b0: a4b9 9db8 75cc 2238 9675 9738 680e 96b5
000000c0: a33c 5fb7 b53c 9837 f8c4 5e38 c1d5 80b7
000000d0: 7849 9438 4ef2 3339 bbb6 49b9 9439 2d38
000000e0: ba9a f437 5659 9a38 26ba 02b8 daeb f334
000000f0: 9146 6f39 d648 b138 7027 2a38 5d4f c3b7

conv2.weight f4 [128, 64, 1]
0.03926095 -0.056146666 0.0319638 0.07179841 0.07207509 0.07634108 -0.09150593 -0.0012638184
-0.022815421 -0.09950379 -0.12719777 -0.086783454 -0.14498053 -0.0077592405 0.036052775 -0.04593134
0.02457837 -0.094818406 -0.059377395 -0.052876893 -0.06500505 0.08651545 -0.13760841 0.011223727
0.16870134 0.061410856 0.1133159 -0.050475698 0.14114505 -0.029111935 0.0020683887 0.012252958
0.08761295 -0.06584732 -0.09238473 -0.100983694 -0.068282336 0.08695135 0.02703781 0.009264968
-0.050249007 0.12708724 0.10572812 0.13267036 -0.078877755 -0.02677032 0.085509345 -0.07623126
-0.039794017 0.123855986 -0.041826386 0.0006362844 0.04934975 -0.02477949 -0.010584682 0.052729096
-0.05803918 0.059227046 -0.0093073035 0.005450203 0.08068589 0.0014466455 0.033057608 0.061646037
-0.12456504 -0.13120583 0.10392947 0.08894263 -0.014152808 0.08781657 -0.008604682 -0.01997677
-0.10623358 -0.13910939 0.02387572 -0.01578629 0.09213826 -0.12104931 -0.007136279 0.09822356
-0.11195401 -0.09827258 0.05343929 0.12944928 0.08661806 0.12817025 0.038650572 0.033760402
0.07152246 -0.10519001 -0.030989578 -0.110272534 -0.069114365 0.03528208 0.053196132 -0.015929697
-0.057750825 -0.10298531 0.029163662 -0.06059014 0.12974483 0.07073452 0.0031195467 0.01616647
0.09576516 -0.057927385 -0.13036962 0.0028163225 0.06361923 -0.02829705 0.12098296 0.027363067
0.058931343 0.04865605 0.006572519 0.08637431 -0.111574806 -0.0115404045 0.009679906 0.06292259
-0.04145966 -0.019855928 0.06951742 0.07777275 -0.09686025 0.055621848 0.012293078 0.016637918
-0.025727773 0.06880109 0.08149207 -0.040111475 0.027984502 0.07387581 -0.09517984 -0.08714705
0.05727026 0.02703454 0.026293473 -0.11507492 0.099993475 -0.060751744 -0.012104226 -0.037407156
0.030820724 -0.01747027 -0.14430408 0.080323875 0.082088 0.03525458 0.04399155 -0.08931626
-0.021373378 -0.06499696 -0.065951094 0.11661025 -0.06460313 -0.10654056 -0.11776563 0.11651271
0.042669147 -0.010022539 0.06810362 0.084932394 0.05112611 -0.05873649 0.10015283 0.06695243
0.0823657 0.11214457 -0.10359144 -0.044145804 -0.068675764 -0.055337917 -0.019425495 0.08034012
0.032699287 0.08907775 0.09851048 0.009319107 0.078260735 0.11746168 -0.037017543 -0.1227764
0.06062278 -0.0088646915 0.0033675258 0.13242103 0.07625236 0.113468386 -0.029090872 -0.012233775
-0.1102394 -0.052251548 -0.038126353 -0.09857135 -0.016961671 0.06924233 -0.110219 0.033674683
-0.0077944007 0.0981075 0.09946064 -0.055820532 0.037178148 -0.0020080374 0.083936416 0.06566742
0.024197537 0.044826515 0.11098986 0.043907125 -0.048609484 0.0008458375 -0.022220604 -0.093440264
0.014816549 0.078518644 -0.021141255 -0.03293003 -0.05429249 0.060798727 -0.06717086 0.13356528
0.0061908653 0.047794323 0.062284004 0.053374615 -0.06522909 0.09862288 -0.065481946 0.08895152
-0.054129776 0.10756171 0.089466 0.09278542 -0.024726348 0.020870987 0.100830115 -0.00962414
-0.01961406 -0.07505362 -0.06826776 0.093545 0.079536185 -0.09263601 -0.03200731 -0.032984644
-0.11112819 -0.06075667 -0.04960825 -0.104269035 0.03193742 0.039897323 0.09292213 -0.015607797
00000000: 17d0 203d 0cfa 65bd 79ec 023d 0b0b 933d
00000010: 1b9c 933d b658 9c3d 7667 bbbd b5a6 a5ba
00000020: 68e7 babc a5c8 cbbd 2240 02be 86bb b1bd
00000030: c775 14be 3a41 febb 13ac 133d 8022 3cbd
00000040: 9458 c93c 2730 c2bd b635 73bd 7195 58bd
00000050: 5e21 85bd 032f b13d 38e9 0cbe b9e3 373c
00000060: 0bc0 2c3e f389 7b3d 2b12 e83d 9bbf 4ebd
00000070: 5488 103e 277c eebc ce8d 073b a1c0 483c
00000080: 6b6e b33d f6da 86bd 3534 bdbd 8ad0 cebd
00000090: 9cd7 8bbd 8d13 b23d 667e dd3c 18cc 173c
000000a0: e7d1 4dbd 2823 023e fc87 d83d bdda 073e
000000b0: a98a a1bd 6e4d dbbc 861f af3d 231f 9cbd
000000c0: 0dff 22bd 35a8 fd3d 2552 2bbd 53cc 263a
000000d0: f722 4a3d 5bfe cabc 606b 2dbc 77fa 573d
000000e0: 7eba 6dbd 0f98 723d a97d 18bc 9e97 b23b
000000f0: a53e a53d 5e9d bd3a 6a67 073d 8e80 7c3d
00000100: f51b ffbd d25a 06be f9d8 d43d 8e27 b63d
00000110: 2ee1 67bc 2dd9 b33d a7fa 0cbc 53a6 a3bc
00000120: fe90 d9bd b172 0ebe 0497 c33c 4052 81bc
00000130: fcb2 bc3d b3e8 f7bd 72d7 e9bb 6f29 c93d
00000140: 2548 e5bd 2243 c9bd 28e3 5a3d 5a8e 043e
00000150: cf64 b13d 103f 033e 1050 1e3d 5948 0a3d
00000160: 5e7a 923d dc6d d7bd dbdd fdbc 91d6 e1bd
00000170: d58b 8dbd f183 103d 30e4 593d ff7e 82bc
00000180: 218c 6cbd f6e9 d2bd a2e8 ee3c 5e2d 78bd
00000190: d4db 043e 43dd 903d 4f71 4c3b 8b6f 843c
000001a0: 8620 c43d 4445 6dbd 9d7f 05be 0d92 383b
000001b0: cd4a 823d 37cf e7bc eac5 f73d 8328 e03c
000001c0: fe61 713d 914b 473d 495e d73b 04e5 b03d
000001d0: 5581 e4bd f713 3dbc 7898 1e3c 8fdd 803d
000001e0: 9bd1 29bd e6a8 a2bc 265f 8e3d 5247 9f3d
000001f0: ab5e c6bd bcd3 633d e868 493c 3e4c 883c
00000200: 0dc3 d2bc 96e7 8c3d 50e5 a63d ee4b 24bd
00000210: c13f e53c 334c 973d a6ed c2bd 277a b2bd
00000220: 3894 6a3d 8a77 dd3c 6965 d73c 66ac ebbd
00000230: 61c9 cc3d d2d6 78bd ce50 46bc 3f38 19bd
00000240: be7b fc3c d01d 8fbc 73c4 13be d880 a43d
00000250: c11d a83d 1b67 103d 7c30 343d 71eb b6bd
00000260: 3917 afbc 201d 85bd 5e11 87bd 5bd1 ee3d
00000270: a54e 84bd f031 dabd 1b2f f1bd 379e ee3d
00000280: d8c5 2e3d 9335 24bc e979 8b3d 09f1 ad3d
00000290: 9d69 513d ac95 70bd ed1c cd3d 5b1e 893d
000002a0: 59af a83d 0dac e53d c027 d4bd 3bd2 34bd
000002b0: e1a5 8cbd 03aa 62bd 3722 9fbc 5c89 a43d
000002c0: b0ef 053d 656e b63d ddbf c93d 2baf 183c
000002d0: 2a47 a03d c08f f03d b59f 17bd 3172 fbbd
000002e0: 984f 783d 363d 11bc b5b1 5c3b 6199 073e
000002f0: 332a 9c3d 1d62 e83d fb4f eebc 2c70 48bc
00000300: 32c5 e1bd b805 56bd 612a 1cbd c7df c9bd
00000310: 34f3 8abc ecce 8d3d 80ba e1bd 77ee 093d
00000320: 2c68 ffbb 96ec c83d 05b2 cb3d 12a4 64bd
00000330: 1d48 183d 4799 03bb dbe6 ab3d a47c 863d
00000340: ea39 c63c 029c 373d a74e e33d f5d7 333d
00000350: bd1a 47bd 32bb 5d3a fc07 b6bc 9c5d bfbd
00000360: 1cc1 723c 62ce a03d 6d30 adbc a4e1 06bd
00000370: cd61 5ebd 1608 793d e090 89bd 56c5 083e
00000380: bedc ca3b fbc3 433d 831d 7f3d 579f 5a3d
00000390: d496 85bd cbfa c93d 661b 86bd 372c b63d
000003a0: 2fb7 5dbd 5049 dc3d f339 b73d 4806 be3d
000003b0: e98e cabc a2f9 aa3c 0580 ce3d 92ae 1dbc
000003c0: aaad a0bc b6b5 99bd f8cf 8bbd 8594 bf3d
000003d0: dee3 a23d f3b7 bdbd 191a 03bd e81a 07bd
000003e0: 2d97 e3bd fcdb 78bd 0532 4bbd 018b d5bd
000003f0: d0d0 023d 606b 233d f54d be3d d8b7 7fbc

conv2.bias f4 [128]
-1.02188815e-05 7.3492956e-05 7.71483e-06 1.835526e-06 -3.0063266e-05 5.208051e-06 -8.980642e-06 -4.432415e-05
-6.600681e-06 -5.546931e-05 -3.397022e-05 -1.3891908e-05 -2.911347e-06 2.968653e-05 -2.3612081e-07 8.948458e-06
2.0473368e-05 8.303915e-06 -6.542703e-07 5.0303344e-05 4.7413065e-05 -4.948491e-06 6.417937e-07 -2.2706647e-05
-1.0451645e-06 -1.540775e-05 3.897193e-06 -3.4080364e-05 1.1513487e-06 6.51237e-05 -6.2031563e-07 -1.6269778e-05
2.4668374e-05 2.4576046e-05 9.016398e-05 -1.8326307e-05 -3.9386185e-05 -9.443698e-06 -3.73824e-05 -5.02365e-40
4.3153163e-05 2.344098e-05 -6.130463e-06 -4.7141137e-05 9.917705e-06 1.5452631e-05 -3.280018e-05 -4.125705e-06
-0.00014667459 -2.6706119e-05 -7.2297394e-06 -0.000117038326 0.00011585548 -2.9087356e-05 6.9286017e-07 1.4084791e-05
-2.5591458e-05 6.3731914e-06 -2.5552501e-05 -2.2102436e-06 -4.504394e-05 -6.8338413e-06 -2.948189e-05 -6.1044097e-06
4.1178823e-06 3.9811213e-05 -2.0845334e-06 -1.6412274e-05 -2.0931842e-05 -1.6612966e-06 7.5951107e-06 -1.3156348e-06
-5.9766553e-05 4.999832e-06 -3.5030935e-05 6.4356565e-05 4.3611353e-06 1.6961113e-06 1.5383175e-05 2.3936831e-05
8.627227e-06 1.24077e-40 -5.6240383e-06 8.425672e-06 -3.4560155e-06 1.1368256e-05 -2.3380947e-07 -7.867809e-05
4.3047362e-07 4.3796626e-05 -6.6745883e-06 2.6296097e-05 4.0678642e-05 1.7504746e-05 -1.584491e-05 -5.406265e-07
3.6655092e-05 6.7346546e-06 -6.261723e-06 -8.457517e-05 -1.3501596e-06 1.8841825e-05 5.9110458e-05 -1.23370255e-05
7.5206262e-06 -1.9596132e-06 -3.479341e-05 1.5214466e-05 -2.1011827e-05 2.0154705e-05 -2.1566419e-05 -3.994879e-05
-7.356655e-07 -4.0656192e-05 3.1999235e-07 8.845617e-06 9.972693e-06 1.5232868e-05 2.2877546e-05 7.494606e-05
-7.724478e-07 -3.6376772e-05 3.3214467e-06 2.7138927e-07 -6.3462135e-06 -4.7270343e-05 1.7526187e-05 2.0132035e-08
00000000: c371 2bb7 3b20 9a38 f16e 0137 315c f635
00000010: 5f30 fcb7 d1c0 ae36 90ab 16b7 b2e8 39b8
00000020: 6b7b ddb6 b8a7 68b8 3f7b 0eb8 4a11 69b7
00000030: 9060 43b6 5607 f937 6588 7db4 5621 1637
00000040: 39be ab37 0b51 0b37 1da1 2fb5 cefc 5238
00000050: 64dd 4638 370b a6b6 ba47 2c35 277a beb7
00000060: 9447 8cb5 e43f 81b7 a2c4 8236 83f1 0eb8
00000070: 0a88 9a35 0593 8838 c483 26b5 157b 88b7
00000080: eeee ce37 a828 ce37 6b16 bd38 72bb 99b7
00000090: 9832 25b8 6070 1eb7 0ccb 1cb8 6478 0580
000000a0: 5bff 3438 1fa3 c437 47b4 cdb6 69b9 45b8
000000b0: 3864 2637 46a0 8137 ed92 09b8 896f 8ab6
000000c0: a9cc 19b9 f406 e0b7 fd96 f2b6 7972 f5b8
000000d0: 70f7 f238 9f00 f4b7 fdfc 3935 b74d 6c37
000000e0: 3dad d6b7 4cd9 d536 9459 d6b7 b253 14b6
000000f0: 90ed 3cb8 404e e5b6 e04f f7b7 7bd4 ccb6
00000100: 572c 8a36 f7fa 2638 03e4 0bb6 17ad 89b7
00000110: ca96 afb7 b7f9 deb5 81d9 fe36 de94 b0b5
00000120: d9ad 7ab8 3bc4 a736 2eee 12b8 2bf7 8638
00000130: de55 9236 f1a5 e335 1e0b 8137 f4cb c837
00000140: a8bd 1037 e059 0100 1fb6 bcb6 fc5b 0d37
00000150: e5ed 67b6 4aba 3e37 0f0d 7bb4 faff a4b8
00000160: d81b e734 45b2 3738 47f6 dfb6 7096 dc37
00000170: 5c9e 2a38 28d7 9237 afea 84b7 921f 11b5
00000180: 1bbe 1938 3efa e136 ca1b d2b6 f35d b1b8
00000190: 2137 b5b5 830e 9e37 5fed 7738 1ffb 4eb7
000001a0: b059 fc36 e681 03b6 24ef 11b8 a241 7f37
000001b0: 8e42 b0b7 e611 a937 88e9 b4b7 b08e 27b8
000001c0: 8c7a 45b5 4186 2ab8 6acb ab34 a367 1437
000001d0: 6450 2737 ab90 7f37 28e9 bf37 5c2c 9d38
000001e0: 355a 4fb5 4393 18b8 05e6 5e36 75b3 9134
000001f0: 8ff1 d4b6 2544 46b8 3305 9337 d0ee ac32

conv3.weight f4 [128, 128, 1]
0.03904129 -0.06231539 0.04659561 0.018162383 -0.015847363 0.08819773 0.01034131 0.023841841
0.08825903 -0.077716485 0.016565569 -0.06349236 -0.03738993 0.028288234 -0.0028216585 0.06872243
-0.080974944 -0.021882936 0.039526366 -0.10317698 -0.063616775 -0.026930569 0.032598007 -0.0504811
0.024591539 -0.035981268 -0.0102932025 0.06849609 -0.0828158 0.07045521 0.046790548 0.063979395
-0.030226253 -0.07424835 -0.008802008 -0.0641851 -0.05403581 -0.04795188 0.03426724 9.703805e-23
0.08238347 0.016733546 0.01079233 -0.0015723186 -0.054870054 0.013001258 -0.0979703 -0.047727577
-0.14431824 0.044384833 0.017647913 0.015528024 0.039228555 0.10393956 -0.013555404 -0.009654372
0.010403737 -0.058785297 -0.055011023 -0.09685862 -0.071207926 0.031972006 -0.03594635 -0.09043733
-0.049584042 0.054587502 -0.03371749 -0.024698103 0.012091704 0.02718111 -0.028080098 -0.051925797
-0.02967313 0.07160611 -0.019326095 -0.05294694 0.07339217 -0.017579896 -0.024496127 0.10722599
0.031780716 -3.65464e-40 -0.098973155 0.00883135 0.038480774 0.008299942 0.07329091 0.016025538
0.014276632 0.09939367 -0.051748425 -0.050893392 0.004688523 0.05865113 -0.09634885 0.07416812
0.05619159 -0.076506354 -0.050852653 -0.027417824 0.016164511 0.041316867 -0.024683565 -0.10205681
0.010581808 -0.050582346 0.11323249 0.07963714 -0.03809031 -0.12089626 0.08880318 -0.0072002034
-0.009354221 0.05455456 0.026880259 -0.049323656 0.09816391 -0.031145383 -0.050186697 0.045634687
-0.07474599 0.04789262 -0.08447184 0.020628467 0.0030546675 0.09132174 -0.10705008 -0.0031115387
-0.062489778 0.05114954 0.024212595 -0.06434734 -0.04706225 0.062664114 0.00040150937 0.029460499
0.057029657 0.051078927 -0.0491499 -0.081807405 -0.034495592 0.03374774 -0.031954695 -0.013367318
0.060813557 -0.113411695 -0.070678934 -0.0640114 -0.081909455 -0.02749612 -0.03338981 0.031032573
-0.0067413286 -0.019399973 -0.018648252 -0.016555557 0.034825757 -0.039788738 0.07582869 0.025825411
0.024254188 -0.024209807 -0.03580135 -0.044357214 -0.059412107 -0.05103752 0.107434705 -1.543152e-06
0.000845511 -0.040951215 0.12041972 0.08198335 -0.012004803 0.084888615 0.034512565 -0.0086354455
0.09643073 -0.006407817 0.031103067 0.06942834 0.040443487 0.020449635 0.031421546 -0.0024953585
-0.036819942 0.029114222 0.03158326 -0.07896638 0.058864497 -0.004423907 0.08813158 -0.016291203
0.116892904 0.015664428 -0.10515217 0.07442636 -0.10440153 -0.014201677 0.056060463 -0.06282621
0.070689276 0.010800561 -0.011735221 0.09343162 0.053312924 -0.00023096472 -0.07045885 -0.087775216
-0.049672354 1.87715e-40 -0.053072885 -0.058852788 0.039113212 -0.013023911 -0.068359464 -0.06388955
0.0147549985 0.013800551 -0.012804777 -0.07635555 -0.08998272 0.071407266 0.01995749 0.036730945
-0.010665453 -0.08174222 -0.066801496 -0.06745011 -0.013546194 -0.061331432 -0.0037901716 0.010083387
-0.07005925 -0.07973215 0.025625192 -0.0009277181 -0.06066035 -0.012322555 0.01532424 -0.10866242
0.011130561 0.060744256 0.046332534 -0.03932201 -0.04098253 0.03208277 0.0912304 0.027426885
-0.014110597 0.016666932 0.06641232 -0.058721073 -0.09510013 -0.014594748 0.060033083 0.012138438
00000000: c2e9 1f3d 6c3e 7fbd 0adb 3e3d 47c9 943c
00000010: 54d2 81bc 03a1 b43d 996e 293c f74f c33c
00000020: 26c1 b43d d229 9fbd 84b4 873c 4808 82bd
00000030: 2f26 19bd babc e73c 93eb 38bb 58be 8c3d
00000040: 31d6 a5bd d843 b3bc 66e6 213d 744e d3bd
00000050: 8349 82bd 7f9d dcbc 7d85 053d 45c5 4ebd
00000060: 3274 c93c 1861 13bd d2a4 28bc ae47 8c3d
00000070: 559b a9bd d24a 903d 72a7 3f3d a107 833d
00000080: 0c9d f7bc 850f 98bd 4c36 10bc 7a73 83bd
00000090: a754 5dbd 3169 44bd ce5b 0c3d a59f ea1a
000000a0: aab8 a83d ca14 893c 50d2 303c 4216 ceba
000000b0: 6cbf 60bd 3a03 553c a7a4 c8bd fe7d 43bd
000000c0: 29c8 13be dfcc 353d 5b92 903c 4169 7e3c
000000d0: 1fae 203d 44de d43d 7c17 5ebc 5f2d 1ebc
000000e0: 7074 2a3c dac8 70bd 3d53 61bd d05d c6bd
000000f0: 76d5 91bd 14f5 023d 7b3c 13bd 3537 b9bd
00000100: a318 4bbd 2597 5f3d 5a1b 0abd ad53 cabc
00000110: 481c 463c ebaa de3c 3c08 e6bc 25b0 54bd
00000120: 1015 f3bc 39a6 923d c251 9ebc e4de 58bd
00000130: a24e 963d b703 90bc 1aac c8bc 4d99 db3d
00000140: 7f2c 023d c4fa 0380 70b2 cabd 5eb1 103c
00000150: 049e 1d3d 7bfc 073c 8b19 963d fd47 833c
00000160: 89e8 693c e98e cb3d 28f6 53bd 9775 50bd
00000170: 2ea2 993b 2b3c 703d 8c52 c5bd 75e5 973d
00000180: 2729 663d 5daf 9cbd df4a 50bd 589b e0bc
00000190: 706b 843c e03b 293d 3035 cabc 2903 d1bd
000001a0: 525f 2d3c 6f2f 4fbd 70e6 e73d cc18 a33d
000001b0: 9604 1cbd 7598 f7bd 71de b53d afef ebbb
000001c0: 7242 19bc 9a74 5f3d fd33 dc3c 9a07 4abd
000001d0: 290a c93d 9a24 ffbc 9190 4dbd 70eb 3a3d
000001e0: 6d14 99bd 0d2b 443d 92ff acbd 08fd a83c
000001f0: d130 483b e406 bb3d 133d dbbd f5ea 4bbb
00000200: 48f5 7fbd 2e82 513d 7e59 c63c 8ac8 83bd
00000210: 59c4 40bd 0b56 803d ad81 d239 2557 f13c
00000220: ee97 693d 2338 513d 6851 49bd a48a a7bd
00000230: 404b 0dbd 123b 0a3d ede2 02bd 9802 5bbc
00000240: a317 793d 6444 e8bd 1ec0 90bd 6918 83bd
00000250: 25c0 a7bd 8b3f e1bc c1c3 08bd 0638 fe3c
00000260: 5de6 dcbb b1ec 9ebc 38c4 98bc 859f 87bc
00000270: 74a5 0e3d 84f9 22bd 124c 9b3d d08f d33c
00000280: b8b0 c63c a553 c6bc 70a4 12bd e9af 35bd
00000290: 1c5a 73bd b80c 51bd ba06 dc3d 4d1e cfb5
000002a0: 48a5 5d3a 76bc 27bd 9d9e f63d e3e6 a73d
000002b0: cbaf 44bc 15da ad3d 0c5d 0d3d af7b 0dbc
000002c0: 797d c53d aaf8 d1bb dccb fe3c 7230 8e3d
000002d0: 12a8 253d fe85 a73c e1b3 003d 2b89 23bb
000002e0: 82d0 16bd f380 ee3c 735d 013d 20b9 a1bd
000002f0: e61b 713d 6cf6 90bb 547e b43d 2175 85bc
00000300: 8c65 ef3d b052 803c 055a d7bd d96c 983d
00000310: 78d0 d5bd 27ae 68bc a89f 653d 07ab 80bd
00000320: 8ac5 903d d6f4 303c 1645 40bc 1459 bf3d
00000330: a75e 5a3d 1f2f 72b9 bb4c 90bd 7ec3 b3bd
00000340: 3d75 4bbd 460b 0200 f462 59bd 9f0f 71bd
00000350: 2d35 203d 3e62 55bc 0c00 8cbd 86d8 82bd
00000360: f3be 713c b51b 623c 21cb 51bc 4c60 9cbd
00000370: dc48 b8bd f93d 923d e47d a33c 3073 163d
00000380: 27be 2ebc 7768 a7bd 39cf 88bd 4923 8abd
00000390: dbf0 5dbc ab36 7bbd 8764 78bb ca34 253c
000003a0: 397b 8fbd 9c4a a3bd eceb d13c 1c32 73ba
000003b0: fd76 78bd 8be4 49bc 8512 7b3c 678a debd
000003c0: f55c 363c f8ce 783d 2fc7 3d3d 1e10 21bd
000003d0: 4cdd 27bd 3969 033d 01d7 ba3d 59ae e03c
000003e0: 2230 67bc 1789 883c 2f03 883d 8285 70bd
000003f0: dbc3 c2bd cf1e 6fbc 40e5 753d 4de0 463c

conv3.bias f4 [128]
-6.480203e-06 -3.6785215e-05 7.4700046e-07 -2.950919e-06 1.5202947e-05 9.16662e-06 -6.030673e-05 2.1722595e-05
-2.6779831e-05 2.952741e-06 -7.255379e-06 -5.715777e-07 5.9133267e-06 7.364575e-08 2.6083278e-06 -2.2758044e-05
2.475003e-05 5.509222e-06 7.2053003e-06 -4.505403e-06 2.8093995e-05 -1.3481635e-07 3.694555e-05 3.3709624e-05
2.0379288e-05 6.0624923e-05 -1.0030116e-06 2.711228e-06 4.0763538e-05 1.7150416e-05 1.7591445e-06 -5.629922e-06
9.982642e-07 -2.0390107e-05 2.3049179e-05 -5.155012e-06 1.3648433e-05 -1.710181e-05 -2.4322585e-06 -3.9755687e-06
-2.2603508e-06 -1.1850809e-05 -4.129613e-05 8.372869e-06 1.3609191e-05 3.2684418e-06 -3.627707e-05 -8.254682e-06
-2.7524886e-06 -1.8291825e-05 -1.6149708e-05 6.4401124e-06 3.828617e-06 3.6171552e-06 -7.331996e-07 -2.026128e-05
0.0001148837 -1.713776e-05 -2.3141121e-05 -4.194269e-05 -1.6998929e-05 -4.9429906e-05 7.724733e-06 -3.1872383e-05
5.190071e-06 3.3491076e-05 1.755554e-07 -2.4742003e-06 1.8617822e-05 -1.2087804e-05 3.6694353e-05 -2.9325973e-05
-2.4718784e-06 -4.049863e-05 1.1054189e-05 4.6911146e-06 -6.0935563e-06 -1.4728761e-05 -3.204043e-05 6.9119824e-06
-3.5642457e-05 -7.457171e-06 -6.3032035e-06 -2.877356e-05 -2.4823285e-06 1.7689608e-05 3.7392763e-06 -1.2076429e-05
-1.5379197e-05 -2.0409009e-06 -1.2007409e-05 1.2183783e-05 2.5334148e-06 -3.267506e-06 2.2120537e-06 -1.5976508e-05
3.1449298e-07 -4.015147e-05 -2.3573779e-05 3.3887023e-05 -5.4941597e-06 3.1783005e-05 3.1116102e-05 -6.0181324e-06
-5.6106746e-05 -5.0142394e-06 2.1050112e-06 -7.750321e-05 -1.4175209e-05 -6.8215613e-06 1.1254706e-05 -3.0987894e-06
-3.1759086e-05 4.9153577e-06 -1.00173165e-05 -4.2632664e-06 -2.013161e-06 -3.176227e-05 1.6975251e-05 -1.5612426e-05
6.339579e-06 -4.4885255e-05 -3.3987035e-06 -7.621403e-05 1.9217328e-05 -1.5199088e-05 2.631178e-06 -5.678356e-06
00000000: 8570 d9b6 d349 1ab8 7b85 4835 6708 46b6
00000010: 2910 7f37 55ca 1937 dcf1 7cb8 eb38 b637
00000020: 40a5 e0b7 b427 4636 3b73 f3b6 856e 19b5
00000030: 176b c636 2e27 9e33 bb0a 2f36 87e8 beb7
00000040: 499e cf37 dbdb b836 0fc5 f136 1e2d 97b6
00000050: 65ab eb37 09c2 10b4 fbf5 1a38 6f63 0d38
00000060: 30f4 aa37 8447 7e38 379f 86b5 8bf2 3536
00000070: 84f9 2a38 3dde 8f37 bf1b ec35 a9e8 bcb6
00000080: 19fc 8535 6c0b abb7 bc59 c137 37f9 acb6
00000090: 93fb 6437 db75 8fb7 e239 23b6 e065 85b6
000000a0: 88b0 17b6 d6d2 46b7 6235 2db8 3379 0c37
000000b0: 0853 6437 6757 5b36 3528 18b8 977d 0ab7
000000c0: 65b7 38b6 6571 99b7 3c79 87b7 2518 d836
000000d0: 9277 8036 41be 7236 18d1 44b5 c4f6 a9b7
000000e0: b7ed f038 0fc3 8fb7 2e1f c2b7 9feb 2fb8
000000f0: ec98 8eb7 f552 4fb8 7a99 0137 b6ae 05b8
00000100: 5f26 ae36 c578 0c38 4d80 3c34 700a 26b6
00000110: 782d 9c37 b9cc 4ab7 43e8 1938 0c01 f6b7
00000120: 8ce2 25b6 13dd 29b8 6175 3937 5e68 9d36
00000130: 4077 ccb6 8c1b 77b7 2663 06b8 7aed e736
00000140: cc7e 15b8 9c38 fab6 1b80 d3b6 c05e f1b7
00000150: 1496 26b6 2564 9437 47f0 7a36 de9b 4ab7
00000160: 9302 81b7 69f6 08b6 6e73 49b7 f368 4c37
00000170: bc03 2a36 5347 5bb6 cb72 1436 4a05 86b7
00000180: 96d7 a834 5068 28b8 4ec0 c5b7 ea21 0e38
00000190: 795a b8b6 be4e 0538 a982 0238 5def c9b6
000001a0: 2954 6bb8 fd3f a8b6 d143 0d36 3889 a2b8
000001b0: 0fd2 6db7 c4e4 e4b6 98d2 3c37 ccf4 4fb6
000001c0: 0f35 05b8 9aee a436 0c10 28b7 2e0d 8fb6
000001d0: d819 07b6 7a38 05b8 1366 8e37 6ef7 82b7
000001e0: 92b8 d436 2d43 3cb8 4815 64b6 19d5 9fb8
000001f0: e634 a137 96ff 7eb7 4b93 3036 b588 beb6

conv4.weight f4 [100, 128, 1]
0.09177344 -0.051149584 -0.00082805875 -0.053464074 0.015214885 -0.04297934 0.043939687 0.064065196
0.05865102 -0.105010614 -0.0017892524 -0.08716263 0.020684762 -0.1037586 -0.0069291093 -0.040878173
-0.006446549 -0.11670222 0.004460031 -0.05248209 -0.075874716 0.1043839 -0.0055810013 0.016052725
0.04609762 0.014312691 0.042299263 0.024445985 -0.028530974 0.09266526 0.082191296 -0.035730686
-0.04556915 0.0032932984 0.06791795 0.009655243 0.02718863 -0.043517385 -0.059158877 -0.13914311
-0.10578793 -0.08263164 -0.042395286 -0.0047145793 -0.16470711 -0.039220206 -0.022210501 0.08037088
0.020597184 -0.037244715 -0.008703136 -0.03240914 0.015777962 -0.021812586 0.016795013 -0.06244817
-0.01581965 -0.025374439 -0.15634882 0.074748315 0.039921284 0.08513986 0.09103044 0.010631011
-0.03337012 0.066369966 -0.01911742 -0.008114372 0.13847823 0.023560796 0.08727149 0.030658547
-0.06261281 -0.07483738 0.025833426 -0.11724017 0.08013231 0.03577176 0.0335662 -0.14740111
0.002829784 0.09721449 -0.043057356 -0.02843912 -0.035700843 -0.047883768 0.0023562922 0.033352904
0.0017570775 0.025472213 -0.07811644 -0.0703885 0.01605364 -0.0513262 -0.07531276 -0.09028383
-0.091287434 -0.0019064657 -0.08446476 -0.046189312 0.06859099 -0.15815985 0.0008367629 0.019869791
-0.059006423 0.123001866 -0.0809121 -0.04433889 -0.044873662 0.029273026 0.038371433 -0.07542485
0.02315543 -0.010306411 0.15630099 0.0011093084 -1.294701e-05 0.004869268 -0.06661946 0.019537736
0.118853115 0.007700358 0.029953325 -0.07862172 -0.09165769 0.04666125 -0.16085254 0.044626366
-0.08709001 0.052115403 0.02083479 0.016104389 -0.026289552 -0.06724947 0.028048187 -0.049993888
-0.066405185 -0.0619815 0.0686842 -0.02417616 0.044698343 -0.029798567 -0.048057124 0.04488931
0.033990834 -0.017889328 0.008948607 -0.03290448 0.055147078 -0.029130869 0.04510212 0.038901027
0.071273 0.01105065 -0.08273681 -0.07284144 -0.057656594 -0.07256984 0.0454107 -0.035804812
0.090265274 -0.113621004 -0.10292393 -0.06035373 -0.1338479 0.07435094 0.020651946 -0.041069
-0.012977521 -0.017757842 0.048180453 0.07761907 0.0411175 0.0009417705 0.03877222 0.13157707
0.040550746 -0.005014288 0.06583975 0.014585154 -0.12641011 -0.07522439 -0.060058486 -0.019581623
0.060743216 -0.05450205 -0.05115824 0.04254781 0.040028915 -0.07143749 0.04141108 -0.08766551
0.07623032 0.006761038 0.013520341 -0.08967709 0.06189886 0.01441854 -0.014472217 -0.06067811
-0.052299626 -0.1106826 -0.05099818 0.081463486 0.055976596 -0.004063464 0.019317111 0.0055033723
0.07139426 -0.048389737 0.06360112 -0.019700142 -0.075882025 -0.0048562638 0.11204424 0.0034944592
-0.08030309 0.017231021 0.049703345 -0.09973469 -0.016560808 0.027195895 0.03656365 0.02041672
0.030217556 -0.03387011 -0.09143189 0.011124576 0.08269571 0.08046823 -0.087715335 0.10332035
-0.024047708 -0.055793714 -0.013231676 0.079560556 -0.00029174774 0.055615634 0.030230166 0.005715213
-0.012749098 -0.10702952 0.15934218 -0.05099173 -0.12657219 -0.09582657 0.059998054 0.019425334
-0.04344291 0.04340716 -0.05580473 -0.012015165 -0.20022422 0.012790949 -0.098129205 0.004516868
00000000: b7f3 bb3d 3a82 51bd 1512 59ba 25fd 5abd
00000010: da47 793c 1b0b 30bd 1afa 333d 9d34 833d
00000020: 0d3c 703d ce0f d7bd 5985 eaba 5282 b2bd
00000030: 1773 a93c 647f d4bd 950d e3bb df6f 27bd
00000040: 933d d3bb 9301 efbd 7425 923b 76f7 56bd
00000050: 3464 9bbd 3ac7 d53d d5e0 b6bb 0181 833c
00000060: dcd0 3c3d c77f 6a3c fe41 2d3d f242 c83c
00000070: cab9 e9bc 49c7 bd3d e953 a83d 575a 12bd
00000080: b8a6 3abd 61d4 573b 9118 8b3d 0631 1e3c
00000090: b1ba de3c 493f 32bd 9450 72bd 887b 0ebe
000000a0: 58a7 d8bd c73a a9bd aea6 2dbd c27c 9abb
000000b0: fba8 28be 5ea5 20bd ccf2 b5bc 7d99 a43d
000000c0: 6dbb a83c ea8d 18bd 9997 0ebc 72bf 04bd
000000d0: c940 813c 4fb0 b2bc b295 893c a7c9 7fbd
000000e0: 3698 81bc 0ede cfbc e819 20be a515 993d
000000f0: 8084 233d cf5d ae3d 2b6e ba3d b12d 2e3c
00000100: 1baf 08bd faec 873d 239c 9cbc 25f2 04bc
00000110: 3dcd 0d3e 9202 c13c 65bb b23d a227 fb3c
00000120: 253b 80bd 5744 99bd 9fa0 d33c 9d1b f0bd
00000130: 691c a43d 6985 123d b67c 093d 51f0 16be
00000140: e673 393b 6418 c73d e95c 30bd 28f9 e8bc
00000150: 0c3b 12bd c521 44bd 066c 1a3b 0e9d 083d
00000160: bd4d e63a 1aab d03c 83fb 9fbd d927 90bd
00000170: ec82 833c 6c3b 52bd 943d 9abd bbe6 b8bd
00000180: e8f4 babd 60e2 f9ba dcfb acbd 0131 3dbd
00000190: 6f79 8c3d a8f4 21be 355a 5b3a f9c5 a23c
000001a0: b8b0 71bd 67e8 fb3d 3eb5 a5bd b29c 35bd
000001b0: 72cd 37bd fccd ef3c 5d2b 1d3d 5878 9abd
000001c0: 75b0 bd3c 39dc 28bc 5e0d 203e 3766 913a
000001d0: fc36 59b7 618e 9f3b c96f 88bd 9a0d a03c
000001e0: 4369 f33d 4953 fc3b ad60 f53c 6d04 a1bd
000001f0: 07b7 bbbd de1f 3f3d 87b6 24be 23ca 363d
00000200: 3f5c b2bd f676 553d b9ad aa3c 5aed 833c
00000210: 305d d7bc 17ba 89bd 50c5 e53c 64c6 4cbd
00000220: 71ff 87bd 50e0 7dbd 4daa 8c3d 150d c6bc
00000230: 9c15 373d 201c f4bc 8cd7 44bd dadd 373d
00000240: f939 0b3d a48c 92bc 2e9d 123c d9c6 06bd
00000250: e7e1 613d dca3 eebc 00bd 383d af56 1f3d
00000260: 94f7 913d c90d 353c eb71 a9bd e52d 95bd
00000270: 5229 6cbd 7f9f 94bd 9200 3a3d 11a8 12bd
00000280: 00dd b83d 21b2 e8bd c8c9 d2bd 7935 77bd
00000290: 6d0f 09be 4e45 983d 452e a93c f837 28bd
000002a0: ab9f 54bc e578 91bc de58 453d bff6 9e3d
000002b0: d36a 283d 26e1 763a 9fcf 1e3d 24bc 063e
000002c0: 8a18 263d e54e a4bb fed6 863d 92f6 6e3c
000002d0: a771 01be 3f0f 9abd e3ff 75bd a469 a0bc
000002e0: e1cd 783d 8b3d 5fbd 4d8b 51bd 9d46 2e3d
000002f0: 5cf5 233d d24d 92bd aa9e 293d fa89 b3bd
00000300: a41e 9c3d b38b dd3b 6c84 5d3c 9fa8 b7bd
00000310: a989 7d3d bd3b 6c3c e11c 6dbc 9c89 78bd
00000320: 2238 56bd 8fad e2bd 78e3 50bd 54d6 a63d
00000330: b747 653d ce26 85bb eb3e 9e3c a255 b43b
00000340: 2737 923d 5134 46bd 4e41 823d 3162 a1bc
00000350: 0968 9bbd 4b21 9fbb 7377 e53d 4c03 653b
00000360: f275 a4bd 1228 8d3c bc95 4b3d b341 ccbd
00000370: 88aa 87bc edc9 de3c c4c3 153d f740 a73c
00000380: cf8a f73c 62bb 0abd a540 bbbd db43 363c
00000390: 5e5c a93d 87cc a43d 19a4 b3bd 9f99 d33d
000003a0: b3ff c4bc f387 64bd acc9 58bc a5f0 a23d
000003b0: b8f5 98b9 38cd 633d 41a5 f73c ae46 bb3b
000003c0: 98e1 50bc 4b32 dbbd 992a 233e b4dc 50bd
000003d0: 249c 01be b940 c4bd 85c0 753d e121 9f3c
000003e0: 31f1 31bd b5cb 313d 8093 64bd 41db 44bc
000003f0: 9407 4dbe 2191 513c f7f7 c8bd 3c02 943b

conv4.bias f4 [100]
-2.9448764e-05 3.952889e-06 3.2895794e-05 -1.5544938e-05 1.4504205e-05 9.105694e-06 -2.251432e-06 -1.1328702e-05
-1.3515456e-05 -2.8141405e-05 1.934153e-05 -6.929555e-05 7.0003944e-06 5.754592e-06 -3.9943943e-06 -3.9174258e-05
-3.4837176e-05 -1.7329701e-05 6.952701e-06 -7.269601e-06 2.4121287e-05 -4.972166e-07 2.5785217e-05 -3.5437362e-05
1.52049e-05 -2.8311304e-05 -4.8563983e-05 -1.0319152e-05 -1.1967295e-05 1.6409575e-05 5.821679e-05 2.5422038e-05
1.1539467e-05 -8.143884e-06 -4.420389e-06 1.6702736e-05 -4.8310896e-05 -3.514973e-05 -2.6000667e-05 -3.3228657e-06
2.4370542e-05 4.653212e-06 1.7312035e-05 3.8035872e-05 7.6808357e-07 -1.3129472e-05 1.6452306e-05 -5.5279626e-05
-5.181058e-06 2.8034641e-05 -2.3581691e-05 1.3068568e-06 6.830853e-05 2.4532275e-05 5.7419254e-07 -7.943399e-06
9.5012065e-06 3.6165522e-05 4.466188e-05 -3.231645e-05 -5.0458355e-05 3.524593e-05 1.7006636e-05 1.0667527e-05
2.1464668e-07 -5.528692e-05 2.3557033e-05 1.28712445e-05 6.9178527e-06 -9.868685e-06 1.2132304e-05 7.961973e-06
1.9857139e-06 -2.8420484e-06 2.0317875e-06 3.8254755e-05 -1.9621411e-05 -3.611118e-05 2.7644655e-05 -2.1997519e-05
-6.0623133e-05 2.3273948e-05 1.1052729e-05 -2.546388e-05 2.3270239e-05 1.530879e-05 -7.3065466e-06 -1.4031031e-05
-9.446601e-06 5.602459e-06 1.2983257e-05 -3.0911724e-05 4.114745e-06 -6.4419175e-05 3.0457402e-05 -1.9734712e-06
7.732997e-06 -3.1638427e-07 -1.424414e-05 -2.1417698e-05
00000000: bd08 f7b7 0fa3 8436 97f9 0938 8066 82b7
00000010: 1657 7337 a8c4 1837 4f17 17b6 6810 3eb7
00000020: 71c0 62b7 3511 ecb7 9f3f a237 c452 91b8
00000030: eee4 ea36 9217 c136 9607 86b6 0a4f 24b8
00000040: 221e 12b8 405f 91b7 3f4b e936 66ed f3b6
00000050: 1258 ca37 7778 05b5 554d d837 94a2 14b8
00000060: 8c18 7f37 107e edb7 2eb1 4bb8 6c20 2db7
00000070: 24c7 48b7 4ba7 8937 cd2d 7438 6941 d537
00000080: a299 4137 b7a1 08b7 da52 94b6 da1c 8c37
00000090: 6ea1 4ab8 bc6d 13b8 021c dab7 66fe 5eb6
000000a0: 576f cc37 c922 9c36 5039 9137 b588 1f38
000000b0: 4d2e 4e35 a746 5cb7 0f03 8a37 0cdc 67b8
000000c0: f3d8 adb6 ef2b eb37 4cd1 c5b7 4267 af35
000000d0: dd40 8f38 a9ca cd37 3622 1a35 a444 05b7
000000e0: 5f67 1f37 6fb0 1738 5453 3b38 868b 07b8
000000f0: 3fa3 53b8 07d5 1338 79a9 8e37 aef8 3237
00000100: a179 6634 e1e3 67b8 589c c537 93f1 5737
00000110: e71f e836 ae91 25b7 d98b 4b37 6a94 0537
00000120: 4e42 0536 05ba 3eb6 d859 0836 bb73 2038
00000130: a998 a4b7 1676 17b8 72e6 e737 5087 b8b7
00000140: 9845 7eb8 6c3c c337 1c6f 3937 449b d5b7
00000150: 7534 c337 606b 8037 c22a f5b6 d266 6bb7
00000160: d87c 1eb7 c2fc bb36 aad2 5937 36a7 01b8
00000170: 6411 8a36 c818 87b8 c67e ff37 fa6f 04b6
00000180: f8bc 0137 86db a9b4 1efa 6eb7 28aa b3b7

bn1.weight f4 [64]
0.24172683 0.16064881 0.6309493 0.4266044 0.018601686 0.7481771 0.30236074 0.08706483
0.93986475 0.46569014 0.52978504 0.6307637 0.6979829 0.32193202 0.95585895 0.34094077
0.06812732 0.4348656 0.8714985 0.87898993 0.41187692 0.26139048 0.97284657 0.6729329
0.28366956 0.9255722 0.87269723 0.61751616 0.053698283 0.18389341 0.28745234 0.96555716
0.6201525 0.035030782 0.27200422 0.7717905 0.6107656 0.7530389 0.48090717 0.60418576
0.7791564 0.92406905 0.5603602 0.32532275 0.5210189 0.9597669 0.34293088 0.01701925
0.22224474 0.79144776 0.62300503 0.1994927 0.6780954 1.0043683 0.6770836 0.6815384
0.4514627 0.9212146 0.7798347 0.40529042 0.90394706 0.8699614 0.57343924 0.7872489
00000000: 3d87 773e 1f81 243e e585 213f e46b da3e
00000010: 9062 983c 8988 3f3f 07cf 9a3e 0c4f b23d
00000020: fa9a 703f f06e ee3e fe9f 073f bb79 213f
00000030: 02af 323f 46d4 a43e 2cb3 743f ca8f ae3e
00000040: 5686 8b3d b4a6 de3e 871a 5f3f 7c05 613f
00000050: 88e1 d23e f9d4 853e 790c 793f 5545 2c3f
00000060: 233d 913e 4df2 6c3f 1669 5f3f 8a15 1e3f
00000070: bbf2 5b3d 8e4e 3c3e f42c 933e c12e 773f
00000080: 50c2 1e3f 707c 0f3d 2344 8b3e 1094 453f
00000090: 225b 1c3f 28c7 403f 7739 f63e ebab 1a3f
000000a0: cb76 473f ca8f 6c3f c473 0f3f b490 a63e
000000b0: 7f61 053f 49b3 753f a394 af3e f46b 8b3c
000000c0: 2094 633e 529c 4a3f 427d 1f3f d047 4c3e
000000d0: a997 2d3f 248f 803f 5a55 2d3f 4d79 2e3f
000000e0: 1e26 e73e b8d4 6b3f 3fa3 473f 3a82 cf3e
000000f0: 1369 673f cab5 5e3f eacc 123f 2589 493f

bn1.bias f4 [64]
-0.029726109 -0.039104722 0.012831227 -0.00431408 -0.010641202 -0.009176803 -0.0012439942 0.009774515
-0.024258599 0.07552817 0.019454638 0.042798914 0.0005328621 -0.0022967774 -0.0036336344 0.0494718
-0.0051097125 -0.035651006 0.040825963 -0.008384621 -0.053408828 -0.04220382 -0.07359506 -0.027380567
-0.028995862 0.042896096 -0.024457099 0.013712149 -0.04263732 -0.001569271 -0.005071674 0.025825309
-0.008477472 -0.03352187 -0.050121795 0.0861745 -0.027438115 0.04232106 -0.015016975 0.04537408
-0.0050827367 -0.030663846 -0.054956283 0.0061512296 0.034389768 0.034751 -0.0071450826 -0.02694217
-0.010887672 0.04295097 -0.019818818 -0.03735907 -0.029794108 -0.031120205 0.065434694 0.027335789
-0.016048804 0.0023535925 -0.029923014 -0.01136661 0.0443048 -0.08555145 -0.00060959364 -0.015673993
00000000: 2b84 f3bc 462c 20bd 113a 523c 205d 8dbb
00000010: 7058 2ebc 4d5a 16bc 850d a3ba 4a25 203c
00000020: f8b9 c6bc 83ae 9a3d 555f 9f3c ea4d 2f3d
00000030: c5af 0b3a 8885 16bb 4522 6ebb f1a2 4a3d
00000040: 606f a7bb ca06 12bd 2039 273d a65f 09bc
00000050: 37c3 5abd eadd 2cbd 02b9 96bd 364d e0bc
00000060: bb88 edbc d1b3 2f3d 415a c8bc eca8 603c
00000070: 78a4 2ebd ffaf cdba 4930 a6bb 998f d33c
00000080: 18e5 0abc 3a4e 09bd 834c 4dbd 427c b03d
00000090: e6c5 e0bc d958 2d3d c209 76bc 2cda 393d
000000a0: 168d a6bb bf32 fbbc d719 61bd 4190 c93b
000000b0: 49dc 0c3d 1157 0e3d 4c21 eabb d3b5 dcbc
000000c0: 3562 32bc 5bed 2f3d 135b a2bc d305 19bd
000000d0: c612 f4bc cdef febc a002 863d 4eef df3c
000000e0: c878 83bc bb3e 1a3b 1c21 f5bc 053b 3abc
000000f0: f378 353d 9935 afbd 23cd 1fba bf66 80bc

bn1.running_mean f4 [64]
-2.6998168e-05 3.406932e-06 -6.055734e-05 -4.656618e-05 1.9645663e-06 1.7635211e-05 -7.407546e-05 1.1998783e-05
-0.00023946333 1.2763459e-05 -7.8168996e-05 3.921812e-05 5.912888e-05 -4.609635e-05 0.00010457675 -3.0115116e-05
3.867626e-06 5.4931385e-05 -0.0003110688 -0.0002268178 3.0507637e-05 1.7534814e-05 1.6763237e-05 0.00014318652
1.7687385e-05 5.699119e-05 -1.3287759e-05 -5.0362585e-05 3.3895103e-07 1.674677e-05 1.2116729e-05 -0.00015180773
-3.478812e-05 -3.2715243e-07 -2.407198e-06 -1.2152874e-05 7.440163e-05 -9.193993e-06 -0.00012941723 -1.5777991e-06
2.0814221e-05 2.2054176e-06 -0.00016645259 -1.8828025e-05 -7.5173535e-05 3.873347e-05 7.226524e-05 -1.178754e-06
-1.325769e-05 1.8204955e-05 5.3087566e-05 -1.539416e-05 7.0674694e-05 0.00017159144 -0.0001924298 4.130532e-05
2.9252189e-05 7.365895e-05 -3.126402e-05 3.7469155e-07 0.00022819391 8.458273e-05 4.0611612e-05 -2.318133e-05
00000000: 207a e2b7 a5a2 6436 f3fe 7db8 0e50 43b8
00000010: fed6 0336 54ef 9337 f658 9bb8 614e 4937
00000020: 7318 7bb9 a422 5637 a9ee a3b8 237e 2438
00000030: 2701 7838 9457 41b8 3750 db38 b89f fcb7
00000040: a8c6 8136 2066 6638 f316 a3b9 f1d5 6db9
00000050: a7ea ff37 ba17 9337 c79e 8c37 5724 1639
00000060: 5f5f 9437 d309 6f38 7eee 5eb7 6a3c 53b8
00000070: 13f9 b534 6a7b 8c37 f448 4b37 942e 1fb9
00000080: 76e9 11b8 7da3 afb4 598b 21b6 32e4 4bb7
00000090: 1208 9c38 e63f 1ab7 2cb4 07b9 c4c4 d3b5
000000a0: 339a ae37 c900 1436 c789 2eb9 e0f0 9db7
000000b0: 7ca6 9db8 bf75 2238 1b8d 9738 ae35 9eb5
000000c0: 586d 5eb7 d8b6 9837 57aa 5e38 b522 81b7
000000d0: 3037 9438 3aed 3339 fbc6 49b9 403f 2d38
000000e0: 9962 f537 5979 9a38 7c21 03b8 3729 c934
000000f0: 5647 6f39 0262 b138 6356 2a38 8775 c2b7

bn1.running_var f4 [64]
0.03129473 0.06299732 0.06980748 0.04666854 0.013376798 0.06977257 0.050363977 0.027873967
0.044957012 0.03978234 0.02825946 0.022219392 0.06745692 0.026775034 0.09373446 0.040404815
0.028242826 0.03201156 0.009976305 0.03331542 0.051085837 0.046227753 0.048411082 0.034585
0.037002753 0.05935039 0.049094968 0.07053931 0.0755874 0.09906615 0.060915645 0.01439244
0.041966327 0.05467092 0.015127944 0.0708926 0.045073844 0.030933246 0.017149214 0.07508345
0.05380075 0.035384733 0.007009528 0.093822375 0.050458256 0.053417623 0.033190195 0.03726895
0.042337295 0.058418814 0.06198235 0.06084283 0.039806854 0.06129485 0.022867974 0.026792208
0.0864299 0.0577177 0.05327828 0.051944025 0.025955115 0.050694276 0.051556166 0.042825773
00000000: e72e 003d bd04 813d 39f7 8e3d 8327 3f3d
00000010: 5b2a 5b3c ece4 8e3d 754a 4e3d f257 e43c
00000020: d824 383d cff2 223d 6280 e73c 7105 b63c
00000030: db26 8a3d 5157 db3c daf7 bf3d 857f 253d
00000040: 805d e73c 8e1e 033d a873 233c c075 083d
00000050: 623f 513d 5059 3d3d b34a 463d 00a9 0d3d
00000060: 3390 173d 6519 733d ce17 493d ea76 903d
00000070: 91cd 9a3d 32e3 ca3d af82 793d 45ce 6b3c
00000080: e2e4 2b3d 9dee 5f3d 32db 773c 2430 913d
00000090: 5a9f 383d b867 fd3c 827c 8c3c 5ac5 993d
000000a0: 2d5e 5c3d 95ef 103d 2fb0 e53b f225 c03d
000000b0: 51ad 4e3d 70cc 5a3d 71f2 073d 54a7 183d
000000c0: df69 2d3d 9148 6f3d 34e1 7d3d 5536 793d
000000d0: 830c 233d 4f10 7b3d 9e55 bb3c 557b db3c
000000e0: 2902 b13d 6569 6c3d 533a 5a3d 42c3 543d
000000f0: d29f d43c cda4 4f3d 8f2c 533d 146a 2f3d

bn2.weight f4 [128]
0.5618916 0.80722004 0.5741524 0.051721882 0.81258845 0.3457391 0.19793545 0.48947784
0.888169 0.64225435 0.4141185 0.6730052 0.7146154 0.65389544 0.12124686 0.110100016
0.5400818 0.50295407 0.150149 0.9280228 0.70175433 0.76367766 0.20348617 0.38695827
0.7001185 0.50763464 0.25612244 0.9088456 0.55517375 0.7330167 0.029776918 0.3615218
0.17008798 0.35678303 0.8846554 0.5707052 0.64831865 0.46114597 0.28581327 0.003561657
0.72671646 0.48682296 0.74263316 0.9527391 0.6576642 0.36681426 0.9539785 0.27212638
0.7807012 0.53283256 0.7869642 0.8232971 0.78357935 0.8613941 0.191765 0.2629958
0.5123041 0.14972456 0.47739327 0.18330054 0.76724654 0.065121174 0.82971674 0.46017382
0.19865438 0.8349618 0.48773274 0.35250515 0.51434726 0.5267841 0.22644112 0.44460827
0.47739527 0.5427528 0.75262964 0.96142244 0.4109452 0.07860055 0.42022002 0.50262356
0.73676497 0.00039059692 0.45059258 0.20461002 0.095923595 0.49429104 0.5664032 0.8611511
0.20076002 0.8021418 0.06025091 0.935987 0.9766517 0.77942675 0.5074385 0.08163274
0.7458213 0.54280686 0.28446215 0.8574974 0.06773849 0.49517298 0.89327544 0.89190805
0.21760662 0.19459729 0.62609875 0.6314856 0.3484974 0.6341222 0.3691381 0.967363
0.25162545 0.9607485 0.3026047 0.92099875 0.48541278 0.67945963 0.3252943 0.406294
0.23977503 0.8690407 0.699668 0.65334976 0.23747092 0.6796615 0.7159301 0.0015102783
00000000: 21d8 0f3f f9a5 4e3f a7fb 123f 53da 533d
00000010: cc05 503f b704 b13e 97af 4a3e d79c fa3e
00000020: 0b5f 633f c86a 243f 5707 d43e 124a 2c3f
00000030: 09f1 363f b165 273f 4650 f83d 1e7c e13d
00000040: cd42 0a3f 99c1 003f a9c0 193e e792 6d3f
00000050: 2ca6 333f 6180 433f ae5e 503e 651f c63e
00000060: f73a 333f 58f4 013f 7b22 833e 1baa 683f
00000070: de1f 0e3f fca6 3b3f b9ee f33c 6319 b93e
00000080: 8b2b 2e3e 44ac b63e c778 623f bc19 123f
00000090: 36f8 253f 531b ec3e 1e56 923e b06a 693b
000000a0: 170a 3a3f dc40 f93e 351d 3e3f b6e6 733f
000000b0: ae5c 283f 14cf bb3e ef37 743f 2654 8b3e
000000c0: 09dc 473f b767 083f 7c76 493f 99c3 523f
000000d0: a898 483f 5384 5c3f 0b5e 443e 63a7 863e
000000e0: 5d26 033f 6551 193e e46c f43e 23b3 3b3e
000000f0: 456a 443f 405e 853d 5168 543f e79b eb3e
00000100: 0e6c 4b3e 0ec0 553f 1bb8 f93e 8e7b b43e
00000110: 43ac 033f 53db 063f 2ee0 673e b2a3 e33e
00000120: 276d f43e d9f1 0a3f 56ac 403f c81f 763f
00000130: 6967 d23e 53f9 a03d 1427 d73e f0ab 003f
00000140: a19c 3c3f 08c9 cc39 12b4 e63e 4a85 513e
00000150: 9773 c43d b713 fd3e cdff 103f 6674 5c3f
00000160: 0994 4d3e 2a59 4d3f a9c9 763d d89c 6f3f
00000170: d905 7a3f 8388 473f 7de7 013f 112f a73d
00000180: 25ee 3e3f 64f5 0a3f 06a5 913e f384 5b3f
00000190: 7aba 8a3d 5087 fd3e b3ad 643f 1654 643f
000001a0: 45d4 5e3e 8344 473e 0248 203f 0aa9 213f
000001b0: 406e b23e d555 223f abff bc3e 1aa5 773f
000001c0: 0dd5 803e 9df3 753f 01ef 9a3e 93c6 6b3f
000001d0: 0688 f83e 11f1 2d3f f98c a63e c405 d03e
000001e0: 9687 753e 7479 5e3f 711d 333f ee41 273f
000001f0: 942b 733e 4cfe 2d3f 3247 373f 88f4 c53a

bn2.bias f4 [128]
-0.04630089 0.012494647 -0.07534114 -0.041076597 -0.03718085 0.0043148003 -0.05356901 -0.0027158926
-0.057967126 -0.00784524 0.0809366 0.003562996 -0.030188506 -0.05567307 -0.002832266 -0.020332003
-0.06904385 -0.018858746 0.004648358 -0.043056626 -0.03360394 -0.0018293904 0.0016407951 -0.015020565
-0.022845604 5.3881708e-05 -0.04491089 0.003885201 -0.029447597 -0.003150614 -0.005714667 -0.04867891
0.042233344 0.038637582 0.049412962 -0.03236854 0.0056815716 -0.049921755 -0.011001189 -0.012027267
0.05138488 0.01234245 0.014822328 -0.069919564 -0.0248687 -0.046355996 -0.030933077 -0.007939838
0.025771484 -0.030287268 -0.0047787544 0.0376449 -0.009220816 -0.030524334 -0.011128387 -0.057042986
0.05188054 -0.050515335 -0.039614737 -0.07331912 -0.035353165 -0.0083790785 -0.056306407 -0.0063996282
-0.010788344 -0.02237513 -0.049459405 -0.03900575 0.0012075894 -0.06400071 -0.0455396 -0.016709218
-0.014763041 -0.086171575 0.010020428 -0.01487681 -0.023255268 0.012625029 -0.036579214 0.05551597
0.010731818 -0.007046733 -0.025376592 0.0033099898 -0.03953806 -0.025235169 -0.054521363 0.026847553
-0.053629965 -0.016234633 -0.03535924 -0.08488175 -0.018841825 -0.04244122 0.0045360015 -0.013729014
-0.0037603206 -0.059190184 0.022042928 0.030890869 -0.08585175 0.014669876 -0.016099682 0.018746508
0.04859561 0.050322015 -0.045343503 -0.021203378 0.008162207 -0.016802587 -0.055895492 0.0064204056
0.007605049 0.020817108 -0.022417145 -0.09798986 -0.012274907 -0.0277617 -0.036009092 0.009361031
-0.061011773 -0.055028297 0.02761341 -0.032806817 -0.05544949 -0.006533573 -0.026685705 0.0077955932
00000000: 01a6 3dbd 59b6 4c3c 754c 9abd ef3f 28bd
00000010: f24a 18bd 2b63 8d3b 2e6b 5bbd 1efd 31bb
00000020: f06e 6dbd 5289 00bc 17c2 a53d 2781 693b
00000030: e34d f7bc 7209 64bd 8a9d 39bb 4d8f a6bc
00000040: dd66 8dbd a87d 9abc 4151 983b 255c 30bd
00000050: 49a4 09bd 28c8 efba f30f d73a d118 76bc
00000060: b426 bbbc 0bff 6138 7bf4 37bd db9e 7e3b
00000070: 163c f1bc 887a 4ebb 1a42 bbbb 8963 47bd
00000080: dffc 2c3d 7142 1e3d 3f65 4a3d e094 04bd
00000090: 7a2c ba3b c17a 4cbd 553e 34bc 040e 45bc
000000a0: f478 523d fd37 4a3c 5ad9 723c fd31 8fbd
000000b0: 72b9 cbbc c9df 3dbd 5d67 fdbc 1816 02bc
000000c0: b81e d33c 011d f8bc 1997 9cbb 8a31 1a3d
000000d0: e812 17bc 2b0e fabc d753 36bc e8a5 69bd
000000e0: b080 543d 2be9 4ebd 1043 22bd 5628 96bd
000000f0: 7bce 10bd 6748 09bc 8ca1 66bd f9b3 d1bb
00000100: 98c1 30bc 0c4c b7bc f295 4abd 7ec4 1fbd
00000110: fa47 9e3a ce12 83bd bb87 3abd c5e1 88bc
00000120: afe0 71bc b97a b0bd b92c 243c ddbd 73bc
00000130: d581 bebc 36d9 4e3c 16d4 15bd b764 633d
00000140: 82d4 2f3c 48e8 e6bb 92e2 cfbc 6aec 583b
00000150: a9f2 21bd fcb9 cebc cb51 5fbd 66ef db3c
00000160: 18ab 5bbd 7efe 84bc dad4 10bd 7cd6 adbd
00000170: 2c5a 9abc d8d6 2dbd bda2 943b a9ef 60bc
00000180: b66f 76bb 6871 72bd 5f93 b43c d90e fd3c
00000190: 0bd3 afbd eb59 703c 7be3 83bc 4792 993c
000001a0: 310c 473d 751e 4e3d 1cba 39bd b5b2 adbc
000001b0: c7ba 053c 94a5 89bc acf2 64bd 4462 d23b
000001c0: c633 f93b a488 aa3c 29a4 b7bc e8ae c8bd
000001d0: b11c 49bc 816c e3bc 457e 13bd 035f 193c
000001e0: 7be7 79bd 5a65 61bd 8535 e23c 7160 06bd
000001f0: 011f 63bd 9517 d6bb fb9b dabc 2d72 ff3b
