part_pc_vae_bed/5000_net_part_pc_encoder.pth (torch_old, 244256 bytes, 28 tensors)

conv1.weight f4 [64, 3, 1]
000000 7e c1 84 3e cb a6 fe bd 80 a9 c5 be 34 21 c1 3e
       0.25928873 -0.12434157 -0.3860588 0.37720644
000010 2f 06 8d 3e f2 b3 09 3f a2 78 ce 3e 78 a4 b6 be
       0.2754378 0.537902 0.4032641 -0.35672355
000020 5f 61 fe 3e 9d 31 1a 3e aa 6a c5 be c0 dc 06 bf
       0.49683663 0.15057988 -0.3855794 -0.5268059
000030 59 d1 85 3e c8 18 2b 3d 62 a3 db bd 77 f1 de be
       0.26136282 0.04177168 -0.10724522 -0.43543598
000040 40 3e 00 bf 36 ed 89 be e2 04 a0 be da eb bc 3e
       -0.50094986 -0.2693879 -0.31253725 0.3689869
000050 11 30 dd be 45 fb 41 3e 3d 85 80 be 1c ff be be
       -0.43200734 0.18943508 -0.25101653 -0.37304008
000060 ee 17 a3 be 1c d5 d1 be 0f 40 b2 3e 75 36 c6 3c
       -0.31854194 -0.40982902 0.34814498 0.024195889
000070 f6 85 02 3e 2b 0c 16 3f 49 51 ac be 30 c0 27 3e
       0.12746415 0.58612317 -0.33655766 0.16381907
000080 02 cc 6d be c4 63 89 3b 2c c7 10 bf 96 34 7b bc
       -0.23222354 0.004192801 -0.5655391 -0.015332362
000090 d0 60 0d bf 2d 2e af 3e 0c d7 8c 3c 3b ed 6b be
       -0.5522585 0.34214917 0.017192386 -0.23039715
0000a0 00 48 b9 be 5e bc 5a be 84 28 05 bf d0 10 88 be
       -0.36187744 -0.21360919 -0.52014947 -0.26575327
0000b0 4a 7b 05 3f 0e 84 ae bd 18 03 a9 3e e0 ad 0b 3f
       0.5214125 -0.08521281 0.33010173 0.5456219
0000c0 36 41 00 be e5 7c 06 bf 67 76 08 be fc dc ad 3e
       -0.12524876 -0.52534324 -0.13326417 0.3395766
0000d0 ce 41 21 3e 11 45 83 3e 32 e1 8c 3d 2b 8f 9b be
       0.15747759 0.2563863 0.0687889 -0.30382666
0000e0 f4 2f 0e 3d 28 7c 97 3e 36 03 ce be e0 a9 24 be
       0.0347137 0.2958691 -0.40236825 -0.16080427
0000f0 70 c4 96 be 47 6d c8 3e f9 66 da 3e 58 41 01 3d
       -0.29446745 0.39145872 0.42656687 0.031556457
000100 b4 9f ea be 75 42 01 3f 12 60 f0 be ba 60 98 3e
       -0.4582497 0.5049203 -0.46948296 0.29761297
000110 1a e1 2f 3e db 07 a7 3e 43 ea cc be c4 23 09 bd
       0.17175713 0.3262318 -0.40022478 -0.033481374
000120 86 8b d2 be 2f f3 b2 bd 1a 20 3b 3e ee 86 d4 be
       -0.41122073 -0.0873779 0.18273965 -0.41509193
000130 87 9c 04 bf 30 98 1a 3d 00 02 b4 be ae 85 f4 be
       -0.5180134 0.037742794 -0.35157776 -0.4775824
000140 88 97 5d 3e 48 7b 0b 3f 77 3e ac 3e 91 37 95 be
       0.21639836 0.5448499 0.33641407 -0.29143956
000150 7c 9f b9 be 7b ef ed be 05 2b 09 3f 70 42 0f bf
       -0.3625449 -0.46471772 0.5358127 -0.5596075
000160 bc 33 18 bf 6c 0d a6 be 3e 7a 87 be 4a 27 0c 3f
       -0.5945394 -0.32432115 -0.2646045 0.5474745
000170 c8 8b dc 3e fb 6a 25 be dc fe 8b be 2d 71 f1 3d
       0.43075395 -0.16154091 -0.2734288 0.11789165
000180 c6 4f 61 3c 06 94 52 3e 56 ea 15 bf 05 92 a9 3d
       0.01375193 0.20564279 -0.58560693 0.08279804
000190 6a 1f 0c bf 40 5d 04 bf 6a 8d 16 3e 91 21 8b be
       -0.54735434 -0.5170479 0.14702383 -0.27174047
0001a0 bf f6 55 be 12 5d 03 bf 73 46 07 3e 19 fc ee 3e
       -0.20894907 -0.5131389 0.13210468 0.4667671
0001b0 a4 14 07 3e 90 45 f3 3e 51 2d eb be 7d 42 82 be
       0.13191468 0.4751401 -0.4593301 -0.25441352
0001c0 40 e9 8a 3e 65 8f b5 be 7b 01 65 be 06 50 90 3e
       0.2713108 -0.35460964 -0.22363846 0.28186053
0001d0 e2 4f 92 bd e5 29 b4 3e 89 6c f2 3e 61 b4 0c 3f
       -0.07144143 0.35188213 0.4734843 0.54962736
0001e0 6a 96 f4 3e c9 f1 73 be 4d 00 a2 3e 67 b6 88 3e
       0.47771007 -0.23822702 0.31640854 0.26701662
0001f0 9a bc d9 3e 8c 0c 82 3e b5 dc 2a 3e 87 48 70 3d
       0.42526704 0.25400198 0.16685756 0.058662917
000200 fa e0 95 bd e5 84 dd be 08 d6 0f bf 2e 7f 03 3f
       -0.073183015 -0.43265453 -0.5618596 0.51365936
000210 f8 36 9d 3e 20 94 0e bf 88 b1 7a 3e 7c 3b 6d be
       0.30706 -0.5569477 0.24481785 -0.23167223
000220 f4 ba be 3e 45 14 0d bf 8f 36 52 3e bd 42 dc be
       0.3725201 -0.55109054 0.20528625 -0.43019667
000230 48 84 94 3e e8 17 12 be 5f 65 f7 3e a8 a0 bf be
       0.29007173 -0.14266932 0.48319528 -0.37427258
000240 c7 1a c9 be 57 67 af 3e 6d 36 3f 3e d9 18 e0 be
       -0.39278242 0.3425853 0.18673106 -0.43768957
000250 8d 77 73 be 28 50 cf 3e cf cb 0d bf 9c 83 54 be
       -0.23776074 0.40490842 -0.5538911 -0.2075333
000260 06 f7 32 bd 76 e8 07 bf 29 0a b0 be 88 3f 7e bd
       -0.04369261 -0.5308908 -0.34382752 -0.062072307
000270 15 ff cd be 0a 43 6a be 3f c4 12 be 3c 81 04 3f
       -0.40233675 -0.22877136 -0.14332674 0.51759696
000280 69 93 8d bb 22 42 38 be b0 97 2c be 7d 19 a9 be
       -0.004320551 -0.17993978 -0.16854739 -0.3302726
000290 a4 df 82 be f9 96 13 3d 21 39 03 bf e5 c4 19 3e
       -0.2556125 0.03603265 -0.51259047 0.15016516
0002a0 34 df e6 3e d8 f3 9a be e7 9c 11 3f 63 a8 da 3e
       0.45092165 -0.30264163 0.5688004 0.42706594
0002b0 06 9d 36 be 91 b3 cc 3e 50 e8 aa 3e c6 c0 a2 be
       -0.17833337 0.39980748 0.33380365 -0.317877
0002c0 a3 e6 ec be c0 9d 8d 3e 88 fe 81 3e 00 95 0e bf
       -0.46269712 0.27659416 0.25389504 -0.55696106
0002d0 fb 89 d0 3b d1 04 fb 3e ca 8d 1a be 7f 92 ce be
       0.006364105 0.49027112 -0.1509315 -0.40346143
0002e0 04 06 aa 3e 98 9e 84 3e 40 98 db be 3c f0 cf 3e
       0.33207715 0.25902247 -0.42889595 0.40612972
0002f0 06 55 67 3e bf 04 ff 3a a8 09 c2 3e 5f 7c 10 3f
       0.22591028 0.001945637 0.37897992 0.56439775

conv1.bias f4 [64]
000000 ec 20 97 38 6a 36 3a 38 39 7d a1 b9 49 10 be 35
       7.206373e-05 4.4396533e-05 -0.0003080161 1.4160843e-06
000010 dc 16 3a 36 8f 26 3d b9 74 0a 77 39 bd ac 34 38
       2.7729466e-06 -0.00018038809 0.0002355965 4.307622e-05
000020 2c ac dc 3a 0c 8b 9f 39 33 17 9c b9 9d 6d 5b 39
       0.0016835979 0.0003043044 -0.00029771923 0.00020926302
000030 6c 5e 4d 3a 0b ac a3 39 58 43 25 3a ec 82 b3 39
       0.00078341994 0.00031217965 0.00063042855 0.00034239085
000040 fe 57 29 b9 ff 3a 11 39 fa 77 95 39 8b 1d 63 3a
       -0.00016149876 0.00013850255 0.00028508884 0.0008663765
000050 42 2b af b9 08 e2 e4 b8 97 da 53 39 af ec 40 39
       -0.0003341083 -0.00010913989 0.00020203959 0.00018398718
000060 ba 80 1d 39 da 7e ae 39 0c 06 0f b7 14 4e 84 b9
       0.00015020641 0.00033282378 -8.524872e-06 -0.00025235175
000070 82 f4 8f b7 91 36 e1 38 d3 b8 a9 39 98 65 72 3a
       -1.7160786e-05 0.00010739 0.00032371897 0.0009246706
000080 d5 f8 bd 38 86 da 88 b8 ad b6 09 39 f6 f6 c9 39
       9.058571e-05 -6.5256885e-05 0.0001313339 0.00038521708
000090 2f 4a 39 3a 88 9e 18 ba db 99 5b b9 b6 e5 8c 39
       0.0007068244 -0.0005821963 -0.00020942783 0.0002687403
0000a0 cd da 03 b9 e5 18 d3 3a 0f 18 00 ba 63 30 a7 b8
       -0.00012574643 0.0016105442 -0.00048863975 -7.972193e-05
0000b0 0f 81 40 b9 1b 8c b0 b8 27 17 84 ba 32 20 6a b4
       -0.00018358625 -8.418431e-05 -0.0010077701 -2.1804661e-07
0000c0 0c 75 7f b9 a0 ea 04 b9 fd 73 f1 b9 26 95 85 b9
       -0.00024362298 -0.00012675906 -0.0004605352 -0.0002547886
0000d0 dc 58 bf 39 1f c5 87 ba f7 d4 03 b9 f5 a2 03 b9
       0.00036496564 -0.0010358429 -0.00012572469 -0.0001255384
0000e0 4d d9 dd b8 fc 03 c7 b9 71 13 12 ba c8 13 ea 39
       -0.000105785766 -0.00037959206 -0.0005572355 0.00044646696
0000f0 4e 45 e0 ba d5 42 a3 ba ac 63 4f 39 1f 1c c3 b9
       -0.0017110498 -0.0012455831 0.00019778189 -0.0003721425

conv2.weight f4 [128, 64, 1]
000000 0d e4 00 3b f1 ab 6f bd 73 c3 87 3d a7 1c a8 3d
       0.001966718 -0.058513585 0.06629076 0.0820859
000010 12 67 62 bb 10 54 a6 3d b3 df 73 bd cd 16 7c ba
       -0.0034546298 0.081215024 -0.059539508 -0.00096164347
000020 58 d5 6c bb bd 81 bb bd 48 c5 a7 bd 7d 1b a9 bd
       -0.0036137905 -0.09155605 -0.08191925 -0.08257196
000030 6c 39 ff bd 00 b0 16 3c 81 da 11 3c 76 5c 36 bd
       -0.12462124 0.009197235 0.008902193 -0.04452177
000040 55 5b 67 3d ce 39 d1 bd 30 38 68 bd 7b d3 f9 bc
       0.056483585 -0.102161035 -0.05669421 -0.03049635
000050 d0 8f 24 bd 56 66 0f 3e 48 0c d4 bd 5f ee 91 3c
       -0.040176213 0.14003882 -0.10353905 0.01781386
000060 af 33 00 3e 0f 06 3f 3d 05 eb f6 3d 65 78 eb bd
       0.12519716 0.046636637 0.12056545 -0.11497573
000070 49 08 10 3e 9e b8 a2 bc 31 ca d3 3c 65 21 54 3d
       0.1406566 -0.019863423 0.025853248 0.05178966
000080 44 00 9e 3d 7c de 4f bd e7 aa 8b bd 78 e3 c4 bd
       0.077148944 -0.050749287 -0.068197064 -0.09613699
000090 9b 31 a3 bd f9 a1 f5 3d 1a f4 31 3d 31 3b 5e 3c
       -0.07968446 0.119937845 0.043445684 0.013563917
0000a0 a9 20 99 bc ff b6 d0 3d 0f d4 49 3d ea ce 0d 3e
       -0.018692331 0.10191154 0.0492745 0.13848463
0000b0 7d f7 67 bd 1e bf 76 3c a4 5e d8 3d 71 0b c1 bd
       -0.056632508 0.015060214 0.10564926 -0.094260104
0000c0 a7 17 4d bc f4 9f cc 3d 15 67 ad bd f3 cd b0 bc
       -0.012517846 0.09991446 -0.08466927 -0.02158258
0000d0 17 2f 03 3d ef 57 6a bd a2 8f 8e 3c d0 ee 98 3d
       0.03202733 -0.057212766 0.017402474 0.07467425
0000e0 6d 96 ea bc bb 7e b9 3d cd 32 80 bb 70 8c b8 bc
       -0.028636182 0.09057375 -0.003912306 -0.022527903
0000f0 b7 4a 75 3d 36 dd 0e 3d e5 79 77 3d 8a 5c 5d 3d
       0.059885707 0.034878932 0.060418982 0.05404333
000100 e3 1a f0 bd f3 d3 bd bd 36 e8 fa 3d c5 31 b0 3d
       -0.11723878 -0.09268942 0.12251322 0.08603243
000110 41 64 48 3c f1 99 aa 3d 59 7f 8c bc ca ac 82 bc
       0.012230934 0.08330143 -0.017150568 -0.015951533
000120 34 51 e1 bd c4 37 96 bd 5d ba ca 38 9b 58 1c bc
       -0.110018164 -0.07334855 9.6668235e-05 -0.00954261
000130 94 4e b2 3d f2 2d f1 bd c2 d0 bc 3b fc de 0e 3e
       0.08706394 -0.117763415 0.0057621906 0.1395225
000140 03 c5 c3 bd 8a 2c a4 bd c9 72 3d 3d 04 71 d9 3d
       -0.095590614 -0.08016308 0.046252046 0.10617259
000150 eb 30 bd 3d b7 0d 22 3e 01 0b f6 3c 6d b2 13 3d
       0.09237846 0.15825544 0.030034544 0.036058832
000160 6c be b9 3d 44 29 d4 bd 2b 0e f1 bc a1 a7 cb bd
       0.09069523 -0.10359433 -0.029425701 -0.09944082
000170 79 76 94 bd 10 b2 13 3d 95 12 82 3d 26 6f 82 3c
       -0.07249159 0.036058486 0.063512005 0.01592214
000180 a9 12 85 bd 97 e7 ca bd 8f 1d 5b 3c ab a6 1b bd
       -0.064977 -0.099074535 0.013373747 -0.038000744
000190 ee 52 dc 3d 21 13 8b 3d 23 40 ff bc 75 a6 4f 3d
       0.10758005 0.06790758 -0.031158512 0.050695855
0001a0 f4 da d9 3d ca c9 20 bd ac 94 cf bd c5 e6 cb ba
       0.10637465 -0.03925494 -0.10135779 -0.0015556446
0001b0 66 6e 88 3d eb 97 ce bc 80 31 10 3e bf 9a 1f 3c
       0.06661682 -0.025218925 0.14081383 0.009741484
0001c0 e0 9e 4f 3d a7 94 79 3d 9c 65 e0 3c 80 55 b1 3d
       0.050688624 0.06093278 0.027392201 0.08658886
0001d0 7e 1a ed bd 27 48 d0 3c 8c 15 d6 3c 5f 4c a0 3d
       -0.115773186 0.02542503 0.026133321 0.07827067
0001e0 29 43 d7 bc 43 dc e3 bb 1a 4f 94 3d 70 d0 70 3d
       -0.026277142 -0.0069537475 0.0724165 0.05879253
0001f0 9d 71 eb bd 71 de 51 3d d1 63 25 3b aa d0 63 3d
       -0.114962794 0.051237527 0.0025236497 0.05561892
000200 74 29 71 bd 6b f7 1e 3d 05 bd a7 3d 6c c5 aa bd
       -0.058877423 0.038810175 0.081903495 -0.083384365
000210 c1 3e c2 3c ce 66 95 3d 26 a5 ba bd a1 75 02 be
       0.023711564 0.07294999 -0.09113531 -0.12740184
000220 1a 91 05 3d 1c 14 e6 bc 8a e5 45 3d fb 3e 21 be
       0.032609083 -0.02808576 0.04831461 -0.15746681
000230 e6 33 ef 3d 34 f3 8c bd 92 81 2b bd b5 2c 58 bd
       0.11679821 -0.06882325 -0.041871615 -0.05277701
000240 1f f3 c5 bc 95 c0 e3 bc 6d df 14 be 2e 62 94 3d
       -0.02416378 -0.027801791 -0.14538355 0.07245289
000250 e3 f1 bf 3d 84 e9 70 bc 91 17 81 3d f3 be d2 bd
       0.09372308 -0.014704112 0.06303323 -0.10290327
000260 b2 ee a8 bc 74 67 87 bd 31 f7 92 bd 77 e2 ad 3d
       -0.020621631 -0.06611529 -0.07176054 0.0849046
000270 a3 99 a6 bd 1b 7e d9 bd 3d d6 d7 bd 2e 3c b8 3d
       -0.08134773 -0.10619756 -0.105389096 0.08995853
000280 12 3f ef bc a7 49 e9 bc 2b 55 48 3d f6 6e 72 3d
       -0.029204879 -0.028477503 0.048909348 0.05918785
000290 fd 69 68 3b 0d de 8b bd 61 d0 f0 3d e3 12 56 3d
       0.0035463565 -0.06829462 0.11758495 0.052264106
0002a0 35 e2 9f 3d 57 84 cc 3d 21 c2 ec bd aa 8a 8e bd
       0.078068174 0.09986179 -0.11560465 -0.06960042
0002b0 37 84 2e bd 94 d7 b4 bd e7 fe 8c bc 32 ca 87 3b
       -0.04260656 -0.08830181 -0.01721139 0.0041439766
0002c0 fa 13 73 3d 30 72 6f 3d 2f a1 d5 3d 08 a2 c1 3c
       0.059345223 0.058458507 0.10431134 0.023636833
0002d0 55 58 bf 3d 42 3c c8 3d f3 bf 60 bd 7f e1 11 be
       0.0934302 0.09777118 -0.054870557 -0.14246176
0002e0 70 79 77 3d a0 60 9f bb eb 38 a7 bc 50 72 ab 3d
       0.060418546 -0.0048638135 -0.020412883 0.08371413
0002f0 76 87 1d 3d a0 48 07 3e b1 d5 83 bb 9d 13 96 bc
       0.038459264 0.13211298 -0.0040232767 -0.0183199
000300 7e 96 07 bd 88 ac b8 bd 2d 24 86 bc 1e f2 a1 bd
       -0.033102505 -0.09017283 -0.016374672 -0.07907508
000310 c1 83 d0 bc d1 2f 9b 3d d9 6d 2b bd 86 59 83 3d
       -0.02545345 0.0757748 -0.041852806 0.064135596
000320 1e 7e 82 bc d7 39 ef 3d b0 7b 28 3e 3e 9e c2 bd
       -0.015929278 0.11680954 0.16453433 -0.095028386
000330 85 4d ec 3c 19 b7 a2 3b 29 2f a7 3d 33 68 74 3d
       0.028845558 0.0049656746 0.08163292 0.059669685
000340 b8 4c 07 bc b1 96 9c bc 9c f1 b6 3d 82 ef 5d 3c
       -0.008258037 -0.019114824 0.08932802 0.013545873
000350 1b ee 88 bd e8 d8 4f 3b 95 67 58 bd 7c 4e 0b be
       -0.0668604 0.003171498 -0.05283316 -0.13604158
000360 24 16 bc 3b 1d 30 70 3d 04 0a 24 bd 6c 87 18 bd
       0.005739944 0.058639634 -0.040048614 -0.037238523
000370 fe 71 8a bd 61 4a 90 3d e7 bb b6 bd ae 97 e2 3d
       -0.067600235 0.07045437 -0.08922558 0.11064087
000380 ca 81 00 3d 64 28 79 3d 0b d0 8a 3d f5 fb 86 3d
       0.031373776 0.060829535 0.06777962 0.06591026
000390 84 8c 1a bd 52 3c 2c 3e 15 14 59 bd 9e 4b 5a 3d
       -0.037731662 0.16819885 -0.052997667 0.05329477
0003a0 c6 09 76 bd 71 75 39 3d 46 d0 08 3e f3 d0 af 3d
       -0.060067914 0.045278016 0.133607 0.08584776
0003b0 3e 6e 20 bd d6 27 97 3d af f2 d9 3d 76 e9 e3 3a
       -0.039167635 0.07380645 0.10641991 0.0017388302
0003c0 e7 23 48 bd 2d 52 a6 bd 9e 3b 99 bd 7a a6 e2 3d
       -0.048862364 -0.081211425 -0.07482074 0.11066909
0003d0 2f d3 d6 3d d4 5d 74 bd 98 f9 bb bc 23 da 2d bd
       0.10489499 -0.059659794 -0.022946164 -0.04244436
0003e0 ab 0b cf bd 9b e4 47 bd 74 c7 83 bc ef de b1 bd
       -0.10109647 -0.048802 -0.016086318 -0.08685099
0003f0 66 0f 0f 3d 14 71 27 3c e5 7d 72 3d 1b 14 b4 bc
       0.034926794 0.010219831 0.059202094 -0.021982243

conv2.bias f4 [128]
000000 4d f5 c1 b9 4e 5d a8 39 0b 0e 34 b9 49 45 b3 b6
       -0.00036994592 0.00032112974 -0.00017171369 -5.3426816e-06
000010 71 28 8a ba 3f 36 9f b8 95 77 76 b9 f2 09 b5 38
       -0.0010540617 -7.591815e-05 -0.00023504936 8.632605e-05
000020 56 e4 88 ba 7b dc 29 ba 8e 45 2d b8 3d 7b 24 39
       -0.0010444026 -0.00064796925 -4.1311192e-05 0.00015686169
000030 19 c5 52 39 3a c7 c4 38 5b 96 8b b8 f5 13 75 39
       0.00020100585 9.383117e-05 -6.6560424e-05 0.00023372455
000040 fc 28 79 39 26 7d 55 b7 8b 1f 25 b8 da d5 d6 39
       0.00023761758 -1.2724928e-05 -3.9368442e-05 0.00040976593
000050 2e 46 f1 39 62 10 b5 b9 68 fe a4 39 cb d8 c5 b8
       0.0004601939 -0.00034535216 0.00031470065 -9.434073e-05
000060 8a 2c bb 39 de 4e ea b7 12 f9 f4 b8 bb 7a 2a 3a
       0.00035700604 -2.79317e-05 -0.000116812196 0.00065032736
000070 6f d9 fb b9 79 07 4d 3a a0 e6 58 37 f2 5f 0c ba
       -0.0004803645 0.0007821243 1.29283e-05 -0.0005354873
000080 28 0c b0 b8 c1 97 a1 38 46 c6 e4 3a 1f b1 30 36
       -8.394598e-05 7.7053446e-05 0.001745411 2.6329142e-06
000090 83 5b 35 39 42 68 2b b8 6d 46 28 38 63 fe be b8
       0.00017295596 -4.0866675e-05 4.011991e-05 -9.107289e-05
0000a0 f1 72 ed 39 4d 76 9d b9 c3 99 f6 39 8c 8d 5d b8
       0.000452898 -0.00030033514 0.00047035338 -5.282233e-05
0000b0 bd 91 6f b8 24 3a e4 39 93 02 f2 39 2c bc b2 38
       -5.711777e-05 0.00043530867 0.00046159755 8.522751e-05
0000c0 c2 21 14 39 ce 76 c7 38 f5 4e f7 39 78 09 ab b9
       0.00014126956 9.5111885e-05 0.0004717034 -0.00032622716
0000d0 3c 9c 47 ba 17 97 18 ba 14 25 5a 39 6c c9 15 38
       -0.00076145283 -0.0005820854 0.00020803913 3.5711957e-05
0000e0 aa fb d1 39 5d 52 4e 39 1e f3 3c 3a f7 ca 63 38
       0.0004005109 0.00019676374 0.0007207858 5.4310043e-05
0000f0 84 5a 8d 39 a1 2f 1a 37 13 3e 9f 39 e8 c6 0e 3a
       0.00026961055 9.190205e-06 0.00030373092 0.00054465095
000100 ec 5f 2f b8 57 25 10 3a 7f 48 24 39 b7 f8 f9 38
       -4.1812586e-05 0.0005498728 0.00015667266 0.00011919572
000110 5a 60 05 b9 78 9b 0b 39 08 ac c0 b8 bb 14 b6 b9
       -0.00012719762 0.0001331399 -9.187317e-05 -0.0003472919
000120 ee 01 02 3a 94 6c 87 b8 b9 b3 de 39 2c 83 2a 39
       0.0004959394 -6.457526e-05 0.00042477043 0.00016261329
000130 db cc a5 38 e0 4d 05 38 40 13 84 39 d8 45 58 b8
       7.9059704e-05 3.1782198e-05 0.00025191344 -5.156346e-05
000140 85 1f 62 ba 45 7a 9f b3 c5 eb 90 b9 45 8d 33 38
       -0.00086259126 -7.426255e-08 -0.00027641482 4.2808493e-05
000150 d4 15 83 39 d0 54 22 39 6d 5d 8a 38 e1 80 9a 39
       0.0002500253 0.00015481119 6.597755e-05 0.0002946919
000160 e0 31 82 39 58 a2 24 ba 7c 56 6a 38 09 2b 8e 39
       0.00024832692 -0.00062802946 5.5870492e-05 0.00027116414
000170 7e 28 f0 37 80 67 95 b9 cc 9f 53 39 55 db 9d b7
       2.8629085e-05 -0.00028496608 0.00020182057 -1.8817993e-05
000180 04 7a 2e 39 8e 04 6d 39 e9 12 25 3a 22 af d9 39
       0.00016639387 0.00022603778 0.00062970683 0.0004151995
000190 49 0d 15 b2 02 dd 6d b9 31 4f 11 ba 99 ea 73 39
       -8.675962e-09 -0.00022684413 -0.00055431115 0.0002326168
0001a0 57 33 57 38 2a 21 4c b8 58 52 ff 39 a3 ab 85 b9
       5.130781e-05 -4.8668277e-05 0.0004869874 -0.00025495616
0001b0 f3 76 78 39 81 37 30 39 f4 e0 14 b9 be d0 5b 3a
       0.00023695435 0.00016805345 -0.00014198181 0.0008385292
0001c0 40 53 91 b8 ab a2 0f ba c3 8e c5 39 6d eb 7e 39
       -6.929645e-05 -0.00054792565 0.00037681134 0.0002431103
0001d0 f6 5a 06 ba fc b3 dd b9 b2 7a 9c 38 6e 6f 57 39
       -0.00051252486 -0.00042286504 7.4615135e-05 0.00020545509
0001e0 1b d3 ea 35 77 7d 1d 3a 45 3d 4a b9 16 75 68 b9
       1.7495798e-06 0.00060077704 -0.00019287046 -0.00022168862
0001f0 d0 9a 41 b7 83 a1 2c 39 64 7f cc 38 00 3f 45 b5
       -1.15397415e-05 0.00016463366 9.7512064e-05 -7.3479896e-07

conv3.weight f4 [128, 128, 1]
000000 8a f3 58 3c 6e 6a 7c 3c ea 46 b2 3d 67 02 96 3d
       0.013241658 0.015406234 0.08704932 0.07324677
000010 7c f6 7f bd 3d 61 c6 3d ca 19 15 3d fb 6c bd 3d
       -0.062490925 0.096865155 0.036401547 0.09249302
000020 30 ab c4 3d f8 5a 3f bd 1e 10 10 3c 8b ec 6d bd
       0.09602964 -0.046717614 0.008792905 -0.058086913
000030 34 88 7c 3a bb 66 29 3d 2d 24 99 3c 1d d8 f9 3c
       0.0009633333 0.041357737 0.018694008 0.030498559
000040 11 cc 9c bd 61 8d 97 bd 5e 29 7d bc 13 6d e2 bd
       -0.0765611 -0.07400013 -0.015451757 -0.110559605
000050 9d 54 9f bc 0d a5 28 3d 18 68 03 3d 6a 97 b0 bc
       -0.019449526 0.04117303 0.032081693 -0.021556575
000060 a5 5b 8f 3c d7 91 80 bb 05 ec 05 3c 91 05 e0 3d
       0.017499754 -0.0039236355 0.008173947 0.10938562
000070 9f cf 7d bd 4f 11 a6 3d 69 b5 e8 3d b6 1e 6c 3d
       -0.06196558 0.0810877 0.11362726 0.057646476
000080 dd 19 88 bc 1b 44 87 bd 0e 3b 4c 3c 7c 86 81 bd
       -0.016613895 -0.06604787 0.012465252 -0.06324479
000090 1b 6b 82 bd 88 84 da bc 8b 09 06 3d e1 97 03 3d
       -0.06368085 -0.026674524 0.032723945 0.032127265
0000a0 0e ac ba 3d 9d e1 cd 3d 3e 88 e1 3c bf cb 76 bc
       0.09114848 0.10052798 0.027530786 -0.015063225
0000b0 bb 41 56 ba d2 db 24 bd 13 cf 3f bd 9c cd 45 bd
       -0.0008173247 -0.0402487 -0.04682834 -0.048291788
0000c0 31 43 02 bd 88 38 ba 3d 00 86 aa 3d be 31 76 3c
       -0.03180236 0.09092814 0.0832634 0.015026508
0000d0 4f fd 81 3d fa 99 ef 3d 73 72 00 3c 56 55 0d bd
       0.06347143 0.116992906 0.007839787 -0.03450521
0000e0 84 6f 1c 3d ac c4 0a bd fa c2 9e bc a0 f3 89 bd
       0.038192287 -0.033878967 -0.019380081 -0.06735921
0000f0 30 af 9a bd 12 28 a5 3d 9c dd 72 bd 5c d4 00 ba
       -0.075529456 0.080642834 -0.059293374 -0.00049144565
000100 a3 da 85 bc 77 c1 2f 3d df c7 ae bb e5 62 80 bd
       -0.016339606 0.04290911 -0.005333885 -0.06268863
000110 35 36 83 3b 92 0e 95 3d 74 bc 34 bb 22 88 fb bc
       0.0040042647 0.0727817 -0.0027578147 -0.030704562
000120 25 22 fe 3c 0a 12 dc 3d f9 81 64 3d eb be 41 bd
       0.03102214 0.10745628 0.055788014 -0.047301214
000130 75 27 48 3d b9 78 a2 3c 92 7b 5f ba db 5b 3f 3d
       0.048865754 0.019832956 -0.00085251883 0.04671846
000140 2a 0c b8 3c 01 4e 92 bc bf 26 92 bd 56 f9 aa bb
       0.022466738 -0.01785946 -0.071362965 -0.0052177114
000150 38 57 f3 bb 8f 7b c5 3d f8 c9 ef 3d 2f 14 bf 3d
       -0.007426169 0.096427076 0.11708444 0.093300216
000160 86 6a 0e bc 83 35 0c 3d cc 71 d7 bc 2c d8 71 bd
       -0.008692389 0.03423072 -0.02629938 -0.05904405
000170 9e 24 11 bd 80 cb 9b 3d d5 a5 a8 bd e0 bb 36 bc
       -0.03543531 0.07607174 -0.08234755 -0.011153191
000180 4d ff a0 3b 78 34 81 bd b4 56 a2 bc e9 60 42 3d
       0.0049132467 -0.06308836 -0.019816734 0.047455702
000190 99 fb 00 3d 7a ed 10 3d 26 ba ae 3c 6d b3 df bd
       0.031489942 0.035382725 0.021328997 -0.109228946
0001a0 fc 72 15 3c 8b 7c 50 bd a7 b2 b1 3d b3 5d 9b 3d
       0.009121653 -0.050900023 0.08676653 0.07586231
0001b0 4b 18 59 bd ff 38 07 bd 70 05 b0 3d 08 11 93 3d
       -0.053001683 -0.03301334 0.08594787 0.07180983
0001c0 91 bf 43 3d 82 b9 be 3d 0e ef 0b 3d 6c 48 76 bd
       0.047790114 0.093127266 0.034163527 -0.06012766
0001d0 86 3d 0d 3e 06 85 ce 3b d4 8a 3f bd 11 b3 7a 3d
       0.13793 0.0063024787 -0.046763256 0.061205927
0001e0 c5 7a a2 bd e1 f6 20 3c a9 c1 30 bd 0d 41 8a 3d
       -0.07933573 0.0098244855 -0.04315344 0.06750689
0001f0 06 46 b1 bc ae 87 ae 3c 7f f9 b5 bc 9b e2 8b bc
       -0.021639835 0.021304931 -0.022213696 -0.017075827
000200 34 f6 94 bd 70 c2 f3 3c 3f c3 4f 3c a8 29 00 bd
       -0.07273522 0.029755801 0.012680828 -0.031289726
000210 99 d3 bb bb 14 79 76 3d ec 88 25 3d 4b ad 8e 3c
       -0.0057320115 0.060174063 0.040413782 0.017416617
000220 a2 c5 97 3d 85 3e 3d 3d e0 d5 97 bd b9 0d c2 bd
       0.07410742 0.0462022 -0.0741384 -0.09475274
000230 7d ec 50 bc 66 90 d7 3c 19 d5 c3 bd 3d 5d ef 3c
       -0.012751696 0.026313972 -0.095621295 0.029219264
000240 d3 66 93 3d 7e a7 f2 bd 78 6f 23 bd 5a 91 0e bd
       0.071973465 -0.11848353 -0.039901227 -0.034806587
000250 c6 e0 4d bd 1e 6b 23 bd 09 13 4f bd 05 2e 2a bc
       -0.05026319 -0.039897077 -0.050555263 -0.0103869485
000260 3e f9 70 bb 95 8b 09 bd d9 b0 b2 bb dd 80 e8 3b
       -0.0036769654 -0.03358038 -0.005453211 0.00709544
000270 07 de b6 3c eb 8c 0e bc 7c 1d b7 3d 5e 24 54 3c
       0.022322668 -0.00870059 0.089411706 0.012948124
000280 a3 90 81 3d 98 2d 86 bc f5 c3 dd bc e9 d8 89 bd
       0.063264154 -0.016379163 -0.027070979 -0.067308255
000290 3d 5b 27 3c ff d6 ab bd af e5 8d 3d b4 3a 22 bd
       0.010214624 -0.083906166 0.06928574 -0.039606765
0002a0 0c 21 a8 3c c7 e9 4d bd 94 35 85 3d 93 ed c8 3d
       0.02052357 -0.050271776 0.0650436 0.09810939
0002b0 ef 58 69 3c d2 af bf 3d 9b f8 14 3d a2 57 5b 3c
       0.014242395 0.09359707 0.0363699 0.0133875925
0002c0 83 fb 4a 3d a1 6f f0 bb c0 2a 5c 3d 65 52 54 3d
       0.049556267 -0.007337526 0.053751707 0.05183639
0002d0 44 d5 49 3d 1f a0 1d 3d 76 e0 f5 3a 1c da 08 3d
       0.04927565 0.03848278 0.0018758911 0.03341113
0002e0 22 4c 97 bd 12 9d df 3d a9 3c 5b 3d 68 e6 1e bd
       -0.07387568 0.10918631 0.053524647 -0.03879395
0002f0 d5 bf 37 3d f9 80 aa bd 87 b5 e6 3d 3b 03 16 bd
       0.04486068 -0.08325381 0.11265092 -0.036624175
000300 0a 97 be 3d 07 90 a8 3d 0e ed b8 bd e2 3d 69 3d
       0.09306152 0.08230596 -0.090295896 0.05694378
000310 52 0c e9 bc 35 6d 12 ba 70 4f cd 3d 06 21 d2 3a
       -0.028448258 -0.0005585731 0.10024917 0.001603157
000320 bf 41 ca 3c 04 5f 23 3c 95 2e 98 bc 32 f8 b6 3d
       0.024689553 0.009971384 -0.0185769 0.08934058
000330 c3 8e 89 3d 3f 29 a4 39 73 0f a1 bd 57 58 b7 bd
       0.06716683 0.00031311248 -0.07864275 -0.08952396
000340 e6 42 cb bc 59 78 30 bd 5f f2 70 bd d0 4b 26 bd
       -0.024812173 -0.043083522 -0.058824893 -0.040599644
000350 9b b3 87 3d 2f 56 d9 bc eb a2 3a bd 9b 0a cf 3b
       0.06626054 -0.026530353 -0.045565527 0.006318403
000360 50 f6 80 3d 9a d5 ce 3d e8 e1 2b 3d 23 9c 1f bc
       0.062969804 0.10099335 0.041963488 -0.009741816
000370 fa 46 2d bd 78 c3 01 3e 6e 90 35 bc 02 e9 98 bc
       -0.042304017 0.12672222 -0.011081798 -0.018665794
000380 2a 99 1f bc ac 9f 45 bd ad 1c 67 bd f5 9d 1a bd
       -0.009741107 -0.048247978 -0.05642383 -0.037748296
000390 16 f3 7e 3c 85 0b 30 3c 54 d8 41 3c 93 67 60 3d
       0.015560886 0.010744934 0.011831362 0.054786276
0003a0 80 0b 5f bc 64 10 94 bd f7 9a 9d bc 40 0c 4d bc
       -0.013613582 -0.07229689 -0.019238932 -0.012515128
0003b0 f5 d7 74 bd 97 77 9e bd 68 6f 2e 3d d6 ff a5 bd
       -0.059776265 -0.07737654 0.042586714 -0.081054375
0003c0 d1 a6 9d bc 68 9b 9b 3d 4f 7f ec 3c 42 7f 1f bc
       -0.019244583 0.07598001 0.0288693 -0.0097349305
0003d0 ee 45 9d bd 46 e1 46 bc d0 b6 98 3d 84 16 5f 3d
       -0.07679354 -0.01213867 0.07456744 0.054464832
0003e0 85 3b 7f bd e1 c8 49 3c ab 26 94 3d b8 37 c3 bd
       -0.06231262 0.01231596 0.07233938 -0.09532112
0003f0 9b c7 a4 bd 5e c2 d0 bc bf 7a 80 3d f4 1e a4 3c
       -0.08045884 -0.025483306 0.06273412 0.02003429

conv3.bias f4 [128]
000000 b7 58 1f b9 3f e2 02 36 8a 97 0b ba 0c f7 d1 b8
       -0.0001519647 1.9503202e-06 -0.000532501 -0.00010011913
000010 a8 9c 02 37 07 b8 86 39 f4 de e5 b6 7d a5 98 39
       7.785078e-06 0.00025695583 -6.850687e-06 0.00029114998
000020 9a 06 11 b8 59 57 9b b9 b9 d0 69 b8 91 da f1 37
       -3.4576842e-05 -0.00029628983 -5.5745917e-05 2.8831217e-05
000030 31 73 30 39 c9 75 2c b9 29 13 ec 39 10 6e 0c 39
       0.0001682758 -0.00016447077 0.00045027703 0.00013392442
000040 5d 46 98 b8 f0 f1 68 b9 ab 63 da 37 f8 8b 8a b8
       -7.261031e-05 -0.00022215373 2.6034037e-05 -6.606424e-05
000050 92 8e 9e b9 53 ed 84 38 53 7e 5d b9 bf 43 1e 3a
       -0.00030242332 6.3384556e-05 -0.00021123262 0.00060373166
000060 fe a4 bc b8 35 11 b7 ba 76 06 8c 37 d3 36 24 b9
       -8.995271e-05 -0.001396692 1.669231e-05 -0.00015660682
000070 dc 31 ba 38 3f 10 fb b9 9d 68 72 39 33 4f 04 39
       8.878458e-05 -0.00047886555 0.0002311789 0.00012618005
000080 29 2c 57 b8 e1 aa 2a b9 fc bd ba 39 78 4c 02 3a
       -5.1301122e-05 -0.00016276121 0.00035618234 0.0004970501
000090 ca c7 01 39 8b e7 0b b9 cd fd 5f b8 34 fa 3c b9
       0.00012376826 -0.0001334233 -5.3403714e-05 -0.00018022285
0000a0 87 d6 d0 b7 d6 0f 19 39 25 e9 82 39 16 4f 9f b7
       -2.489543e-05 0.00014597116 0.00024969238 -1.8991104e-05
0000b0 3e f5 11 39 72 c6 ae b8 2b 52 cf b9 d9 61 08 37
       0.00013919637 -8.33393e-05 -0.00039543337 8.129014e-06
0000c0 a1 1c b5 b8 bd ff c2 38 a4 60 df b9 33 4a 0f b9
       -8.636085e-05 9.298276e-05 -0.00042605877 -0.00013665184
0000d0 25 76 45 b9 ba 11 e8 38 f7 a3 9b 38 bc ee 61 39
       -0.00018831396 0.00011065924 7.421517e-05 0.00021546608
0000e0 ca bc ce b9 22 58 95 b9 ca dc 64 b9 f9 01 f3 b6
       -0.0003943204 -0.0002848516 -0.00021826025 -7.242194e-06
0000f0 59 f5 8f 38 38 fe 7b 38 d8 4e 9c b9 12 46 29 b8
       6.864471e-05 6.0079823e-05 -0.00029813382 -4.0357998e-05
000100 2b 5e 8e 38 26 3b 13 b8 6b 3f c6 b8 15 09 c8 38
       6.788628e-05 -3.5102617e-05 -9.453188e-05 9.538435e-05
000110 05 8e f1 b8 ef 23 22 ba 2b 0f b1 b9 dd fd 03 b9
       -0.00011518229 -0.0006185164 -0.00033771372 -0.00012587705
000120 11 c1 fc 39 97 2a a5 b9 46 d0 1b ba bf 79 30 b9
       0.0004820903 -0.00031502984 -0.0005943816 -0.00016830022
000130 2f 7b 17 37 d5 0a 5f 39 95 42 2c 39 19 f1 49 38
       9.028982e-06 0.00021270973 0.00016428002 4.8146674e-05
000140 53 a2 41 3a 26 37 1f ba f9 2b 86 39 38 8d 05 b9
       0.0007386554 -0.00060735864 0.00025591234 -0.00012736476
000150 0c d4 2c b9 5c c8 11 b9 72 c2 1e ab 59 38 63 38
       -0.00016482192 -0.00013902917 -5.6402723e-13 5.4173495e-05
000160 68 5c a7 b8 ee 6f f7 b7 b3 e4 80 38 74 ba 54 39
       -7.9803925e-05 -2.9496816e-05 6.146114e-05 0.00020287355
000170 60 0b 03 b9 c4 23 31 b8 a6 ad 9d b8 3e fa b0 b6
       -0.00012497371 -4.2233398e-05 -7.518688e-05 -5.2743408e-06
000180 47 aa 2f b9 53 75 ef 38 77 53 a7 38 a3 2e d9 b9
       -0.00016752734 0.000114182614 7.978727e-05 -0.00041424212
000190 12 e7 5f 38 63 bd 20 39 7e 5c be 37 e5 a8 1a b8
       5.3382544e-05 0.00015329341 2.2692835e-05 -3.6873756e-05
0001a0 60 66 45 ba 95 ed cc 39 52 3d 37 38 e5 ae a6 b8
       -0.00075302087 0.00039086925 4.368771e-05 -7.9480735e-05
0001b0 0c 1c 32 b9 47 e8 9a 38 dd 55 b7 39 08 91 15 39
       -0.00016985851 7.386557e-05 0.00034968453 0.00014263776
0001c0 07 dc 10 ba b7 cb ac 39 7b 5c 45 b9 85 8b 28 39
       -0.00055259507 0.00032958176 -0.00018821836 0.00016073704
0001d0 e3 9d 5c 37 ef b8 35 39 75 7c e1 38 66 33 2c 38
       1.3149783e-05 0.00017330398 0.00010752018 4.1055864e-05
0001e0 2d 9b 0d 39 ef 28 17 b9 90 5f a9 b8 16 24 21 b7
       0.00013504615 -0.00014415731 -8.076348e-05 -9.60475e-06
0001f0 f0 88 98 39 26 46 9f 39 dd 52 61 b9 87 3e e7 38
       0.00029093726 0.00030379108 -0.00021488541 0.00011026585

conv4.weight f4 [100, 128, 1]
000000 47 23 cb bc f6 dd bc bd 97 bd 31 bd 89 32 48 bd
       -0.024797095 -0.09222023 -0.043393698 -0.04887632
000010 15 65 32 bd 7c b1 b8 bd c2 e7 3c 3d cd 6e df 3d
       -0.04355343 -0.090182275 0.04611946 0.109098054
000020 cc d7 31 3d 21 55 ad bd ac b1 61 bd e5 ea 69 bd
       0.04341869 -0.08463503 -0.05510108 -0.05710878
000030 04 0b 19 3d ca 5b 08 be d7 0b b7 bd 8b 41 8c bb
       0.03736402 -0.13316265 -0.08937805 -0.0042802743
000040 2c 97 e5 bc 66 3b 3a bd 98 c3 b0 bd 22 56 b7 bc
       -0.028026186 -0.045466803 -0.086310565 -0.022379939
000050 34 e8 0c be 98 e0 ad 3d c4 c7 0a bd 87 0f 76 3c
       -0.13760453 0.084901035 -0.033881918 0.01501835
000060 11 43 8b 3d d5 c5 b3 3a df 9f 81 3d a4 d6 06 3e
       0.06799901 0.0013715575 0.06329321 0.13167816
000070 c8 3d b6 bd 08 85 cd 3d 38 04 41 3d ed 62 15 3d
       -0.088985026 0.10035139 0.047123164 0.036471296
000080 96 43 ce bc db e1 9f bc 13 f6 76 3d af be 43 bb
       -0.025178712 -0.019516876 0.06029327 -0.0029868295
000090 91 45 d0 ba 0a 53 01 3c 32 47 ac 3c f6 f0 93 bd
       -0.0015889873 0.007893333 0.021030042 -0.07223694
0000a0 55 d2 ee bc d1 8e e7 bc e8 c3 a1 bd 80 0e 06 3d
       -0.029153029 -0.028266342 -0.07898694 0.032728672
0000b0 09 22 be bd 93 c0 c4 bc c5 14 a1 bc 32 f4 81 3d
       -0.092838354 -0.024017608 -0.019663224 0.06345405
0000c0 f1 8a ce bb e3 f3 5c 3c 71 09 80 bd 59 0d 87 bd
       -0.006303184 0.0134858815 -0.06251801 -0.06594343
0000d0 98 e8 ce 3c 87 84 f3 3c dc 0f 2d bd 69 a2 9c bd
       0.025257394 0.02972628 -0.042251453 -0.07648165
0000e0 00 da 0b bd 10 4c 89 3c ba 02 c3 bd f8 fa a5 3d
       -0.034143448 0.016759902 -0.095220044 0.08104509
0000f0 9d fc 54 bc 60 fe 53 3d fc 92 bf 3d a4 df 7b 3c
       -0.012999681 0.051756263 0.09354207 0.015373144
000100 11 df 71 bd 4d d3 9c 3d 48 d2 af bc a0 ec 3d bc
       -0.059050623 0.0765749 -0.021462575 -0.01159206
000110 00 17 e7 3c a3 49 b5 3d 08 5f 6b 3d de 54 2d bd
       0.02820921 0.08851936 0.057463676 -0.042317264
000120 82 22 91 bd da 0c 48 bd 8d 0e 9b bd 61 74 93 bd
       -0.0708666 -0.04884038 -0.07571135 -0.07199932
000130 ed 28 e8 3d 82 9c 55 3d 5a 2c 42 3d 62 d6 f7 bd
       0.11335931 0.05215121 0.04740558 -0.12101437
000140 1b c8 7c 3c 46 56 53 3d 97 08 8c bd 43 b4 8e 3d
       0.015428568 0.05159595 -0.06837576 0.06967976
000150 b4 1b 19 bb f8 02 00 bd 19 a4 5c bc 55 e3 b3 3c
       -0.002336246 -0.03125283 -0.013466858 0.021958986
000160 06 c4 da 3b 09 5d 0c 3d 6e 64 0f bd cd 9f 5b bd
       0.0066762 0.034268413 -0.035007887 -0.053619195
000170 5f b6 64 3c 3b bb 95 bd d9 8f a8 bd 1d 96 90 bd
       0.013959496 -0.07311102 -0.08230562 -0.07059882
000180 85 ac 1d bd f7 99 89 bc 5c b5 95 bd 4b 10 4f bd
       -0.038494606 -0.016797049 -0.07309982 -0.050552648
000190 c9 51 83 3d c3 77 6b bd 2c e4 f5 3c 7b de 91 3a
       0.06412084 -0.05748726 0.030016027 0.0011128926
0001a0 5f eb 8c bc e1 0c 89 3d ad 27 95 bd 99 e8 ed bd
       -0.017202077 0.066919096 -0.07282958 -0.1161663
0001b0 d7 5f 1f bd 9a 12 8f 3d 5e c9 c4 bc 2e 68 97 bd
       -0.03890976 0.0698597 -0.0240218 -0.073929176
0001c0 bb 73 ee 3c 2a df 06 39 14 68 ca 3d aa ec 37 3d
       0.029107919 0.00012862371 0.098831326 0.044903435
0001d0 1a ca 87 3c b7 b4 ee 3c b4 12 9a bd d4 1b b5 3d
       0.016575862 0.029138906 -0.075230986 0.088431984
0001e0 dc 57 2a 3d a7 1e cf bd a3 e6 e7 3c 6b 3d cf 3b
       0.041587695 -0.10113268 0.028308218 0.0063244603
0001f0 4f 84 9a bd 55 9f b8 3d 53 54 8e bd 12 40 a0 3d
       -0.07544767 0.09014765 -0.06949677 0.078247204
000200 ae 61 25 bd 5e 99 62 3d e9 61 13 3d c4 3e 87 bc
       -0.040376358 0.055322044 0.035982046 -0.016509421
000210 3a 14 9e bd c3 d3 9e bd 89 af 79 3d 35 f1 c0 bc
       -0.07718702 -0.07755234 0.06095842 -0.023552516
000220 d5 a7 84 bd 87 ce 67 bd 57 fb 2d bc 57 89 0a 3d
       -0.06477324 -0.056593444 -0.010619006 0.033822384
000230 bb d9 ba 3c b5 05 81 3c cf c2 ce bc 48 ba 9a 3d
       0.0228089 0.015749792 -0.025239376 0.075550616
000240 9b a0 5a 3d 7f 3b 58 3d fd 59 03 bd c6 44 50 ba
       0.05337582 0.052791115 -0.03206824 -0.00079448184
000250 a2 8a e1 3d dd 77 2e bd 9e 51 11 3d 21 de dd 3c
       0.1101277 -0.04259478 0.035478227 0.027083458
000260 00 f0 40 3d 22 f2 5b 3c 63 14 04 bd af bc 2e bd
       0.04710388 0.013424428 -0.032246005 -0.04266041
000270 e4 59 ee bd 48 27 fa bc 36 d8 37 3d 02 68 d6 3a
       -0.11638239 -0.030536309 0.04488393 0.0016357901
000280 7f 31 a1 3d a9 c4 99 bc 3d 51 98 bd 1c 8f 8d bd
       0.07870769 -0.018770533 -0.0743737 -0.069120616
000290 ee 33 ec bd 0f c8 3e 3d a8 51 c8 3b 07 58 32 3d
       -0.11533342 0.04657751 0.00611325 0.04354098
0002a0 94 1e c2 bc 6a 55 52 bd 21 d3 d6 bc 2e 7c aa 3d
       -0.023696221 -0.05135099 -0.026223721 0.08324467
0002b0 78 3e 57 bc 1c c3 7c 3d 8c f4 0b 3d 25 1f ea 3b
       -0.013137452 0.06170951 0.034168765 0.007144826
0002c0 3a cd a7 3d b7 41 80 3d 5c 2e 8c 3d b2 af 51 bc
       0.08193441 0.06262534 0.0684478 -0.012798237
0002d0 ef ad 9f bd b9 d1 2e 38 6e b5 2b 3c 6a f0 78 bd
       -0.07796847 4.1680152e-05 0.010480268 -0.06077615
0002e0 b8 d4 7c 3d 63 6c 84 bc 5c 96 8b bc ff 8e 24 3d
       0.061726302 -0.016164964 -0.01703947 0.040175434
0002f0 fb de 82 3d 63 3e 8b bd b1 97 67 3d 64 8b dd bc
       0.063901864 -0.06799009 0.05654115 -0.027044006
000300 08 12 e2 3c c0 b7 b1 3d e3 2e 49 bc 97 81 4a bd
       0.027596489 0.08677626 -0.012279245 -0.049439993
000310 26 5c 39 3d bc af 31 bd f5 7a 69 3c b0 54 d1 bc
       0.045253895 -0.043380484 0.014250507 -0.025553077
000320 79 1f 6a bc 9f 5f ba bd da 6d 44 bb c2 95 bb 3d
       -0.01428973 -0.091002695 -0.0029972703 0.091594234
000330 b1 e5 0a 3e d0 d3 0e 3d ef ba a7 3c ad f6 31 3d
       0.13564183 0.03486997 0.02047488 0.04344814
000340 b3 f6 35 3d 98 29 96 bd 94 2b d4 3c a4 b3 13 bd
       0.044424724 -0.07332152 0.025899686 -0.03605999
000350 65 c2 48 bd 19 45 eb 3b 8f ce 30 3d de 7b 9f 3d
       -0.049013514 0.007179868 0.04316574 0.07787298
000360 77 8b 90 bd ee fe 39 3d d5 b5 80 3d 65 6a 9d bd
       -0.07057851 0.045409136 0.06284682 -0.07686309
000370 ef 07 32 3c 58 69 1a 3d b1 2b c8 3d eb b7 80 3c
       0.010866149 0.03769812 0.097739585 0.015712699
000380 e0 f9 01 3d 1e 7e 78 3c 57 45 a0 bd 46 e7 1d 3a
       0.03173244 0.015166787 -0.078257255 0.0006023537
000390 3a c7 9a 3d 9c ca 25 3d 8e 48 26 bc 05 bf 99 3d
       0.07557531 0.040476426 -0.010149134 0.07507137
0003a0 a9 0e 5f bc d2 3a c6 bc 12 ff b2 3c 86 d5 c9 3d
       -0.013614335 -0.02419797 0.021850143 0.098551795
0003b0 3a 8e 82 3d a4 d5 4e 3d cd a7 65 3c 4d 6b cc 3d
       0.06374784 0.050496712 0.014017058 0.099814035
0003c0 39 c9 4c bd 0a 23 b2 bd 4b 8f 81 3d 47 a4 35 bd
       -0.04999659 -0.086980894 0.06326159 -0.04434612
0003d0 40 81 cb bd 06 78 ab bd 15 71 a8 3d fa 7d b8 3c
       -0.09936762 -0.08372502 0.08224694 0.022521008
0003e0 22 34 20 bd 60 3b 49 ba 3a e6 88 3c b6 4d 08 3d
       -0.039112218 -0.0007676389 0.016711343 0.033277236
0003f0 c4 b3 f9 bd 17 1d 99 3d 4f 4b 58 bd aa 43 75 3d
       -0.12192491 0.074762516 -0.052806195 0.059878983

conv4.bias f4 [100]
000000 90 a3 fa b9 08 18 96 3a de cf 1b ba 32 ec 61 39
       -0.0004780558 0.0011451254 -0.00059437554 0.00021545662
000010 5b 96 b2 b8 1c 96 87 37 c2 6e 90 39 31 3b 31 b9
       -8.515707e-05 1.6163154e-05 0.0002754834 -0.00016902086
000020 88 8c b9 b8 bd e0 03 39 d5 19 9e b9 c1 29 63 39
       -8.8476634e-05 0.00012576855 -0.00030155355 0.00021663962
000030 89 44 65 b8 72 fd 51 39 86 ad 89 37 d9 8f 30 ba
       -5.4661683e-05 0.00020026209 1.6412476e-05 -0.0006735302
000040 d2 a3 4c ba 68 27 c9 38 36 04 06 b8 df f6 9b 37
       -0.00078063936 9.591767e-05 -3.195201e-05 1.8592398e-05
000050 85 e9 f9 39 24 ac 86 b9 12 53 00 37 36 c3 2d 38
       0.00047666967 -0.00025686726 7.648736e-06 4.142822e-05
000060 4b 61 64 b8 99 c8 8c b9 a9 38 5a 39 1f a1 d4 36
       -5.4450047e-05 -0.00026852338 0.00020811208 6.3368493e-06
000070 f3 54 15 b9 d1 94 b2 39 50 87 53 39 74 69 06 39
       -0.00014241393 0.00034061683 0.00020172936 0.0001281852
000080 9e 70 34 b9 a2 c9 e5 39 3a 88 93 39 da 98 4f b8
       -0.00017208091 0.00043828512 0.00028139522 -4.9495e-05
000090 02 aa cc 38 09 13 8a b8 64 53 84 38 4f 83 83 b9
       9.7591445e-05 -6.583898e-05 6.309783e-05 -0.000250841
0000a0 8e 12 02 b9 89 c3 26 38 8f 69 22 b9 05 03 3b b9
       -0.00012404678 3.975959e-05 -0.00015488848 -0.00017834835
0000b0 32 ed 30 b9 69 66 a9 b8 66 00 e4 b9 5d 4b a8 b9
       -0.0001687303 -8.077623e-05 -0.00043487846 -0.00032099607
0000c0 a8 48 c8 b9 3d d8 4f 38 35 76 8a b6 cb d5 d8 b8
       -0.00038201106 4.9554033e-05 -4.1264816e-06 -0.00010339505
0000d0 d8 10 2c ba e6 c6 cc b9 13 4d 0a 39 2d f3 f9 38
       -0.0006563789 -0.00039058103 0.00013189418 0.0001191854
0000e0 c4 18 eb b7 09 16 7c b8 61 11 29 b8 0a e1 c2 38
       -2.8025715e-05 -6.0102004e-05 -4.0308925e-05 9.292558e-05
0000f0 f5 fe a8 b8 3b c6 57 ba dd 0d cf b6 9a ef 6c b9
       -8.058354e-05 -0.0008231138 -6.1706946e-06 -0.00022595972
000100 64 92 90 b8 39 b9 ae 39 4c ad 48 39 92 a7 4d b8
       -6.8937225e-05 0.00033325868 0.00019138044 -4.903187e-05
000110 f8 50 65 b9 42 01 5e b9 11 6a 05 80 e8 2c 4a b8
       -0.00021869305 -0.00021172038 -4.97227e-40 -4.8202375e-05
000120 10 45 e0 38 81 5a f4 38 66 db 00 ba 84 8a 6c b9
       0.00010694016 0.00011651684 -0.00049155054 -0.00022558315
000130 91 05 87 b9 a9 7d 72 39 be d3 4e 39 7e 49 42 39
       -0.00025753354 0.0002312573 0.00019724571 0.0001852866
000140 83 d2 f2 b7 da 1e fe 39 49 3e d9 36 45 0c d7 39
       -2.8946675e-05 0.00048469641 6.474355e-06 0.00041017137
000150 50 ed 93 38 95 84 81 38 e0 7e 2b b9 c6 14 08 39
       7.053709e-05 6.175895e-05 -0.00016355095 0.0001297771
000160 b4 3a 8d b9 6d be e0 b8 ee 43 35 39 8e 4b 84 39
       -0.00026937353 -0.00010716622 0.00017286811 0.00025233295
000170 e8 4f 3d 38 65 d3 0b b9 fe 1a 3d b9 53 0b 10 39
       4.513553e-05 -0.00013334824 -0.000180345 0.00013737129
000180 64 21 44 39 ec ee 32 3a f6 fb b6 b9 49 1b 4f 39
       0.00018704456 0.0006825763 -0.0003490147 0.00019751223

bn1.weight f4 [64]
000000 5b 00 5e 3e 84 f3 28 3e 7b 79 25 3f 71 8b cc 3e
       0.21679823 0.16499144 0.6463849 0.39950135
000010 2a 49 6d 3c cd 63 3f 3f 94 6d ae 3e aa 9f a0 3d
       0.014482776 0.7476166 0.34067976 0.078429535
000020 58 1b 6f 3f 30 1d e5 3e 02 c0 0d 3f 9a d1 23 3f
       0.934011 0.4474883 0.55371106 0.639917
000030 bc 99 2c 3f ad 90 a7 3e 80 13 78 3f d5 7e c3 3e
       0.6742208 0.32727566 0.96904755 0.38182703
000040 97 4f 2f 3d 84 c1 d3 3e 47 98 57 3f 0e 71 5e 3f
       0.042800512 0.41358578 0.8421673 0.8689126
000050 9f ac cb 3e 38 94 93 3e 29 19 75 3f 23 e4 29 3f
       0.39780137 0.2882402 0.95741516 0.66363734
000060 ab d4 87 3e 8b 23 73 3f ce 24 5d 3f 0a ef 1e 3f
       0.2652944 0.9497611 0.86384284 0.62083495
000070 a0 07 93 3d c8 43 3e 3e 3a 60 96 3e e6 c9 6a 3f
       0.07179189 0.18580544 0.2937029 0.9171432
000080 f9 6f 1c 3f 23 84 f0 3d c5 bc 92 3e 65 ee 41 3f
       0.61108357 0.11743953 0.28659645 0.75754386
000090 fc de 1e 3f 01 18 4a 3f 2f 97 00 3f d2 b1 14 3f
       0.62059 0.7894288 0.5023069 0.5808383
0000a0 ee 85 40 3f 59 05 6c 3f cc e6 06 3f 1d 7a a9 3e
       0.7520436 0.9219566 0.5269592 0.33100978
0000b0 4f 20 0c 3f 5f e8 74 3f 74 ff a9 3e e1 7b a5 39
       0.547368 0.9566707 0.33202708 0.0003156355
0000c0 87 85 73 3e f3 70 4b 3f 70 eb 26 3f 9d c3 58 3e
       0.23781405 0.7946922 0.65203 0.2116837
0000d0 bf bd 2c 3f bc 04 7c 3f e8 c6 2b 3f e2 79 33 3f
       0.6747703 0.98444724 0.6710038 0.70107853
0000e0 9e a9 e6 3e b6 78 7d 3f ac fa 45 3f a9 f7 c1 3e
       0.45051283 0.99012315 0.7733562 0.37884262
0000f0 05 7f 66 3f 9f 5e 64 3f aa cf 11 3f 05 80 5d 3f
       0.90037566 0.8920688 0.56957495 0.8652347

bn1.bias f4 [64]
000000 f4 d1 2c bc ba 05 5d 3d 63 40 8c 3a 36 5d bf bc
       -0.010548104 0.05396054 0.0010700341 -0.023359876
000010 23 a9 97 bc 6e ea a0 3c 32 2f f6 3c 6f d3 95 bc
       -0.018513268 0.019643035 0.030051801 -0.018289296
000020 22 23 3f 3c 00 9c 47 bc 58 b9 8c bc 2f bd 83 bc
       0.011666091 -0.012183189 -0.017178223 -0.01608142
000030 15 58 92 bc 75 c6 05 3b f2 32 41 3c dd 59 13 3d
       -0.017864266 0.002041248 0.011791931 0.035974372
000040 7d c9 ef 3c 45 a3 fc bb c8 aa 02 3c 90 b8 db bc
       0.029270882 -0.007709893 0.007975288 -0.026821405
000050 9f a7 a5 bc fd 49 af bc 4b 6c d9 bc af 3a 44 3d
       -0.02022153 -0.021397585 -0.026540896 0.047907528
000060 39 0e 35 bc 69 e3 06 3b b5 63 9d 3c be d7 3f bd
       -0.011050754 0.0020582324 0.019212583 -0.046836607
000070 8f a9 7d bc 2c 0b e8 bc 7e 28 ba 3b 2d af ff 3b
       -0.01548232 -0.02832564 0.0056810966 0.007802865
000080 e3 76 34 bc 4d b9 a9 bc da fb 4e bc 19 0c 3e bd
       -0.011014673 -0.020718241 -0.012633288 -0.046398256
000090 e0 8c 13 bb 2d 5d 3e bc 39 8e 4e 3c 4a 81 8e bc
       -0.0022514388 -0.0116188945 0.012607151 -0.017395634
0000a0 74 a2 3d bc 90 e5 35 3d fa e9 a5 bc b0 ad 4d bc
       -0.011574376 0.04440838 -0.02025317 -0.012553617
0000b0 05 f1 a5 3b fd 1b 90 bd 97 ee 30 3c 0a 4a f3 3b
       0.005064132 -0.07036588 0.010799072 0.0074245976
0000c0 19 3e c4 bc 8c 9f f0 3c bb fe 16 3d 61 a5 0b 3d
       -0.023955392 0.029372953 0.036864024 0.034093264
0000d0 d7 92 b3 3c 12 c6 75 bd 3e d4 bf 3c 42 2b 86 3c
       0.021920605 -0.060003348 0.023416635 0.016378049
0000e0 8c 99 b5 bc 3d bd 46 3c 30 da da 3c 50 07 65 bb
       -0.022167943 0.012130079 0.026715368 -0.0034946986
0000f0 1d 27 71 3c ab 44 31 bd 81 b3 4b bc d5 57 22 bd
       0.014718798 -0.043278378 -0.012432934 -0.039634544

bn1.running_mean f4 [64]
000000 95 54 b3 38 87 9a 9f 38 82 d3 60 b9 99 b8 72 38
       8.55114e-05 7.610494e-05 -0.00021441097 5.7869216e-05
000010 1a e6 7f 36 72 c6 5b b9 37 c0 43 39 19 b5 81 b6
       3.8131898e-06 -0.00020959394 0.00018668255 -3.865582e-06
000020 21 8e de 3a 32 e5 e8 39 7b f7 ad b9 63 28 ab 38
       0.0016979614 0.00044421252 -0.0003318152 8.161438e-05
000030 b5 bc 31 3a 30 ed b0 39 61 98 fe 39 8b c6 f2 39
       0.00067801337 0.00033746054 0.00048560186 0.00046305763
000040 c3 82 2f b9 cd 3e bd 38 45 4f 3b 38 db ea 69 3a
       -0.00016738013 9.02392e-05 4.46581e-05 0.0008923241
000050 5e 97 df b8 0d f0 82 b8 32 45 50 38 4e 34 49 39
       -0.00010661663 -6.243596e-05 4.9655508e-05 0.00019188339
000060 88 0a 19 39 17 ea 73 39 60 43 11 b8 e5 e5 b1 b9
       0.0001459514 0.00023261491 -3.4633442e-05 -0.00033931356
000070 f5 6d 86 b7 2e 69 14 38 fc 2e 60 37 e9 07 5c 3a
       -1.6025248e-05 3.5383906e-05 1.336238e-05 0.00083935127
000080 3f b6 0b 39 6c 60 91 b8 14 df c1 39 5f 37 a1 39
       0.00013323965 -6.932099e-05 0.00036978035 0.00030749568
000090 c0 d2 00 3a c5 7d 5a ba aa 25 0f b8 d3 8d 74 39
       0.00049142167 -0.0008334781 -3.4128934e-05 0.00023322487
0000a0 31 69 82 b9 2d 54 ff 3a ec 43 f9 b8 ac 20 e3 b8
       -0.00024873906 0.0019480042 -0.00011885897 -0.00010830289
0000b0 5f b5 64 b9 c4 4f 27 b9 04 5f 88 ba 58 a4 92 34
       -0.0002181134 -0.00015956076 -0.0010404293 2.7314195e-07
0000c0 83 dc 6c b9 64 92 8c b8 bd 4b b4 b9 5c ce 8b b9
       -0.00022588861 -6.7029876e-05 -0.00034388705 -0.00026665896
0000d0 68 59 ef 39 62 21 1f ba d4 ad ef b9 3b 70 cd 38
       0.00045652245 -0.0006070343 -0.00045715144 9.796066e-05
0000e0 02 25 0e b9 97 5f ba b9 cc 5e 0a ba 44 a9 0a 3a
       -0.00013555962 -0.00035547905 -0.0005278408 0.0005289505
0000f0 98 2d d7 ba 62 6c 98 ba 80 70 c7 39 af 21 86 b9
       -0.0016416786 -0.001162898 0.00038040057 -0.00025583568

bn1.running_var f4 [64]
000000 c3 cd 08 3d 31 2e 8b 3d 51 a4 8e 3d 9f 0a 5e 3d
       0.033399355 0.0679592 0.069649346 0.054209348
000010 ba 26 36 3c 80 03 4b 3d fb 16 54 3d 7d 15 f5 3c
       0.011117632 0.049563885 0.05177973 0.029917473
000020 96 8a 32 3d 35 79 62 3d e7 df d0 3c e1 0d 93 3c
       0.043589197 0.055291373 0.02549739 0.017950954
000030 5b 07 42 3d 1f c9 ab 3c 90 ce ad 3d 32 2c 5a 3d
       0.047370296 0.020969925 0.08486664 0.053264804
000040 ca 3e a2 3c c0 85 db 3c 5a 81 c8 3b 5e e6 c8 3c
       0.01980533 0.026797175 0.0061189355 0.02452391
000050 22 0a 45 3d c9 ba 5f 3d 2b 1d 1f 3d 4a 76 bf 3c
       0.048105367 0.05462149 0.038846176 0.023371834
000060 b5 86 e9 3c 70 15 1d 3d a2 20 1a 3d 3c 69 77 3d
       0.028506616 0.038350523 0.037628777 0.060403094
000070 11 40 9f 3d 04 74 9c 3d 12 b5 5d 3d 45 a1 26 3c
       0.077758916 0.07639316 0.05412776 0.010170286
000080 2b 6c 6e 3d d7 63 6e 3d 3f ef 5e 3c c9 da 90 3d
       0.058208626 0.058200683 0.013606845 0.0707298
000090 c9 32 4f 3d fe ba 09 3d e3 1b 47 3c b4 6c 99 3d
       0.050585542 0.033625595 0.012152645 0.074914366
0000a0 24 65 4d 3d c9 0a ed 3c 95 75 9d 3b 11 0a b3 3d
       0.050145283 0.028935807 0.0048052766 0.087421544
0000b0 b4 02 27 3d f9 67 85 3d d3 09 fa 3c 92 ce 22 3d
       0.040774062 0.06513972 0.030522263 0.039747782
0000c0 ab b9 04 3d 62 c9 64 3d d3 e4 31 3d 48 6c 36 3d
       0.03240363 0.055856116 0.043431114 0.04453686
0000d0 2b 69 e0 3c 0a f6 27 3d 36 58 a0 3c 0f 5c 9d 3c
       0.027393898 0.041006126 0.019573312 0.019208936
0000e0 c5 85 ae 3d 34 71 55 3d 9e 60 5c 3d 51 81 84 3d
       0.08521608 0.052109912 0.05380308 0.06469978
0000f0 55 b7 91 3c 5c 29 1c 3d 2a b1 29 3d 85 60 6a 3d
       0.017787615 0.03812538 0.041428722 0.057220954

bn2.weight f4 [128]
000000 c4 ad 07 3f 78 2d 4f 3f ec 46 13 3f a7 02 b4 3d
       0.5299952 0.80928755 0.57530093 0.087895684
000010 df aa 58 3f 59 02 b2 3e 18 02 75 3e f0 92 f9 3e
       0.8463573 0.34767416 0.2392658 0.48744917
000020 87 aa 67 3f f3 e3 2a 3f 98 5a e6 3e 12 87 30 3f
       0.9049458 0.6675407 0.44990993 0.689561
000030 a7 c7 34 3f bb 8f 2f 3f 35 31 e3 3d 93 0f 1d 3e
       0.70617145 0.6857869 0.1109337 0.15337972
000040 e7 d3 0b 3f 96 55 12 3f 09 b3 88 3d 62 93 69 3f
       0.5462021 0.57161844 0.06674773 0.91240513
000050 41 dd 37 3f 14 0e 36 3f 67 6d 51 3e 0c 8b b5 3e
       0.7182198 0.7111523 0.2045189 0.35457647
000060 ac fc 38 3f 6d 5e f4 3e e3 e0 80 3e c3 04 64 3f
       0.72260547 0.4772829 0.25171575 0.89069766
000070 43 0a 13 3f 98 e6 37 3f 97 59 87 3d dc 4c b2 3e
       0.57437533 0.71836233 0.06608885 0.34824264
000080 1a cf 12 3e bb 5e b6 3e 2b c4 69 3f 8c 1d 19 3f
       0.14336815 0.3561915 0.91314954 0.5981071
000090 14 3c 20 3f be e9 eb 3e 93 40 8e 3e 72 ec 6c 3d
       0.6259167 0.4607677 0.2778364 0.05784268
0000a0 d1 e2 37 3f b9 ab d4 3e b3 d8 3c 3f ca 56 77 3f
       0.7183047 0.41537264 0.73768157 0.96616805
0000b0 f3 b7 26 3f c3 0c b7 3e bb b5 75 3f 14 ec 95 3e
       0.65124434 0.35751924 0.95980424 0.29281676
0000c0 3d 0d 3d 3f 52 4b fe 3e 71 87 47 3f 2c db 4c 3f
       0.73848325 0.4966684 0.7794104 0.8002193
0000d0 00 f9 4a 3f a6 d9 5f 3f 27 b5 34 3e 88 20 83 3e
       0.79286194 0.8744148 0.17647229 0.25610757
0000e0 9f 07 fb 3e ab 2d 12 3e ec 3a f9 3e cd dd 20 3e
       0.49029252 0.14275233 0.48677766 0.1570961
0000f0 75 35 46 3f ce 8e 10 3e ce 22 5c 3f 40 8b e8 3e
       0.7742532 0.14116976 0.8599061 0.4541874
000100 2e a5 3b 3e f9 fc 50 3f 03 ee ca 3e 42 f4 b4 3e
       0.1832473 0.81636006 0.39634714 0.35342604
000110 53 92 f9 3e 0f 8f 03 3f 8d 31 5c 3e b3 50 dd 3e
       0.4874445 0.51390165 0.21503277 0.4322563
000120 05 23 02 3f b3 3b 00 3f 2c 9c 32 3f cf 56 6c 3f
       0.50834686 0.50091094 0.6976955 0.9231996
000130 37 b8 ec 3e 49 23 d5 3d b5 24 d5 3e 28 8d fb 3e
       0.46234295 0.10407121 0.41629568 0.4913113
000140 7e 81 3a 3f f3 5a cd 39 75 52 b7 3e 0f c2 6e 3e
       0.7285384 0.0003916841 0.35805097 0.23316215
000150 0f 70 0d 3e 52 c1 0c 3f 92 ee 05 3f b2 c7 59 3f
       0.13812278 0.54982483 0.52317154 0.85070336
000160 c9 64 80 3e 27 88 52 3f 17 aa a3 3d 1c df 6b 3f
       0.25076893 0.82239 0.079914264 0.9213731
000170 4e a0 7f 3f 28 7a 4e 3f f4 22 01 3f 25 73 55 3d
       0.9985398 0.80655146 0.5044396 0.052111764
000180 a7 ef 3d 3f 28 a1 12 3f 04 88 a1 3e 76 5f 56 3f
       0.74193805 0.57277155 0.31549084 0.8373941
000190 51 f7 e7 3c 93 ac 05 3f 8a da 75 3f 8c 4d 58 3f
       0.028316172 0.5221645 0.9603659 0.8449333
0001a0 3a 3b 42 3e 35 e1 87 3e ce ab 18 3f c7 44 28 3f
       0.18967906 0.26539007 0.59637153 0.65729946
0001b0 83 e0 af 3e 32 4c 25 3f 2f 81 c4 3e 37 1c 7b 3f
       0.34350976 0.6456939 0.3837981 0.9808993
0001c0 24 b0 8d 3e c9 d7 75 3f 13 8e 9b 3e b5 a7 6f 3f
       0.27673447 0.96032387 0.30381832 0.93615276
0001d0 3d c3 04 3f 1d 5a 33 3f 31 f8 a6 3e 05 30 bb 3e
       0.5186041 0.70059377 0.3261123 0.36560073
0001e0 b9 63 64 3e a0 24 5b 3f 65 da 37 3f a3 fc 1f 3f
       0.22303666 0.8560276 0.7181762 0.6249487
0001f0 42 d2 79 3e 95 8e 35 3f 79 f7 36 3f 82 90 bd 38
       0.24396613 0.7092069 0.71471363 9.039139e-05
